best_model.pth (torch, 712235 bytes, 10 tensors)

fc1.weight f4 [512, 8]
000000 0d 85 aa bd 6c 4c 6b 3e c1 11 82 bd cf c6 72 be
       -0.08326159 0.22978371 -0.063510425 -0.23708652
000010 69 9c d7 3c 74 7c c0 be 70 65 22 be a3 35 ab bb
       0.0263197 -0.3759495 -0.15859008 -0.0052249
000020 ec 26 6f 3c 70 14 dd 3e 77 bd 4a 3e e8 8e 43 3e
       0.014596682 0.43179655 0.19798838 0.19097483
000030 86 da d2 3d 75 5e 2c be 8e 0f 35 be cd 59 9d 3d
       0.10295586 -0.16832907 -0.17681715 0.07683144
000040 bc 44 87 be b4 70 b0 3c 78 0a c2 bd 92 f9 9a be
       -0.26419628 0.021538116 -0.09474653 -0.30268532
000050 fc c2 ba be 1d 9a ac 3d b1 05 7c 3e 60 7d 4a be
       -0.36476886 0.08427832 0.24611546 -0.1977439
000060 86 62 21 3e 5a dc 1c 3e 94 52 67 be 87 e0 b4 be
       0.1576024 0.15318432 -0.22590095 -0.3532755
000070 63 a5 28 be 53 cc af 3e bc bc 7c be 08 e7 a0 be
       -0.1646934 0.34335575 -0.24681371 -0.31426263
000080 d2 a6 a3 3e d5 70 9e be 32 b8 85 3e 44 17 8f 3d
       0.3196321 -0.3094546 0.26117092 0.069868594
000090 40 cf 7f 3e 9d 77 80 3e eb 9c 17 3d 17 f0 28 3e
       0.24981403 0.25091258 0.037014883 0.16497837
0000a0 f0 19 27 bd 38 02 98 be 4e 1b 8f be ad 68 ab 3e
       -0.04079622 -0.29689193 -0.2795052 0.334783
0000b0 00 9e 8a bc 00 a0 04 b8 00 b2 e2 3c 97 ba 8c 3e
       -0.016921043 -3.1620264e-05 0.027672768 0.27486107
0000c0 fa 4a 72 3e 06 ea a2 3d 17 a3 8a be 85 ad 0f be
       0.23661414 0.07954793 -0.27077553 -0.14031036
0000d0 58 c2 f2 3c e1 7d e7 39 d2 d1 43 be be 98 99 be
       0.029633686 0.0004415354 -0.19123009 -0.29999346
0000e0 5a fd 9e 3c 65 9e 2c bc 32 73 70 3e 7f 37 63 3e
       0.019407917 -0.010535811 0.23481444 0.22189139
0000f0 06 31 fb bd c8 8b 9b be cd 9e 89 3e 54 ef 0a 3e
       -0.1226521 -0.30380082 0.26878968 0.13567859
000100 af bc 98 be 31 73 49 3e 4d 48 57 be e6 b1 79 3e
       -0.29831454 0.19672848 -0.21023674 0.24384269
000110 ed cd 28 3e 3c ae 12 3e 6e 60 55 bb c9 70 56 be
       0.16484804 0.14324278 -0.0032558697 -0.20941462
000120 b0 43 59 be a0 d7 7b 3e eb ed d8 3d d8 f7 a9 be
       -0.21217227 0.24593973 0.10592254 -0.33196902
000130 4e a0 6b bd 80 b7 93 3e d0 88 3f 3e b4 7c f9 bd
       -0.057525925 0.28850937 0.18704534 -0.12181988
000140 27 63 83 be 00 2a a2 be 98 96 cd bd 30 2b c8 bd
       -0.25661585 -0.31672668 -0.10038489 -0.09773862
000150 55 59 a1 be bd c9 32 be 5c 73 a6 be 10 4f 6e 3d
       -0.31513467 -0.1745977 -0.32509887 0.05818087
000160 94 89 c3 3d 0a 36 a2 3e 8c 80 ad be de fd 55 3c
       0.09547725 0.31681854 -0.33887136 0.013061015
000170 7b f6 60 bc 26 a1 93 3d 50 0e a2 be e6 b4 2b bc
       -0.0137306405 0.07208471 -0.31651545 -0.010480141
000180 84 50 8e 3e 78 39 74 be 9e ba b8 3d 11 32 b4 3e
       0.27795804 -0.23850048 0.090199694 0.35194448
000190 09 fc 03 3e cc 8d eb 3d a4 a5 84 be 15 25 c9 3d
       0.12889113 0.11501655 -0.25907624 0.09821526
0001a0 bc d4 b4 3e 70 c3 42 be 08 4b 71 be 2c 38 a9 bd
       0.35318553 -0.19019866 -0.23563778 -0.08262667
0001b0 a4 35 26 3e 6e ec 36 3e 6c 6c 93 be 10 09 57 3d
       0.162314 0.17863628 -0.28793657 0.052498877
0001c0 0d 78 95 3d ae 55 d3 3d 22 48 0e be 0d be e8 bc
       0.072982885 0.103190765 -0.13894704 -0.028410936
0001d0 42 cf 62 be 4d 9d 32 be 87 71 bf 3d 4c d5 49 be
       -0.22149375 -0.17442818 0.093478255 -0.19710273
0001e0 5d d8 53 3e 8c d8 95 3c d6 f1 64 3e a9 5c 93 3a
       0.20688005 0.018291734 0.22357878 0.0011242825
0001f0 37 d8 4c be b6 28 85 3e 63 d6 22 3e 77 a9 51 bd
       -0.20004354 0.26007622 0.15902095 -0.051187005
000200 6a bc 96 be f6 3c 56 be 1b 1a 94 3e 66 1e 1f be
       -0.29440624 -0.20921692 0.28926167 -0.1553894
000210 cb 57 d6 bd 52 ac a2 be ee 68 78 bd b3 35 61 bc
       -0.10465964 -0.31772095 -0.060646944 -0.013745713
000220 a4 b4 bf bd 83 65 be 3d 9a 84 b9 bd 25 ac 95 3d
       -0.09360626 0.092967056 -0.09058495 0.073082246
000230 a1 aa a5 be ec 9c 92 be 9e 3a b6 3b 6e 29 4c 3e
       -0.32356742 -0.28635347 0.005561187 0.19937679
000240 43 6b 89 3e e6 28 b7 be 45 05 83 bc b6 30 40 be
       0.26839647 -0.3577339 -0.015993724 -0.18768582
000250 b9 87 5c 3e 0e 41 9e be 33 ef cd 3c 85 46 7d be
       0.21536149 -0.30909008 0.025138473 -0.24733932
000260 63 b8 00 be 60 14 b5 be 76 7d b2 3d 24 b3 01 3e
       -0.12570338 -0.35367107 0.08715336 0.12665993
000270 96 07 94 3e b1 20 79 be 26 3a b0 3e f0 07 81 3b
       0.28912038 -0.24328877 0.34419364 0.003937714
000280 ba 89 52 3e fc ff 95 be 34 76 86 be ca 60 27 be
       0.20560351 -0.29296863 -0.26262057 -0.16345516
000290 f7 49 77 3d dc 98 72 be 8e e3 4e 3e e8 a6 57 3e
       0.060373273 -0.23691124 0.20203993 0.21059763
0002a0 07 7e 82 3e 16 52 a0 3d 21 93 0c 3c 09 d1 7e 3e
       0.25486776 0.07828157 0.00858 0.24884428
0002b0 5c 78 a2 be b6 81 cb bd 80 3c a7 be 3f b5 15 3e
       -0.31732452 -0.0993685 -0.32663345 0.14619921
0002c0 43 64 a8 bc 2a bf 89 3e 03 7a a1 3d 6b eb ab 3e
       -0.020555621 0.2690366 0.078846 0.33578047
0002d0 1f 48 d1 3d 65 8e 0d be a6 6c 6b 3e d6 e7 89 be
       0.10218834 -0.1382385 0.22990665 -0.2693469
0002e0 64 e7 98 be 13 8a f9 bd 46 73 ae be 5b 05 36 3e
       -0.29864037 -0.12184539 -0.34072322 0.1777548
0002f0 e7 bc 93 3d 23 0e b7 3d a3 f2 7c 3e 8d 87 1d be
       0.07213765 0.08938243 0.24701934 -0.1538374
000300 78 7a 01 bd 48 02 58 be 3d 76 92 be a0 8b 8e be
       -0.031610936 -0.2109462 -0.28605834 -0.278409
000310 91 1e 98 3e 10 84 03 3d 56 e3 04 3e f2 eb 57 3e
       0.2971082 0.032108366 0.12977347 0.210861
000320 70 34 b0 be 93 5a 9b be c9 2e a9 be 35 6c 9e 3e
       -0.34415007 -0.3034254 -0.33043507 0.3094193
000330 b8 c7 a6 3e 79 74 d5 3d 31 87 a5 bd 94 67 10 3e
       0.32574248 0.10422606 -0.08082426 0.14102012
000340 5c ca 64 be 2e 12 3a 3e 01 d6 34 be fb ba 90 be
       -0.22342819 0.18170998 -0.17659761 -0.28267655
000350 c5 59 8e be fc bd 0a 3e 92 1c 56 3e 2a b6 27 3e
       -0.27802864 0.13549036 0.20909336 0.16378084
000360 68 ab 22 be 5a aa b0 be b5 c9 9b 3e e3 72 9a 3d
       -0.15885699 -0.34504968 0.30427328 0.07541444
000370 1f fc 99 be 84 46 95 be ae a9 b5 3d 22 96 5f 3e
       -0.30075166 -0.29155362 0.088702545 0.21834615
000380 c7 9b b1 3e 19 1b 58 3e f2 44 00 3d b2 bc 2a be
       0.3468916 0.21104087 0.03131575 -0.16673544
000390 19 e3 89 be 4e 11 92 3e 1b 6e b2 3d 82 d2 90 3e
       -0.26931074 0.28528827 0.08712407 0.28285605
0003a0 84 a5 e6 bd bb e5 09 be 98 86 9f be c6 05 07 3e
       -0.11262038 -0.13466541 -0.31157374 0.13185796
0003b0 a6 5b 50 be 3f cd 84 3e 46 59 2e 3e 7d 80 9a be
       -0.20347461 0.2593784 0.17026243 -0.30176154
0003c0 b0 f4 99 3e 83 91 0f bd d4 89 d7 bd 30 45 6c bb
       0.30069494 -0.03505088 -0.105243355 -0.003605198
0003d0 db 0f 80 be 7c 81 4f be dc 49 ae 3d 9f 46 98 3d
       -0.25012097 -0.20264238 0.08510181 0.07435345
0003e0 ad 99 36 3e 99 8c c8 be 1a 54 64 3e e8 a8 82 be
       0.1783206 -0.39169767 0.22297707 -0.2551949
0003f0 d4 03 e9 3d 90 0a 0f 3d 86 d0 46 3e 79 6f c2 3d
       0.11377683 0.034922183 0.19415483 0.09493918

fc1.bias f4 [512]
000000 26 93 58 3e 48 32 24 be f2 49 6e 3e ef 36 80 be
       0.21149883 -0.16034806 0.23270395 -0.2504191
000010 86 f1 96 be ac 93 ca bd cc 8f b6 3c bc 70 4f 3d
       -0.29481143 -0.098914474 0.022285365 0.05064462
000020 cc 7d f3 3d 29 bf 1f bb 44 08 8f 3d 1e 0e 3b be
       0.11889228 -0.0024375415 0.069839984 -0.18267104
000030 36 a0 64 be b5 5c 14 3a 43 a0 c8 3d 50 b0 94 3c
       -0.2232674 0.00056595664 0.097961925 0.018150479
000040 c9 b8 76 3e cb 3d e2 bd 4e 2e c1 3e c6 ab 0d 3e
       0.24093927 -0.11046942 0.3773064 0.13835058
000050 85 13 35 3d 2f 1d 90 be 77 e5 97 bd fb 6e 77 3c
       0.04420807 -0.28147265 -0.07416814 0.015102143
000060 8a f6 86 be 6a fd 67 3e 04 10 5c be 29 90 db bd
       -0.2635997 0.22655264 -0.21490484 -0.10720856
000070 98 cd 99 bd 78 f1 b2 be 1d d0 80 bd 38 fa 76 3d
       -0.07509917 -0.3494985 -0.062896945 0.06029722
000080 d0 a9 51 be 2d 3f 10 be 1b b4 9d be 9a 81 89 be
       -0.20474935 -0.140866 -0.30801472 -0.2685669
000090 94 4f 60 be 09 9e 9d bd 80 11 9e be cb a7 14 bc
       -0.21905357 -0.076961584 -0.30872726 -0.009073208
0000a0 75 4a 7f 3d 3d e9 d4 bd 3a 16 95 be b5 28 9d be
       0.062326867 -0.10396049 -0.2911852 -0.3069512
0000b0 cd 20 94 bd 83 e3 75 3d d5 50 28 3e 2c 6e 84 bd
       -0.07232819 0.060031425 0.16437085 -0.06466326
0000c0 8e 90 83 3e 4e 44 a8 be 4f 3b e0 bc 07 7b d8 bc
       0.25696224 -0.32864612 -0.02737203 -0.026425852
0000d0 e2 d2 80 3e e9 5c 2e bc 5f 36 81 3e 6e 58 3f be
       0.2516089 -0.010642269 0.25236794 -0.18686077
0000e0 54 b1 25 be b9 13 ff bd 4d 58 e2 3d 5e 1a 6d 3e
       -0.16180927 -0.12454934 0.11051998 0.2315459
0000f0 54 96 4a be 8a b3 4b bd e3 fb 9e 3d ed 8c 17 be
       -0.19783908 -0.04973177 0.07762887 -0.14799853
000100 68 66 60 3e 0f a2 bf 3b 0e f1 64 3d 67 90 9a be
       0.21914065 0.0058481763 0.05589395 -0.30188295
000110 e7 72 a1 3e 8b 11 0d be a2 2b 2c be 30 5f 5c be
       0.31532976 -0.13776223 -0.1681352 -0.21520686
000120 06 03 7c 3e 90 37 9e be 96 d0 9e 3d c4 39 2b be
       0.24610528 -0.30901766 0.07754628 -0.16721255
000130 78 60 41 3e 1e f6 a4 be 4e ab 37 3e e7 20 28 3e
       0.18884456 -0.32219023 0.17936441 0.16418801
000140 18 d2 32 3e 07 98 82 3e 40 8f 8b be 3f 30 3c be
       0.17462957 0.25506613 -0.2725773 -0.1837778
000150 60 01 1b 3c 9f 14 3e be 4d 42 07 bd 3b 67 1f bd
       0.009460777 -0.18562554 -0.033022214 -0.038916808
000160 6d 4e 85 be 5a 32 85 be f0 fb a1 be 48 98 b3 be
       -0.26036397 -0.26014978 -0.31637526 -0.3507712
000170 a0 14 15 be 27 e9 95 be 91 48 79 3d 16 b8 28 3e
       -0.14558649 -0.29279444 0.06086022 0.16476473
000180 7c 5f c6 bd 79 5b 7d 3e 2c e7 9c be 0f 4b e1 bd
       -0.09686181 0.24741925 -0.3064512 -0.110006444
000190 df a6 5d 3d b2 a2 60 be bc 42 5b 3e 75 3b b0 be
       0.05411422 -0.21937063 0.21412176 -0.34420362
0001a0 71 97 89 be b7 39 59 3d be 87 80 be 31 fc 9b be
       -0.26873353 0.053033557 -0.25103563 -0.30465844
0001b0 1a 60 2e be 44 f5 25 3e 76 64 93 bd d7 30 b9 3e
       -0.17028847 0.16206843 -0.07196896 0.36170074
0001c0 8a 1d d4 bd c6 d3 a2 be 47 cf 2d bd 2b af 8f bd
       -0.10357197 -0.31802195 -0.042434003 -0.070158325
0001d0 65 ad 68 be f6 5e fb bd 9b 6f 8c be 8b 22 7d be
       -0.22722395 -0.12273972 -0.27428898 -0.24720208
0001e0 5c 7e 98 3d 25 2f 08 3e 04 3b 49 3d 3c bf 7f 3e
       0.07445976 0.13299234 0.049128547 0.24975294
0001f0 0d 51 19 be 8c 91 ad bd 5e 79 7a be 90 90 2a be
       -0.14972325 -0.084750265 -0.2446036 -0.16656709
000200 3b 38 fe 3d 15 93 f9 bd 1e e0 0f bd 5d 3b f5 3d
       0.12413069 -0.12186257 -0.035125844 0.11974213
000210 c4 5e a5 3d 0a 04 b2 bd b3 f5 a5 be 1a 26 06 3d
       0.08074716 -0.08692177 -0.32414016 0.03275118
000220 4c fa 1b 3e 58 20 f8 3d ca 20 af 3e 70 dd 5f 3e
       0.152322 0.12115544 0.34204704 0.21861815
000230 7c 89 a4 be 9e b4 81 be 57 33 0e 3e 35 7a 0e 3c
       -0.32136142 -0.25333112 0.13886772 0.008696129
000240 dd b8 3a 3e 4a d3 5d 3e 93 5e 40 be fc ce b2 3c
       0.18234582 0.21662632 -0.18786077 0.021827213
000250 28 2b bc 3d ec 76 60 3d ad a0 56 3e 3b 01 7d 3e
       0.09187919 0.054800913 0.2095973 0.247075
000260 d8 30 20 be 3a 91 27 3e 23 ff 41 be 33 89 0d be
       -0.15643632 0.16363993 -0.18944983 -0.13821869
000270 eb 18 e6 3d 92 eb e4 bd c3 bf 89 be 0b d9 5a be
       0.112352215 -0.11177744 -0.26904115 -0.21371858
000280 31 6e db bd 48 9b 0c be 59 35 85 be d9 e6 8a be
       -0.10714377 -0.1373111 -0.26017264 -0.27129248
000290 e2 44 9e 3e 5e 5b f6 bd f6 1e d8 3d c7 0d d2 bd
       0.30911928 -0.12029146 0.1055278 -0.10256534
0002a0 a7 9e 86 be ee fc 3b 3e ff 15 5b be bf 9d 56 3c
       -0.26292917 0.18358204 -0.2139511 0.013099133
0002b0 31 ec 99 be e4 0c 91 be 54 e4 80 3d 0e 9c ba 3e
       -0.30063012 -0.28330147 0.0629355 0.36447185
0002c0 bc ab 87 be 9a 14 a6 be 80 a6 f9 bd 96 57 02 3d
       -0.2649821 -0.32437593 -0.121899605 0.03182181
0002d0 54 c0 19 be 46 6c bb 3d 48 35 09 be e2 db a0 bd
       -0.15014774 0.09151511 -0.13399231 -0.07854439
0002e0 fd 1e 63 be 60 88 20 3e 7e 4f 8e bd 8f ec bf be
       -0.2217979 0.15677023 -0.06948756 -0.37485167
0002f0 82 63 5f 3d 4f c8 16 be ca 35 45 be a7 d3 12 3e
       0.054538257 -0.14724849 -0.192588 0.14338551
000300 de 00 79 3e 52 62 49 3e 01 09 b8 bd f2 38 37 be
       0.24316737 0.19666412 -0.08986092 -0.17892817
000310 09 eb 2a 3d 6e 74 aa be f6 1e 37 be a8 ce 0e 3d
       0.041728053 -0.33291954 -0.17882904 0.03486505
000320 87 10 ae be 29 9c 57 3c d2 65 3a be 0f 34 85 3e
       -0.33996984 0.01315979 -0.18202904 0.2601628
000330 f4 10 82 3d 4f 3f 56 3e a4 9c 7a be 68 53 8c be
       0.0635089 0.20922588 -0.24473816 -0.27407384
000340 4f b7 e9 3d fb ae 96 be 27 51 9b 3d 32 4b a6 be
       0.114119165 -0.29430375 0.07583838 -0.32479244
000350 16 72 2e bd 66 26 27 be 43 81 82 bc 3d ac 1d be
       -0.04258927 -0.16323242 -0.015930777 -0.15397735
000360 be 77 ce bd b7 ff f0 3d d3 bb 68 be 19 8a 62 bd
       -0.10081433 0.11767524 -0.22727899 -0.05530748
000370 56 60 56 3e c3 91 09 3e 25 99 d5 3d cc 56 02 3e
       0.20935187 0.1343451 0.104296006 0.12728423
000380 10 0b 96 be 44 82 26 3e fd 05 0e bd 02 5f 7b 3e
       -0.29305315 0.1626063 -0.03467368 0.24547961
000390 0a 32 62 3a 25 9b df 3d 74 f4 84 3d f2 a5 44 3e
       0.0008628672 0.10918263 0.06491938 0.19203928
0003a0 40 b0 aa 3e 40 0f 62 3d 69 c3 12 bd aa 06 87 be
       0.33337593 0.055190325 -0.03583089 -0.26372272
0003b0 d4 b5 72 3e 58 72 15 3e 57 d8 4c 3e 4a 7c 61 3e
       0.23702174 0.145944 0.20004402 0.22020069
0003c0 f9 e8 a7 bd 17 db 68 3e 7d a7 7c 3e 46 25 91 bc
       -0.08198733 0.22739826 0.24673267 -0.017717969
0003d0 be 40 6e 3e c6 c0 5d be 8a 0e 9c be b7 a9 07 3e
       0.23266885 -0.21655568 -0.30479842 0.13248335
0003e0 66 85 b3 3d 4b 2d 55 3e 1b ad 3c be c1 8a 20 be
       0.08765678 0.20818059 -0.1842541 -0.1567793
0003f0 87 d5 32 3d d3 66 ad 3e 7c 03 6c bd ff ab 8e be
       0.043660667 0.3386751 -0.05762051 -0.27865598

fc2.weight f4 [256, 512]
000000 9c af 01 3c d6 51 68 3d e6 8a 61 3c 18 3d 19 bc
       0.007915404 0.05671867 0.013766026 -0.009352945
000010 ea 8c fc 3c b6 9f 1e bd 0c ef 28 bc 6a 69 19 bc
       0.030828912 -0.03872653 -0.0103108995 -0.009363512
000020 50 fa d4 ba c9 1c 3a 3d b8 23 84 bb 25 3b 81 bc
       -0.0016248915 0.045437608 -0.0040325783 -0.015775273
000030 10 40 a8 bc 07 99 0a 3d 9a 5a a3 3c 1c 6e 3b bd
       -0.02053836 0.033837344 0.019940663 -0.045759305
000040 c5 8c fa bc 6c bc ce 3b 5f 93 da bc c4 6b cd 3b
       -0.030584702 0.0063090827 -0.0266816 0.00626895
000050 ad ab 9c 3b 58 53 3a bc f0 bd 69 3d f5 34 ac 3c
       0.0047812075 -0.01137241 0.057065904 0.021021346
000060 b8 6b b0 3b 33 dd 2e bd 0f d4 31 3d 2f 5d 19 3c
       0.005383935 -0.04269142 0.043415125 0.009360596
000070 6d 28 d5 3c f8 69 18 3c 7c fd 1a 3c e3 f5 24 bc
       0.026020253 0.009302609 0.009459849 -0.01006839
000080 48 11 4e bc c2 05 b5 bb 94 1f 60 3c b1 dc 22 3d
       -0.012577362 -0.005524368 0.013679404 0.03976125
000090 71 b9 88 bc a8 8d f6 3b 67 40 1f bd 35 7c b9 3c
       -0.016689988 0.007524211 -0.03887978 0.022642234
0000a0 87 38 b6 bc c1 11 8a bc d2 a0 a0 bc 88 f6 37 bc
       -0.022243751 -0.016854169 -0.019607935 -0.011228211
0000b0 a7 80 9b 3c 81 cf 10 3c c7 fe 92 3d 63 36 65 3c
       0.018982245 0.008838535 0.07177501 0.013990018
0000c0 fe d3 22 bd 92 5d 34 bd 98 be 19 3d 9e 47 3b 3c
       -0.039752953 -0.044034548 0.03753528 0.011430649
0000d0 b1 d3 a8 bc ec cb 29 3d 26 63 39 bd 1c 62 3a 3c
       -0.020608755 0.04145424 -0.04526057 0.01137593
0000e0 14 de 40 bc 65 b2 88 3c 92 e4 60 3c 7c 6b 74 3c
       -0.011771698 0.016686628 0.01372637 0.014918204
0000f0 33 d0 86 bc 45 8a 02 3d be f0 08 bb 24 70 eb 3c
       -0.016456699 0.031870145 -0.0020895447 0.028739996
000100 11 cd 7b bd a0 c8 b7 3b c0 54 80 3a 08 9a e0 3c
       -0.061474863 0.005608633 0.0009790882 0.027417198
000110 70 5a 50 bb 38 7a 93 bc bb c3 0a 3d 7e 9d a6 3c
       -0.0031792186 -0.018002614 0.03387807 0.02033877
000120 b5 32 a5 bd 14 30 3d 3c 76 ea 47 3d 9c 69 f9 bc
       -0.08066312 0.011547107 0.048807584 -0.030445866
000130 43 eb 92 bd 23 24 db bc 68 b6 14 bd c5 09 e0 3c
       -0.07173779 -0.02675063 -0.03630677 0.027348408
000140 d6 33 fe bc b0 0e 6e 3c ff e8 27 3d 75 f8 ab bc
       -0.031030577 0.014529869 0.040993687 -0.020992497
000150 18 b9 19 bd 7d 81 44 3c 38 a6 1f 3d 1d 80 2b bd
       -0.037530035 0.011993763 0.038976878 -0.041870225
000160 65 3a ac bc b8 e9 cb 3d bf 6f 82 3d 58 d2 14 3c
       -0.021023938 0.09956688 0.0636897 0.009083353
000170 6a 14 a6 3c 87 84 26 3d f0 2f 19 3d e5 21 1a 3c
       0.020273406 0.04065373 0.037399232 0.009407495
000180 40 cd 16 bc e9 7a 11 bd f6 c9 b2 3c f9 5f 66 3b
       -0.009204209 -0.035517607 0.021824818 0.003515242
000190 b2 68 39 bd a0 66 0f 3b 31 81 bd bc 2b 3f 0e 3d
       -0.04526586 0.0021881238 -0.023132892 0.03472821
0001a0 ac f6 29 3c bb 98 98 3c 89 e8 24 bd 74 e2 5f bc
       0.010373753 0.018627515 -0.040260825 -0.0136648305
0001b0 6a 9d 01 3d b1 0f 28 3d 0a b9 8b 3b 88 f7 31 bc
       0.031644262 0.04103059 0.0042640017 -0.010862239
0001c0 c3 4f 7e 3d 7b 4d 9e bc 1d bf 2b 3d f3 a1 bf 3c
       0.062087785 -0.019324055 0.041930307 0.023392653
0001d0 26 c3 2a 3d 80 04 e1 ba b0 ea e7 3c 56 5e d7 3c
       0.041690014 -0.0017167479 0.02831015 0.0262901
0001e0 08 53 56 3c 3b 28 2d bb 66 ab 02 3d 83 fb 82 bd
       0.01308132 -0.0026421684 0.03190174 -0.06395628
0001f0 4c 84 bb 3c 97 c6 28 3d 20 55 f8 3a ac f6 6c 3d
       0.022890233 0.041205015 0.0018946268 0.057852432
000200 b4 5d f9 bb f9 0b 02 3b cc 4e a5 3d 1f 69 37 3d
       -0.0076100472 0.0019843562 0.0807167 0.044777986
000210 70 e1 86 bc 9d 58 d3 3b d2 ea ae 3c b8 ac 8b 3d
       -0.016464919 0.0064497725 0.021352205 0.06820053
000220 27 54 7e bd 38 90 0a bd 6d 94 94 bd 8b 2d a7 3d
       -0.062091973 -0.033828944 -0.072548725 0.081629835
000230 67 10 09 3d ac cf 96 3d 23 b5 15 bb 60 29 a8 3c
       0.033462908 0.07363829 -0.0022843562 0.020527542
000240 2e 04 81 3d a7 60 13 bd 3c 98 87 3d 48 36 a0 3c
       0.06299625 -0.035980847 0.06620833 0.019557133
000250 16 53 09 bd 72 20 ae 3c f0 b8 3a 3d 3e 0c 34 bd
       -0.033526503 0.021255706 0.045586526 -0.043956988
000260 e3 b6 10 bd 75 92 a6 3c db 5b 32 3d a8 7b 25 bc
       -0.035330664 0.020333508 0.04354463 -0.010100283
000270 7a e3 21 3d d3 90 93 bc d6 c2 a6 3c 96 a6 f8 3c
       0.03952358 -0.018013394 0.020356577 0.030352872
000280 4b 96 c5 3c 68 4f 34 3c 64 bd 36 3d 32 ea a3 3c
       0.024119517 0.01100526 0.04461421 0.020009134
000290 c2 15 ee bd 4a 54 1d bd 48 f1 f5 3c 61 b8 b4 3c
       -0.11625244 -0.038410462 0.030022278 0.022060575
0002a0 d0 0a 87 3d 8e 35 e3 bc a8 6b 41 3d ab e8 8b 3c
       0.06593859 -0.027735498 0.04722181 0.017078718
0002b0 1f a0 f6 bc 45 84 2c 3c 52 8b 7f bd 76 30 2d 3b
       -0.030105649 0.010529582 -0.062388726 0.002642659
0002c0 d4 d1 39 3c bb bb 6c 3b ca 2b 98 bb 24 75 cc bc
       0.011341531 0.0036122638 -0.004643892 -0.0249582
0002d0 b9 28 92 3d a1 15 e0 3c e8 78 a5 3c 65 17 62 3d
       0.071366735 0.027354063 0.020199254 0.055198092
0002e0 aa 6d ab 3d 8b f5 97 bc 58 d3 8e 3d aa d3 a3 3d
       0.08370526 -0.018549701 0.06973904 0.07999356
0002f0 83 d6 3c bc 3e 52 49 3d 63 75 01 bd f4 fc 67 ba
       -0.011525753 0.049150698 -0.03160609 -0.00088496436
000300 ac 02 e8 bc ea 66 25 3c fe 85 f7 bc d4 66 6b 3c
       -0.028321587 0.010095337 -0.03021526 0.014367778
000310 0d b4 f0 3c 91 70 33 bd 1a 7c c4 3c 6a b2 0c bd
       0.02938273 -0.043808524 0.023984957 -0.034349836
000320 35 47 10 3d 7d 79 83 3c 3d 6f 2f bd 00 cb 7a bd
       0.03522416 0.016049141 -0.042830694 -0.061228752
000330 6c 48 1d 3d 3c a9 5e 3d 1c 52 29 bc 15 7d 32 3d
       0.038399145 0.054360613 -0.010334518 0.04357632
000340 54 50 14 b9 08 74 9a 39 c3 69 ea 3c a6 5c b7 3c
       -0.00014144304 0.0002945962 0.028614884 0.022383045
000350 82 dc d3 3c 3c b1 a7 3d da a8 33 3d 20 14 08 3b
       0.025861982 0.08188102 0.0438622 0.0020763949
000360 08 49 0b 3d 07 74 cc bc 4b ca e4 3c f5 ea 38 bc
       0.034005195 -0.02495767 0.027928492 -0.011286487
000370 bd 94 a1 bc 2e 43 39 3c 36 9d 89 bc 8f 1d 0b bc
       -0.019724244 0.011307521 -0.016798597 -0.008490934
000380 72 99 21 3d 0d 3e 60 3c 4c c9 9c 3a 3e e4 07 3d
       0.039452977 0.013686669 0.0011961847 0.033176653
000390 ea 62 33 3d 87 a1 04 3c e2 11 79 3d f1 4e 93 bc
       0.043795504 0.008095152 0.06080807 -0.017981978
0003a0 c7 55 8f bd 87 01 a9 3d 10 a1 c1 bc f6 f4 aa bc
       -0.069987826 0.082522444 -0.02363637 -0.02086876
0003b0 33 74 13 bd 7c 8b 1f 3a 32 5e 6a bd 1c dc 35 bd
       -0.035999488 0.00060861534 -0.057218738 -0.044399366
0003c0 5b 39 77 bd e0 45 1a 3b 2a d8 84 bd 56 bf 8a 3b
       -0.060357433 0.0023540184 -0.064865425 0.004234235
0003d0 8a 7a ca ba f4 96 30 3d b6 c8 5e bc 76 c5 45 3c
       -0.0015447896 0.04311271 -0.013597658 0.012071004
0003e0 fd 18 71 bb 19 0c a4 bc bf 3a a7 bc 32 e1 fa 3c
       -0.0036788576 -0.0200253 -0.020413755 0.03062496
0003f0 c7 d5 2a bd d2 19 eb 3b 0d 49 22 3d d3 9a 45 3d
       -0.04170778 0.007174709 0.039620448 0.048243355

fc2.bias f4 [256]
000000 eb c7 a2 bc d7 83 e3 bc 03 b8 77 bd 6a 55 c1 bc
       -0.019870719 -0.027772827 -0.06047822 -0.023600299
000010 7a 2e 1b bd 32 fe bf bd 2d 11 2c bd ba 57 43 bc
       -0.03788612 -0.09374656 -0.042008568 -0.011922771
000020 08 1f ac 3c e7 55 a6 bd ae 70 1c be 23 8f 0f bd
       0.02101089 -0.08121853 -0.15277359 -0.035048615
000030 11 59 dc ba 29 08 84 3d 74 e0 a6 3d 75 91 8e bc
       -0.0016811212 0.06446869 0.0814828 -0.017403344
000040 9a 98 d8 bc 7d a9 9f 3c a8 3c 34 bc 83 c0 2b 3c
       -0.026439954 0.019489998 -0.01100079 0.01048291
000050 31 32 69 bd 55 66 e7 bd 8f 63 69 bd e3 ac 2a bd
       -0.056932632 -0.11298815 -0.056979712 -0.041668784
000060 c3 96 66 3d 9a b8 2c bd 0d f4 56 3d 1d 15 d6 3d
       0.05629612 -0.042168237 0.05247884 0.10453246
000070 46 43 e2 3c 14 13 b8 bc 37 4a cd 3d 96 65 33 bc
       0.02761997 -0.022470035 0.10023921 -0.010949513
000080 8b af c2 bc f4 56 8f bd 88 ae 9c 3d 89 d8 42 bd
       -0.023765346 -0.06999007 0.07650477 -0.047569785
000090 00 74 45 bd ec ed d6 bc b8 1e f4 bb 4f 0c 01 3d
       -0.04820633 -0.026236497 -0.007449951 0.03150588
0000a0 27 95 8d 3b 4a 3b 07 3c dd be 32 bd 0a cd f0 3c
       0.004320759 0.008253882 -0.043639053 0.029394645
0000b0 5d 68 64 bd 7a 84 2c bd 50 3a e6 3c 3a cc aa bc
       -0.05576359 -0.042118527 0.028103977 -0.020849336
0000c0 7b 93 54 bc 14 f8 ab 3d cc b3 50 3d 54 6b 1e 3d
       -0.012974615 0.083969265 0.050952718 0.038676575
0000d0 8f f1 1e bd f8 45 f5 bc 23 2c 5f 3c ef 36 68 bd
       -0.038804587 -0.02994059 0.013621363 -0.056693014
0000e0 3f 43 e3 3c b7 3e 56 bc 24 3d 59 3c b7 f6 61 bd
       0.027742026 -0.013076476 0.013259206 -0.055166926
0000f0 3f aa 3d bd e1 81 2a 3c 06 2e 23 bd 27 ec 5d 3d
       -0.046304937 0.010406942 -0.039838813 0.05418029
000100 5b ad a4 ba fe 1e 7e 3b d9 dc 87 3b fd 80 4f bd
       -0.0012563871 0.0038775797 0.0041462 -0.050660122
000110 ac 09 c6 bc 95 2e b7 3c 4e 42 a7 bc f8 84 13 3d
       -0.024174534 0.02236108 -0.020417359 0.03601548
000120 ce a9 8c 3a 82 40 39 bb 63 d9 e4 bc dc 64 12 bd
       0.0010731758 -0.002826721 -0.02793569 -0.03574072
000130 19 ad 81 3c de 60 c3 3b 18 8f 8d 3d 91 41 85 3d
       0.01582961 0.005962475 0.069120586 0.065066464
000140 47 87 a3 bd 63 9e d5 bc a8 8a be 3c 4e c9 ac bd
       -0.079847865 -0.026076501 0.023259476 -0.08436833
000150 a8 88 80 3c 10 d5 ee ba a9 77 50 bc f3 7d 69 bc
       0.015690163 -0.0018221457 -0.012723842 -0.01425122
000160 fa 90 d8 3c be df a1 3b bb d1 40 bd 87 72 de bd
       0.026436318 0.004940002 -0.047075015 -0.10861688
000170 25 54 cf ba fa a0 68 3d bb fc 51 bd 5e 11 8a bc
       -0.0015817924 0.056794144 -0.051266413 -0.016853984
000180 7f cd 66 bd 3b eb dd bc 1d 9f 01 3d be bc 7c bc
       -0.05634832 -0.027089706 0.031645883 -0.015425859
000190 11 aa d5 3b f1 47 1f bd a6 49 33 bd 74 f8 09 bd
       0.0065205176 -0.038886968 -0.04377141 -0.03368421
0001a0 d1 1b df bd 95 f6 ab 3c 8c cd 01 3c 2c 43 fd bc
       -0.108939774 0.020991603 0.007922541 -0.03091582
0001b0 35 00 27 bd 44 05 57 3b a5 16 02 3d 65 4c 31 3d
       -0.04077168 0.0032809535 0.031759877 0.043285746
0001c0 c3 d4 dd 3c 91 fa a0 bd 52 ec 66 bd bc 74 b3 3c
       0.027078992 -0.07860292 -0.056377716 0.02190625
0001d0 17 f0 a3 bd ae 6a 52 bb b5 5b 15 3d 8b da 31 3c
       -0.08004778 -0.0032107043 0.03646441 0.010855327
0001e0 fa ff 31 bd ad 02 82 3c 3e 1d 1a bb d1 6e 17 3d
       -0.04345701 0.015870417 -0.0023515965 0.036970917
0001f0 35 dc 0e bc dd a8 18 3c 34 c7 ce 3c 8a 88 40 bd
       -0.008719494 0.009317604 0.025241472 -0.047005214
000200 e7 03 92 bc a1 98 e3 3b 4b 57 ea 3c 7b ef c1 3b
       -0.017824126 0.006945685 0.028606078 0.005918441
000210 85 0e 8e bb 9c ae 38 bd 30 45 57 bd f4 24 5d bd
       -0.004335227 -0.045088395 -0.052556217 -0.05399032
000220 25 a5 44 bd 48 b7 30 bc b7 68 53 bd 84 5d a6 3c
       -0.048009057 -0.010785885 -0.051613536 0.020308264
000230 66 51 cd bc 6f 03 48 bc b0 03 10 3c cb d3 3f bd
       -0.025063228 -0.01220785 0.008789942 -0.04683284
000240 b0 72 95 bc de ec 52 bd c0 5b ca bd 7a 93 60 3d
       -0.018243164 -0.051495425 -0.09880781 0.054828145
000250 9a 36 f8 bc 98 97 7c bb f9 e6 9e 3c 46 13 c6 bc
       -0.030299474 -0.0038542505 0.019397246 -0.024179112
000260 e2 3c 96 bc 10 51 d0 bc fe e5 70 3c 62 e0 d4 3c
       -0.018339578 -0.025429279 0.014703272 0.0259859
000270 5b 60 39 bd f5 c5 93 bd e4 3a 23 bc de 40 a4 3c
       -0.045257907 -0.07215492 -0.009962771 0.020050462
000280 39 a1 53 bc e4 7b 72 3c 6c 2e d1 3b 43 7f c0 bc
       -0.012916856 0.014800046 0.0063837077 -0.023498183
000290 bd f1 79 bd a0 92 d0 3c 5b d8 fb bb 9d 78 85 bd
       -0.061021555 0.025460541 -0.0076857037 -0.06517146
0002a0 ca 26 3a bc 57 e7 9e bc 4a 41 1f bd f9 6f a2 bc
       -0.011361787 -0.01939742 -0.038880624 -0.019828783
0002b0 19 f7 84 3c af 1a 8e bc eb 90 2c bd eb fc ef 3c
       0.016231107 -0.017346708 -0.042130392 0.029295405
0002c0 52 f9 9c 3c 5a 21 46 bd 22 14 e7 bb 0f 6a 0d 3c
       0.019161854 -0.04837165 -0.0070519606 0.008631243
0002d0 cb 9f 4d bd 79 78 4a 3c 67 52 9b bc 72 67 2a bd
       -0.05020122 0.0123578245 -0.018960191 -0.04160256
0002e0 b5 d5 d3 bd d0 c3 9e bd 57 5f 65 3d 8f 3e 8c bd
       -0.10343496 -0.07752192 0.055999126 -0.068478696
0002f0 24 45 3b 3a 65 a8 9d bd de 37 18 3d cc 8d 1a bd
       0.00071437866 -0.07698134 0.037162654 -0.037732884
000300 44 83 37 bd 50 88 48 3d 2f 9c c8 3c 8f 96 87 bd
       -0.04480292 0.048958123 0.024488537 -0.06620514
000310 39 aa d3 3b ab 8e b2 bc 84 64 cc 3c 55 1c 37 bd
       0.006459501 -0.021796545 0.024950273 -0.044704754
000320 a5 bc 89 b9 56 5b 66 3c b9 2d 03 bc 59 d5 99 bc
       -0.00026271227 0.014059862 -0.008006507 -0.01877849
000330 49 60 31 3c 21 54 fd bc e7 f4 0f 3d ae 75 4c bc
       0.010826179 -0.030923905 0.035145666 -0.012479229
000340 43 e6 4e 3c 71 a8 b6 3c 39 18 60 bd 2f 82 0c bd
       0.012628141 0.022297116 -0.0547106 -0.03430384
000350 ee e0 90 3b de f8 c3 3c c9 58 5d 3c 6b 98 ef bc
       0.004421345 0.02392238 0.013509938 -0.029247483
000360 89 72 5b bc 22 f0 e2 3c ed 35 3e bd a4 0c 88 b7
       -0.0133940065 0.027702395 -0.046438146 -1.621835e-05
000370 8a 3e b8 3b 85 32 4f 3c bf 20 b2 bb 60 70 47 bc
       0.0056226896 0.012646322 -0.0054360325 -0.012172788
000380 4b 02 a4 3b 0a 1d 35 3c 34 25 24 3c ad e6 02 3d
       0.005005156 0.011054287 0.010018636 0.03195827
000390 4b 47 9f bc 55 b0 30 3c b2 ab 10 bb 43 31 3b bc
       -0.019443175 0.010784228 -0.0022074995 -0.011425319
0003a0 e5 df bb bd fd c3 2f 3c fb 99 78 3d 45 f0 af 3c
       -0.09173564 0.01072788 0.060693722 0.021476874
0003b0 c8 d8 f9 bc 91 5f b2 bc bb 81 01 bd f2 4d 91 3d
       -0.030498877 -0.021774085 -0.03161786 0.07094945
0003c0 f3 ae 4d bd ef a1 28 3d a9 78 b6 bc ac 1a fe bc
       -0.050215673 0.041170057 -0.022274332 -0.031018578
0003d0 78 ff e1 3b 79 1c 50 3d 9c 74 f5 bc ad 5a 4d bc
       0.0068969093 0.050808404 -0.02996283 -0.012533826
0003e0 ec 09 db bc 10 25 2f bc 8a a5 30 bd 80 e2 59 bd
       -0.02673813 -0.010689989 -0.04312662 -0.053194523
0003f0 9c 1a 18 3c 3e 6d b9 bc 92 3c 01 bd c9 e9 06 bd
       0.009283688 -0.022635099 -0.031551905 -0.0329378

fc3.weight f4 [128, 256]
000000 0b b3 df 3c 9f df 30 3c 1c 88 d3 bc 9a 69 41 bb
       0.027307054 0.010795503 -0.025821738 -0.0029512406
000010 10 4e 12 bd 25 a5 e1 3c 7b e3 bd bc cb 54 1a 3d
       -0.035718977 0.027544567 -0.02317976 0.03767852
000020 da 18 13 bd 4a 15 94 bd b3 ca 4d bc ad c8 e0 3c
       -0.035912372 -0.07230623 -0.012560534 0.02743944
000030 02 7d 69 bd 0f 88 7b bd e5 c4 c9 bc 8e c6 33 3d
       -0.057003982 -0.061409052 -0.02463002 0.04389053
000040 d7 a7 99 bc 57 43 8d bd d0 b1 59 3c a5 40 6a 3d
       -0.01875679 -0.0689761 0.013287023 0.057190556
000050 a7 b0 1e bd 83 5e 26 bd 75 c1 64 3d db 7a 78 bd
       -0.038742688 -0.040617477 0.055848558 -0.06066404
000060 00 1d 91 bd 86 df a5 3c 5c 12 83 bd b5 88 78 bd
       -0.070856094 0.020248186 -0.06399986 -0.06067725
000070 f5 ba c4 bb 70 c1 20 bd e8 af a2 bc f8 1d fd bc
       -0.0060037323 -0.039246976 -0.01985927 -0.03089808
000080 b2 23 a4 bc 14 3b cc bc fc 99 9c bc 12 81 07 bd
       -0.020036552 -0.024930514 -0.019116394 -0.033082075
000090 82 90 4d 3d da 94 ee ba 16 00 9f bc 63 59 47 bd
       0.05018664 -0.001820232 -0.01940922 -0.04866923
0000a0 79 37 02 bd c9 aa 0e bd e5 5e 38 3d 4d f0 18 3d
       -0.031791184 -0.034830842 0.045012373 0.037338544
0000b0 ef be db bc 76 47 4f 3c d3 bb 35 3c 29 ea 35 3d
       -0.026824443 0.012651315 0.011092144 0.044412766
0000c0 f4 1e fd bc e4 07 70 3c 82 ed 14 3d 20 c0 f1 bc
       -0.030898549 0.014650319 0.036359318 -0.029510558
0000d0 01 f2 ef 3c 00 12 df bc 4e 93 96 bc 16 7d 99 3c
       0.029290201 -0.027230263 -0.018380787 0.018736403
0000e0 d1 8f e1 3c 03 ac 22 3d 7f bb 59 3d 45 91 57 bd
       0.027534397 0.039714824 0.053157326 -0.052628774
0000f0 b8 d2 6b 3d ea 9b e5 bc 59 74 5c bd 80 0e 30 bc
       0.057574004 -0.028028447 -0.053821895 -0.010745645
000100 fe 1f 27 3d 94 ca 86 3a fb f4 b9 bc 0a 89 96 3d
       0.040801995 0.0010283762 -0.022699824 0.07350357
000110 da b5 07 bc 1f e8 f5 bc b8 e2 a5 3c 41 76 f7 bc
       -0.008283103 -0.03001791 0.02024971 -0.030207755
000120 cf 2c 76 3d 74 4f 0b 3d 80 09 95 bc 13 76 65 3d
       0.060101327 0.03401132 -0.018193007 0.056020807
000130 98 af 42 bb d1 0a 83 3b 60 21 1d bd 1f 63 c6 bb
       -0.0029706713 0.003999092 -0.038361907 -0.0060542966
000140 f3 10 6b bd eb 62 19 bc 26 54 f7 bc e6 42 91 3c
       -0.05738921 -0.009361963 -0.030191492 0.017732095
000150 15 53 e0 bc 45 39 28 3c cc 6a 72 bd eb 52 a1 3c
       -0.027383367 0.01026756 -0.05918388 0.019692859
000160 c0 00 0a 3d 6d 4d a6 3a b5 ad 3a bd f8 a1 a4 3d
       0.03369212 0.001268787 -0.045575816 0.080387056
000170 b2 fe 07 3d 6e f1 12 bc 8a e0 df bc 28 89 64 3d
       0.03320188 -0.008968694 -0.027328748 0.055794865
000180 4a e7 80 bb c6 e5 69 3d 4d 4d 7c bd ef e1 2f 3d
       -0.003933822 0.057103895 -0.061597157 0.042940076
000190 a5 93 26 bd a7 17 2e 3d ed 21 46 3c 2a dc 72 bb
       -0.04066815 0.042503025 0.0120930495 -0.0037057498
0001a0 40 1e 66 38 be 06 bb bc 02 ad bf bc 2c a7 08 bd
       5.4864446e-05 -0.022830363 -0.023397926 -0.033362553
0001b0 7a d6 46 3d 07 fc 2d bd a6 2c 4b 3d 90 00 42 3c
       0.048544385 -0.04247668 0.049603127 0.011840954
0001c0 b3 14 5b 3d 9c 96 bf bc 89 05 87 ba b7 2d 23 3d
       0.053486537 -0.023387246 -0.0010301332 0.03983852
0001d0 73 5f d1 3a c3 6b c3 3c 73 e2 01 bd 25 9d 2a 3d
       0.0015973881 0.023855096 -0.0317101 0.04165377
0001e0 01 30 db 3c 1f cd 23 3d 8c be 54 b9 a2 e8 bd 3c
       0.026756288 0.03999054 -0.0002028888 0.023182217
0001f0 df 7f 88 3d 8e 36 47 3d f7 71 91 3c a8 7b 6a 3d
       0.066650145 0.04863601 0.017754538 0.057246834
000200 ec d5 c4 3c 5b a5 f2 3c 19 93 2b bc 41 5f 71 bd
       0.024027787 0.029619863 -0.0104720825 -0.05892873
000210 43 f4 1f 3d 53 cb da bc 6e 48 d8 bc 82 18 cc 3c
       0.039051306 -0.02670828 -0.026401725 0.02491403
000220 03 e8 e9 bb 33 52 07 bc 32 26 ac bc 3f 3a 4d bd
       -0.0071382537 -0.008259344 -0.021014307 -0.050104376
000230 4d 4c e6 bc e2 8c 3c 3d 48 6c 17 3d 1b d2 63 bd
       -0.028112555 0.046032794 0.0369685 -0.055620294
000240 d1 df 8b 3c 20 d2 b2 bc 99 e1 82 bc 42 2c fd 3b
       0.017074497 -0.021828711 -0.015976714 0.007726223
000250 54 8c 4c bd bb d8 66 bd 15 23 2b bd a8 f0 8c bc
       -0.049938515 -0.056359034 -0.041781504 -0.017204598
000260 8d d4 5b bd 7e 46 41 3d c8 75 3a bd 13 83 95 3c
       -0.0536695 0.047186367 -0.04552248 0.018250978
000270 b8 f8 07 3d af c2 1c 3d 22 30 00 3d 4a 76 42 bc
       0.03319618 0.038271602 0.031295903 -0.011869023
000280 dd ee 13 3d 0a fe 21 3b 48 25 0f 3d c0 48 fb 3c
       0.03611647 0.002471807 0.034947664 0.030674338
000290 7a 15 49 3d 4d 14 0f 3d 43 54 11 bc 14 7a 1c 3d
       0.049092747 0.03493147 -0.008870187 0.03820236
0002a0 26 42 22 3c 90 09 3d bd 92 7a 87 bc 42 c8 49 bd
       0.009903466 -0.046151698 -0.016537938 -0.049263246
0002b0 ef a8 bc bc 27 85 a3 3c 5f b8 00 bc 78 a6 0a bb
       -0.023029773 0.019960953 -0.0078564575 -0.0021156352
0002c0 02 38 19 bd 66 e6 f5 bc 9c 24 2e bd c6 10 1f 3d
       -0.03740693 -0.03001709 -0.042515382 0.038834356
0002d0 f9 df 70 bd 3e e2 ad 39 a1 18 26 3d a4 19 2f 3d
       -0.058807347 0.00033165695 0.04055083 0.042749062
0002e0 39 99 03 3d ef 7c 9e 3d a1 e6 c4 3c 6a de 78 bc
       0.032128546 0.07738673 0.024035754 -0.015189746
0002f0 5c 07 8e 3c dc 47 88 3d de 85 27 bd 08 72 46 3d
       0.017337494 0.06654331 -0.04089915 0.048448592
000300 77 a4 48 3d 38 6c db bb ad e7 4e 3c 91 4c 8c bc
       0.04898497 -0.0066962503 0.012628478 -0.017126353
000310 e9 28 b4 ba 9f f5 d3 3c 86 78 09 3d 4f 89 07 bd
       -0.0013745102 0.025873957 0.033562206 -0.033089932
000320 e5 10 23 bd ec 10 e1 3c 71 38 20 3d af bf a8 3c
       -0.039811034 0.02747389 0.039116327 0.020599214
000330 8e 25 37 3d 16 b1 9f bc 05 de 05 bd cc 80 76 bd
       0.04471355 -0.01949362 -0.032682437 -0.060181424
000340 23 86 e0 3c 50 e9 b3 3a cd 3e b3 bc 82 1b 94 bd
       0.027407711 0.0013726149 -0.021880532 -0.07231809
000350 85 59 26 bd dc e0 e4 3c be cc 60 3d e4 fd e6 3b
       -0.040612716 0.027939253 0.054882757 0.007049309
000360 2f f0 1a 3d e9 b5 a5 bc 9e c0 4d 3d c8 97 20 bd
       0.037826713 -0.020228343 0.050232522 -0.03920725
000370 dc 27 0c 3d 24 61 15 bb 7f 1e c1 3b 0f 92 f2 3c
       0.0342177 -0.0022793496 0.005893528 0.029610662
000380 c6 2e 62 3d 1f 5b 35 3d eb 9e 5a bc c1 56 0d 3d
       0.055220388 0.044276353 -0.013343553 0.034506563
000390 91 d6 02 bd 62 8d 86 bc 59 72 0c bd 26 90 ea bc
       -0.031942908 -0.016424838 -0.034288738 -0.028633188
0003a0 b8 52 ca bb 41 6e ed 3c 4d 5c 41 3d 73 29 58 3c
       -0.0061744116 0.028983237 0.047207166 0.013193476
0003b0 1d 3b 56 bc 2e 56 f6 3c aa f8 43 3d 58 8c 1c bc
       -0.013075617 0.03007039 0.047844566 -0.009554945
0003c0 54 8d 87 3c 87 43 32 bc 7a 00 59 3d d4 df 91 bc
       0.016546883 -0.010880358 0.05297897 -0.017806925
0003d0 88 77 a6 bc 37 00 37 3b 5d 31 97 bd e5 8d 18 3b
       -0.020320669 0.0027923712 -0.07382462 0.0023277935
0003e0 e9 e9 fd bc 8c 99 f8 bb bf 32 44 3d e3 04 c1 3c
       -0.030995326 -0.0075866636 0.047899958 0.0235619
0003f0 bb c2 8b bc d5 d7 57 3d 54 cc 0a bd 20 9a ca bb
       -0.017060628 0.052696068 -0.03388627 -0.006182924

fc3.bias f4 [128]
000000 d6 f6 a8 bd 56 22 14 bd c1 50 1f bd 08 dd c7 3d
       -0.08250205 -0.036165558 -0.038895372 0.09758955
000010 98 15 b8 bb db 25 7a 3d c0 57 ad bc 0e 2b e6 bd
       -0.0056178086 0.061071258 -0.021160007 -0.11238681
000020 0b a0 e8 3c 8c 42 5b bd 2d cf a2 3d 7c e4 a0 38
       0.028396627 -0.05353026 0.07949672 7.671953e-05
000030 89 0f 42 bd 6e 66 a2 bd eb ed 23 bd 57 68 d6 bc
       -0.047378097 -0.07929693 -0.040021818 -0.0261728
000040 75 a7 2c 3d a5 74 0f bd 2a c3 64 bd f3 40 cb bc
       0.042151887 -0.03502335 -0.055850185 -0.024811244
000050 b8 5f ca 3c 6c 09 09 bc c5 43 ee bc c1 f5 07 3b
       0.024703845 -0.008364063 -0.02908505 0.0020745846
000060 50 bf 57 3b b0 f5 ec 3a 3b 7f dd 3b 06 d3 d7 bc
       0.0032920428 0.0018078592 0.006759552 -0.026345741
000070 25 d7 ae 3d 3e 71 b7 bd c1 d5 08 bd f3 22 49 3d
       0.08537129 -0.08957146 -0.033406977 0.049105596
000080 0c 03 2e bd ac 11 b8 3c f3 53 99 bc 41 fe c5 3c
       -0.042483374 0.022469364 -0.018716788 0.02416909
000090 42 d9 30 bd 49 7f d6 bd 2b b8 81 3d a9 25 8c 3d
       -0.043175943 -0.104734965 0.063339554 0.068431206
0000a0 72 c4 fc bd 50 e5 bd bc 1c 45 b3 3c 33 fb 03 bd
       -0.123421565 -0.023180634 0.02188354 -0.032221984
0000b0 67 3e 6a 3d 1c 5e 45 bd 9c 1c fc 3c b7 57 32 bc
       0.057188418 -0.048185453 0.03077536 -0.010885171
0000c0 68 33 05 3c 20 30 86 3c 5d 41 a0 bd b4 bc aa bb
       0.008129932 0.01638037 -0.07824967 -0.0052104834
0000d0 81 5d c9 3c f5 c0 78 3c b1 5b 20 bb d9 15 c5 bc
       0.024580719 0.015182723 -0.0024468715 -0.02405827
0000e0 79 30 8a 3c a8 9a a4 bd 42 66 d9 3d 78 5f 8d ba
       0.016868817 -0.08037311 0.10615207 -0.0010785898
0000f0 71 d3 8f bc 11 81 97 bb f9 3c 0e bd a0 48 d7 3c
       -0.017556878 -0.00462354 -0.034726117 0.026279747
000100 23 44 82 bd 4d 80 a2 bd 2a 65 31 bd 6c c0 9e bd
       -0.06360652 -0.07934628 -0.04330937 -0.07751545
000110 91 95 67 bd a0 97 7b 3d f9 b1 13 be c0 a0 e1 bd
       -0.056539122 0.061423898 -0.1442336 -0.11016989
000120 eb 8d d5 bd 44 d6 fb 3c 3e fc a7 bc c9 5c 2a bb
       -0.10427459 0.030741818 -0.02050602 -0.0025995246
000130 36 2e dc bc 4f 7c b1 bb 3f 4d 34 3d 6e 7e 01 bd
       -0.026877504 -0.00541643 0.04401898 -0.031614713
000140 d7 e0 88 3c a6 d3 68 bd ef b4 12 bd 87 f2 ab 3b
       0.016708774 -0.05684247 -0.035817083 0.0052474174
000150 3e 25 38 3c d0 bb 32 bd 99 6b 92 3b f1 bc 9b 3d
       0.011239348 -0.043636143 0.004468393 0.07604397
000160 d4 a4 4c bd 6c fd 39 3c c2 db b6 3d 0e 2e aa bd
       -0.04996188 0.011351924 0.08928634 -0.083095655
000170 7b 23 64 bd 21 df 25 3d ad 41 38 3d 3f b3 83 bd
       -0.0556979 0.040495995 0.04498451 -0.06430673
000180 a8 eb 3e bd ce f5 9c bb 51 ef ee bc f7 ef 56 3d
       -0.046611458 -0.0047900444 -0.02916685 0.052474942
000190 52 36 f1 bc bc dd a2 b9 20 05 73 bd f3 db 24 3d
       -0.029444847 -0.00031064253 -0.05933106 0.040248822
0001a0 6d 1e 2a bd 70 37 7c bd 13 9e b1 3d 3a 2d ca bd
       -0.041532923 -0.061576307 0.086727284 -0.098719075
0001b0 76 af d9 bb 24 c7 1c 3e 57 74 24 bc 5d 59 9d bd
       -0.006643231 0.15310341 -0.010037503 -0.0768306
0001c0 d4 6a 98 3b d7 a7 75 bd e7 44 f3 bc 47 f9 80 bd
       0.004651407 -0.059974518 -0.029695941 -0.06297546
0001d0 b9 ec 02 bd ce a6 99 3d 02 55 85 3d 38 3d f7 bd
       -0.031964038 0.075025186 0.065103546 -0.120722234
0001e0 45 5c 31 3d 50 3d c2 3c 6c 0a 9e bd 4a 45 75 bc
       0.043300886 0.023710877 -0.077168316 -0.014970133
0001f0 eb c4 8e bd 2c a7 65 3a 73 71 9a bd ac 52 9c bd
       -0.06971153 0.0008760567 -0.0754117 -0.07632956

fc4.weight f4 [64, 128]
000000 22 f8 ae 3b f1 44 97 3d b8 28 4e ba c2 5f 8b 3c
       0.0053396383 0.073861964 -0.0007864344 0.017013434
000010 e6 ec 26 bc 2b 9c 7f 3d 9d fe 79 bc 32 9b 51 3d
       -0.010188317 0.062404793 -0.015258458 0.051173396
000020 d8 5d d2 bc 1b eb ca 3c e7 19 6f 3c 85 ed 2f bd
       -0.025679514 0.02477031 0.014593578 -0.042951126
000030 84 63 a2 3d 21 c5 ce 3d ff a3 85 bd fe 57 49 bc
       0.07929137 0.10096193 -0.065254204 -0.012289045
000040 11 f0 20 3d af a1 4d bc 1a 33 50 bc e4 aa 89 3c
       0.039291445 -0.012550755 -0.012707496 0.01680512
000050 42 97 99 bd 04 0f a0 3d 05 69 88 bc ab fe 4f bb
       -0.07499553 0.07815364 -0.01665164 -0.0031737487
000060 2b 7e 07 3d 47 e2 5f 3d a1 da 8a bc 9b 58 93 bd
       0.033079308 0.054659154 -0.016949954 -0.071946345
000070 29 66 67 3b 3b 09 38 3b 1a 31 92 3c 3d 07 15 3d
       0.0035308695 0.0028081674 0.01784568 0.036383856
000080 9c 69 34 3d a3 35 56 3c a7 14 a3 3d 01 08 9e bc
       0.04404603 0.013074311 0.079629235 -0.019290926
000090 6a 04 73 3d b8 77 62 3d 1a 58 51 3d 62 25 a0 bd
       0.05933038 0.055289954 0.05110941 -0.0781963
0000a0 d5 14 92 bd d6 12 58 3d 01 9c 0f 3d 91 1e 96 3c
       -0.0713288 0.05275234 0.035060886 0.018325122
0000b0 af 1b 7f 3d 3c 8a 97 3d a2 07 39 3d b4 c6 96 bd
       0.06228226 0.07399413 0.045173295 -0.07362118
0000c0 d4 da 8e bd 6d 8a 9e 3c 9c 23 18 bd b4 4f 50 3d
       -0.06975332 0.019353116 -0.037143335 0.05085726
0000d0 47 07 9a bd 85 1d 2a bd 65 f4 db bc de e3 88 3c
       -0.07520919 -0.04153206 -0.026849935 0.016710218
0000e0 3b 81 53 3d fa 0a 5e bd cd e8 42 bd 82 8e 09 3e
       0.051636916 -0.054209687 -0.047585297 0.13433269
0000f0 58 65 69 3c e5 5a 79 3c 7b 05 ae 3d c3 cc b3 bd
       0.014245354 0.015219425 0.08497139 -0.087792896
000100 2f 69 0c 3d 77 e6 58 bc f1 42 a1 3c e3 fb 9a 3d
       0.03428 -0.013238541 0.01968524 0.07567575
000110 bb 8c c6 3c ca a9 98 3d f6 12 ce bd 65 8e 9c 3c
       0.024237027 0.0745426 -0.1006221 0.019110868
000120 5d f0 47 bd d4 6f 90 bd d7 84 eb bc f8 8f f5 bb
       -0.048813213 -0.070525795 -0.028749866 -0.007493969
000130 75 bd 4a bd 04 20 3a 3d df fa dd bc 84 48 52 3c
       -0.049497087 0.04544069 -0.027097164 0.012834672
000140 19 31 27 bd fd 10 ac 3d 76 31 1d bd 60 d4 2e bc
       -0.040818308 0.08401678 -0.038377248 -0.010670751
000150 9c 94 bc 3c 28 12 93 3b 64 c7 5d bc 8e 26 32 bd
       0.023020081 0.0044882484 -0.013536308 -0.0434938
000160 fa 33 85 bb e5 4f 84 3d 5f 5b 06 bd bc e1 1a bd
       -0.004065034 0.06460551 -0.032801982 -0.037812933
000170 78 c5 f2 3c 9f 87 03 3d 3b 46 1c 3d ea 16 04 3d
       0.029635176 0.03211176 0.038152914 0.032248415
000180 73 b2 bd 3d b6 a2 f8 bc a0 07 14 bd 4f 7f 0d bd
       0.09262552 -0.030351024 -0.036140084 -0.03454524
000190 3e 3d 4d 3d ba b8 07 3d 0c cc 10 bb 7a 05 07 bc
       0.050107233 0.033135153 -0.0022094278 -0.008241052
0001a0 27 c3 88 bd 80 4e 92 bc 12 17 80 3d 23 e8 31 bc
       -0.06677847 -0.017859697 0.062544 -0.010858568
0001b0 cf 44 0d 3d 2b e1 b7 bd c7 14 05 3d a2 9a ab bd
       0.03448945 -0.08978494 0.032490518 -0.08379103
0001c0 15 83 74 3d 2c d9 7c bd 52 5e 21 bd 40 2a 8b 3d
       0.059695322 -0.06173055 -0.03939659 0.06795168
0001d0 85 e3 97 bc 2d 10 3e bc 6d 3c 91 bd 83 bd 12 bd
       -0.018541107 -0.011600536 -0.070916034 -0.035825264
0001e0 f2 80 ee bb 5c 2c a6 3c 31 99 64 3d 78 0b 78 bd
       -0.007278555 0.020284824 0.055810157 -0.060557812
0001f0 95 f9 d1 bd 4f 49 fb bc cb 2a 72 3c 7e ee 61 bd
       -0.10252682 -0.030674605 0.01478071 -0.055159084
000200 91 c7 60 3d 22 77 41 3d ae e0 6e bd 4b 6d 9e bd
       0.05487782 0.047232755 -0.05831974 -0.0773569
000210 b1 5e 2c bd e5 87 80 3d 47 a7 af bd b0 bb d7 3d
       -0.042082492 0.0627592 -0.085768275 0.105338454
000220 1e e0 d5 3c 7c 7c 1e 3b 3b bb fe bc e8 f6 b0 3d
       0.026107844 0.0024183085 -0.031095138 0.08640844
000230 0d 54 12 bd 24 23 e1 bc 2a 6f 6e 3c 21 c9 4b bb
       -0.03572469 -0.027482577 0.014552871 -0.0031095224
000240 de ea 55 bd 0f 66 b0 bd 8e aa aa 3c 6b fb 5a 3d
       -0.05222594 -0.08613216 0.02083328 0.053462427
000250 e7 58 30 bd bc b5 a1 3c 24 a6 c4 3d 62 17 a1 3d
       -0.043053534 0.019739978 0.09602001 0.07865788
000260 99 93 5e 3d 8f 36 70 3c 74 53 c8 bc a9 59 de 3c
       0.05433998 0.014661445 -0.024453856 0.027142363
000270 ef 43 72 bd 57 05 bf bb d3 97 f9 3c 2b 12 dd 3c
       -0.059146818 -0.005829494 0.030467903 0.026986202
000280 ee 14 97 bd c0 37 83 bd cf 21 40 bd 86 a2 f1 3c
       -0.07377039 -0.06407118 -0.046907242 0.029496443
000290 75 64 8f bc 44 0f a3 bd 96 c4 d8 3c 14 8a 02 bd
       -0.017503956 -0.07961896 0.026460927 -0.031869963
0002a0 3e f1 e0 bd 4c dc 41 3d a0 93 e1 3c 7a 31 9b bd
       -0.10983513 0.047329232 0.027536213 -0.07577796
0002b0 8a 9f fb bc 60 8a 03 bd e2 13 3e bd 21 35 b1 bc
       -0.030715723 -0.032114387 -0.04640568 -0.02163178
0002c0 27 95 a4 bd a1 e7 9b 3c ce 46 19 3c e5 ab 34 bb
       -0.08036261 0.019031348 0.00935526 -0.0027568277
0002d0 4f 8f b3 3d 95 74 ec 3c 8b a0 be 3c ba f7 60 bd
       0.08767568 0.028864184 0.023269912 -0.05492375
0002e0 8d f3 ba 3d 34 ef 9c bd 1d 7d 43 3d bb b9 2d 3d
       0.09128485 -0.07662812 0.04772674 0.042413455
0002f0 e7 e1 69 3d be 20 78 3d 3b 7e a2 3d 81 a3 57 3c
       0.057100203 0.0605781 0.07934233 0.013161541
000300 41 70 8c bd 99 6e 10 3c 35 3e 45 3c d5 a3 82 3d
       -0.06857348 0.008815431 0.012038757 0.06378905
000310 ca fb 21 3d f6 a0 bb bc 4a 5d 4b bd cc ab 82 3c
       0.039546765 -0.0229039 -0.049649514 0.01595106
000320 f9 10 a0 3d bf 9b 2e bd 6f 45 a0 bd 95 6e b4 3c
       0.07815737 -0.042629 -0.078257434 0.022025386
000330 21 52 89 bd 20 3e de bc 1f 5d 9a bc 14 ee 99 3d
       -0.06705118 -0.027129233 -0.018843232 0.07516113
000340 23 97 af bc 9e 6b 50 3d 44 5a 70 3c d5 94 a7 3d
       -0.021434372 0.05088388 0.0146699585 0.08182684
000350 95 e1 06 3d 88 03 91 bd 2e e3 4d 3d e8 07 3a 3d
       0.032929976 -0.07080752 0.050265484 0.045417696
000360 1f a0 7b 3d 1a b3 5d 3c 81 72 a4 3c 38 dd f9 bb
       0.061432 0.013531471 0.020074131 -0.0076252483
000370 bb 01 6a 3c 92 c0 60 bd 4c af 83 bc c3 70 f9 3c
       0.014282639 -0.05487115 -0.016074799 0.030449277
000380 6a 13 a8 bc 5b 0e a4 bd 09 a7 22 bd c0 61 87 bc
       -0.02051707 -0.080105506 -0.03971008 -0.016526103
000390 ad 1c 5f bd 3e fd 91 3d d2 14 37 bd 32 f0 67 bd
       -0.054470707 0.0712838 -0.04469759 -0.056625552
0003a0 10 e7 8c bd a5 20 b9 3c 92 88 75 3c b1 3c 23 3d
       -0.06880009 0.022598574 0.014986174 0.0398528
0003b0 e0 19 b4 3d e1 79 5e bb 1e ac 39 3d 12 c6 a9 bd
       0.08793998 -0.0033947157 0.04533016 -0.08289732
0003c0 41 46 71 bd f1 18 9d 3d c0 b3 b7 bc f9 0a 9a bd
       -0.05890489 0.07670773 -0.022424579 -0.07521624
0003d0 f5 c4 38 3d 50 a1 4f 3d f1 1b 5c 3d 7c 02 b1 bc
       0.045109708 0.05069095 0.053737585 -0.02160763
0003e0 5b 02 60 3d 29 71 22 bd 9c bd 18 3c 97 6f 9a 3b
       0.054689746 -0.0396587 0.00932255 0.0047130096
0003f0 91 9a 86 bd 3d 2f 4b bd 37 f9 3f bd 7c 5b 95 bd
       -0.0657245 -0.049605597 -0.04686853 -0.0729284

fc4.bias f4 [64]
000000 0e cb b2 bd d9 d8 5e bd 94 ad ba bc b2 e8 1b be
       -0.08730136 -0.05440602 -0.022787847 -0.15225485
000010 34 38 04 bd 84 3b 29 3e ae bd fa bd ec a7 6c bd
       -0.032280162 0.1652661 -0.1224321 -0.05777733
000020 a2 b8 ee bd f9 7c de bc 07 09 78 3d 98 61 49 bd
       -0.1165631 -0.027159201 0.060555484 -0.04916534
000030 06 81 5c bd e7 75 3f 3c 6a d7 16 3e 61 f6 79 bd
       -0.053833984 0.011685825 0.14730611 -0.06102598
000040 70 f6 04 be 9c 93 3b bd bf af 11 3d 30 58 6a 3e
       -0.12984633 -0.04579507 0.035567995 0.22885203
000050 7e 2d 7f 3e e9 fc 52 3e a9 57 e8 bd 1f dd 11 bd
       0.24919698 0.2060429 -0.11344845 -0.035611268
000060 1b 5c 39 3e 2c ca 0e 3a a3 93 f2 bd dc 6b 41 bd
       0.18101542 0.0005446996 -0.11844566 -0.047222003
000070 18 99 a5 3c 90 35 6b bd 41 b2 f1 bc cd 10 b2 bd
       0.020214602 -0.057424128 -0.029503943 -0.08694611
000080 be 70 79 3b a8 f1 67 bd bf 94 00 be 1f 92 85 bd
       0.0038061584 -0.056626946 -0.12556742 -0.06522011
000090 2d 0e a1 3d 85 8b a4 bd 21 f2 44 bd 3a 7c 47 bd
       0.07864032 -0.08034424 -0.048082475 -0.048702456
0000a0 17 4f fa ba 4e 2a a3 3d 42 1c 7b 3d be f7 41 bd
       -0.0019097057 0.07967053 0.061306246 -0.047355406
0000b0 60 52 5c 3e ef b8 d0 bc ca 2d 00 bd f6 eb e7 bd
       0.21515799 -0.025478808 -0.031293668 -0.11324303
0000c0 47 0a b5 bd ec d5 00 bd d7 47 51 3e fe ea 23 bd
       -0.08839851 -0.03145401 0.20437561 -0.040019028
0000d0 48 36 94 bd 23 2c 55 bd b4 32 b8 bd ee c6 32 3c
       -0.07236916 -0.052044045 -0.08994046 0.010911686
0000e0 63 12 c2 bd 74 af 12 bd 1a 13 36 3e cb 91 0f 3e
       -0.09476163 -0.035811856 0.17780724 0.1402046
0000f0 56 4b 7d bd 47 22 9b 3d f1 5c 86 bd 77 25 b0 bd
       -0.061839424 0.07574897 -0.06560696 -0.08600896
