best_model.pth (torch, 712235 bytes, 10 tensors)

fc1.weight f4 [512, 8]
00000000: 36cf c83d 0cb2 aabe e68c 123e 77ca 63be
00000010: e473 9bbd b218 7b3e 3ba6 99be 1f12 193d
00000020: 001e 0e3d 9c8e e9bd c046 53be 4244 1f3e
00000030: 42c2 1dbe 802a b7bd 8df4 9d3e 3371 55be
00000040: 62a1 b03e a1ad 2b3e f5f2 87bd a92a a1be
00000050: eb60 4ebe 1f9b 7a3c 55d5 b3be c67d 4cbe
00000060: 580c 8bbe 4eeb 483e cb24 37be d8f7 bdbd
00000070: cec6 e3bd 040c bfbd 0672 2b3e 80c5 7bbb
00000080: 7c01 3c3c 8fdd afbc 071a 4ebe c694 6e3e
00000090: 8d47 b03e faf6 80be aaf8 913e ba9d 8a3e
000000a0: 52dd 8ebe fc02 ae3e 51ca 8f3e 8bc0 97be
000000b0: d6ef 803c 7580 613e 8636 42bd 3f7b 873e
000000c0: 0005 b9bc ff4d 86be 2c6a a6bd 7b87 253b
000000d0: 42d9 76be a02c 403e c161 5ebe b19d 143e
000000e0: c937 8e3e d5d3 ad3e 25d7 3abd e051 a2be
000000f0: fc2e 8d3e 94c8 2abe 3870 7f3e bd0a 1abe
00000100: 14ba 32be 958f 513e 5940 47be 8db0 8a3e
00000110: 47cd 8e3d 227f b13d 9bbf 13bd 3b0f 6b3e
00000120: 62b4 5abe ac19 9f3e 1046 a7be 0997 083e
00000130: e7e3 203e 2df1 b43e beda 593e 5cf8 acbe
00000140: de30 9bbd 80ea 6d3e 50eb 49be 38f1 80be
00000150: 77b2 ad3e d404 ad3e 0738 28be b38c 5dbd
00000160: d6d8 95be ff70 ecbd 788e 8d3e 7a4d 923e
00000170: 3c8f f3bd ef7d a43e cb8b 323d 4b45 f9bb
00000180: 7845 9bbd 9c9c 563e 5733 32be cf4b a1be
00000190: f23b 91be 581b 9cbe d5f2 7dbe 7765 5f3e
000001a0: 32aa 3fbe 2026 413d 70cb a0bc f836 80bd
000001b0: e1e6 03be f190 8dbe 8c29 8ebe f8eb 51bd
000001c0: 6f39 95be fbdd 4bbe 0c2c 0b3e 5134 96be
000001d0: 027b 733e 70e6 66be 80aa bbbc 6146 46be
000001e0: 8e50 ad3e 8166 0f3d c4e6 783e dfc8 a83e
000001f0: ffea 88bd dd4c a2be 2b94 7dbe 0397 f03d
00000200: 61a7 a93e b58f 63be 8e93 6f3e 3ba4 1f3e
00000210: 5bb9 a4be 3a3e 593e 773d 2e3e 2a75 49be
00000220: 3929 79be d0aa 603e fcdb 5cbe eb3b 763e
00000230: b90e ba3a 9477 fd3d c829 253e 0bb3 043e
00000240: a3f2 973e ba04 3cbe 30d0 a7be 7472 dcbd
00000250: b7fb ae3e 9a2b b2be 9db1 31be ccdf 9b3d
00000260: fbbf 8f3e 46e0 933d 6bd0 8b3e bee3 303e
00000270: 676d 00be f002 ddbc 1e43 3abe b166 603d
00000280: e2fe afbe d33d d1bd ab9a 863d 73e3 afbe
00000290: 68df 403d 989d 9d3e d0c0 973d 7482 9cbe
000002a0: 8ed0 413e 197e a6be d22d 78bd 53f8 0a3e
000002b0: 1f02 32be 342c ef3d b643 bfbd c13e ebbb
000002c0: 809b 473e 0e13 c43d 6205 9abd c70a 843c
000002d0: 9eb7 f0bb 0cb3 823e 548a 1fbd 1796 f13c
000002e0: 1369 99be 0c5f e53d bc6a 96be 3c33 e43d
000002f0: 98ab 59bd 2d58 68be 38bc 0b3d 1c54 c8bd
00000300: c7e3 b3be 12f9 403d 8542 a33e f413 8dbe
00000310: 5e76 bb3c 7271 af3c d035 003e 814d 443d
00000320: 5b7b a9be 74e0 173d 8a63 afbe 71c0 9dbe
00000330: 62a6 943e e5f1 72bc 2c6d 8d3d 11e1 033e
00000340: e441 cd3d 5661 913e 0d6f 26bd baa5 333e
00000350: 647a a23d 0947 36be f369 69bd aa0b aa3e
00000360: 2743 613e c6d8 693e 665e 76be 5aaf b23e
00000370: 061b 98be 9f7c 88be 195e 883e 200c 34bd
00000380: f5ff 813e 3e96 7b3e aa47 45be dd99 c23d
00000390: d958 9bbe e9b1 a53d 3e1b 96bc b9c0 5bbe
000003a0: a035 dd3c 45cc 4dbe c024 ffbc b9b6 a6be
000003b0: 3416 d7bd 3c58 76be fe26 24be 9a4c 0d3e
000003c0: 2c29 123e b057 f9bc 5a08 9ebe bc6c 1dbe
000003d0: deeb e2bd 3cb8 a6be f87a e23d 88cc 053d
000003e0: 1a73 cabd 13b8 893e 50fc 073d 4849 8dbe
000003f0: eebf a7be 152b 3d3e b6c8 9ebe 4452 1f3e
0.09805147 -0.33338964 0.14311561 -0.22245203 -0.07590464 0.2452114 -0.30009636 0.037370797
0.03469658 -0.11404154 -0.20632458 0.15553382 -0.15406135 -0.08943653 0.3085064 -0.20843963
0.34498125 0.16765453 -0.06638137 -0.3147786 -0.20154159 0.015295773 -0.35123697 -0.19969854
-0.27157855 0.19621012 -0.17885129 -0.09275788 -0.11121903 -0.09328464 0.16742715 -0.003841728
0.011474963 -0.021467952 -0.20127116 0.2329894 0.3442959 -0.25188428 0.28510028 0.2707346
-0.2790323 0.33986652 0.28084043 -0.29639086 0.015739363 0.22021659 -0.04741528 0.26461217
-0.022585392 -0.2623138 -0.081257194 0.0025257755 -0.24106315 0.18767023 -0.21716978 0.1451328
0.27776936 0.33950678 -0.045615334 -0.3170309 0.2757491 -0.16678077 0.24945152 -0.15043159
-0.17453796 0.20464928 -0.1945814 0.27087823 0.06972747 0.08666827 -0.0360714 0.22955029
-0.21357873 0.31074274 -0.3267064 0.13338865 0.15711938 0.35340253 0.2127485 -0.33783233
-0.0757768 0.23233986 -0.19718671 -0.25184035 0.3392522 0.33792746 -0.16427623 -0.05408926
-0.29266995 -0.1154499 0.27647758 0.28574735 -0.11892554 0.3212733 0.04359035 -0.0076071373
-0.075816095 0.20958179 -0.17402397 -0.3150315 -0.28366047 -0.30489612 -0.24799664 0.2181605
-0.18717268 0.0471555 -0.019628257 -0.062604845 -0.12881042 -0.27649644 -0.27766073 -0.051250428
-0.2914538 -0.19908898 0.13591021 -0.2933679 0.23777393 -0.22548842 -0.02290845 -0.19362785
0.3385052 0.035009865 0.2430678 0.32965752 -0.06685447 -0.31699267 -0.24763553 0.11747553
0.33135512 -0.22222789 0.23396131 0.15589993 -0.32172665 0.21215144 0.17015634 -0.19673601
-0.24332131 0.2194016 -0.21568292 0.24046294 0.0014195062 0.12376323 0.1612922 0.12958924
0.29677305 -0.18361178 -0.32776022 -0.10764018 0.34176418 -0.3479889 -0.1735291 0.07611045
0.28076157 0.07220511 0.27307448 0.17274377 -0.12541734 -0.02697894 -0.18189666 0.054785434
-0.34374148 -0.1021687 0.06572469 -0.34353217 0.047088057 0.30784297 0.07409823 -0.30568278
0.18927214 -0.3251808 -0.060590573 0.1357129 -0.17383622 0.11678353 -0.09339087 -0.0071791117
0.19492912 0.09573947 -0.07520558 0.01611842 -0.0073461076 0.25527227 -0.03895028 0.029490514
-0.29962978 0.111997694 -0.29378307 0.11142585 -0.05314216 -0.22689886 0.034115046 -0.097816676
-0.35134718 0.047112532 0.31886688 -0.27554286 0.02288359 0.0214164 0.12520528 0.047925476
-0.33101925 0.03707929 -0.3425563 -0.30810884 0.2903319 -0.01482818 0.069055885 0.12878825
0.10022333 0.28394574 -0.04063325 0.17543688 0.079335004 -0.17800535 -0.056985807 0.33212024
0.21998273 0.22836599 -0.24059448 0.34899408 -0.29708117 -0.26657578 0.2663429 -0.043956876
0.25390592 0.24569032 -0.19265619 0.09502003 -0.30341223 0.08090574 -0.018323537 -0.21460237
0.02700311 -0.20097454 -0.031145453 -0.3256128 -0.10502282 -0.24057096 -0.160305 0.13798752
0.14273518 -0.03043732 -0.30865747 -0.1537351 -0.11080144 -0.32562435 0.11058611 0.03266576
-0.09885235 0.2689825 0.03319961 -0.27594972 -0.32763618 0.18473466 -0.31012505 0.15558726

fc1.bias f4 [512]
00000000: 766c 6d3e 40a6 cbbd 80f8 723e a09b 5ebe
00000010: e190 5cbe afbe 23be a8b5 56bd 14df 193e
00000020: 5397 a5be 8c74 73be 6131 87be 8cf7 563e
00000030: 334d ec3b f82c 9fbd fe6a 70be 8ba6 65be
00000040: 389a aabe 6d95 2f3e 5013 5cbd 427e 78be
00000050: fcf9 24be d33f 443e 2f93 363e 8361 b3be
00000060: 24e6 603e 310c 06be 0fdc 5abe 760b 8cbd
00000070: 7298 61be 2386 03be 1055 82be 49ff 70be
00000080: 3909 083d 1c58 113e 5262 513d 4510 5cba
00000090: 4b86 a4be 019d e23b 8a2a 50be 8e0f b3bd
000000a0: 67af 143d d068 393e af24 e53d 5bc4 e93d
000000b0: 009d 563d 0ca6 83bd f9a1 a63b 8d31 90bc
000000c0: 67bc 8d3d c0c2 e7bb b770 633e 79c7 1dbe
000000d0: 3dec 023e e7ce 863d 4cb1 35bd 1dde c7bd
000000e0: 2f7d 8cbd 6d64 85be a7e5 b8bd d06c 81bd
000000f0: 276d 9fbe 934a abbe a946 bb3d 3ec7 66be
00000100: 5aa6 913e e2bf 90bd 727a a4be 2a23 9b3e
00000110: f833 443e 0ead 1abe 62cc 76bd 0904 613e
00000120: c939 ad3e 82a0 0abe d92e 83be cd94 473c
00000130: 0d5f 893e 04a5 c4bd acbf 96bb 76f7 07bc
00000140: 2073 4abe 8812 173e bb5d 393e 10b4 14be
00000150: 81de 503e da6d 8ebe 41b0 453d d801 dc3d
00000160: 0cb4 90be 8df4 44be c316 adbe d30f 8c3e
00000170: 17d3 83bd 28f7 6c3e 6685 77be 5486 ce3d
00000180: e9d6 2f3d cc76 8c3e 8d35 cf3d d618 bf3d
00000190: 04ce 8e3e 3a54 343e b533 26be 88d5 633e
000001a0: 6dcf bfbd f025 68ba 33ed c93c 0dfc b2bd
000001b0: ce57 1abe 163f a53e f980 213c bd8a a93e
000001c0: 97f2 4b3e 13bd a43e 8d14 a5be 2fdd ef3d
000001d0: 3bd5 6bbe 8f3b a7bc cefb 143e 7e2d d23b
000001e0: 58b5 503e dd1b 57be 58cc aebc c897 c1bd
000001f0: 7217 793e 6499 96bd f140 49bd f5aa 03be
00000200: 806e 973e b30e 633e bdbd 50be fe71 9d3e
00000210: e7eb abbe 1087 77bd 05b3 8e3e 1fce a53e
00000220: 7634 bf3d de74 4bbe 0bf6 babd 0bb4 b03e
00000230: c5da a63e 06b3 17be 3a63 7abe d97a 783e
00000240: 6418 f63d 8d6b b03e bcab 8e3e c8d8 c03d
00000250: df02 793e c163 9cbe 51bd 4cbe 7cfb 7cbe
00000260: 5a35 21bb 705e cb3d b0e4 8dbe 1dbb a43e
00000270: ef7a d2bc 7276 693e fd5c 943e 54b5 d1bd
00000280: 8098 043d bc5c 66be dd03 293e 006b 933e
00000290: 9cd6 04be 459a 5bbe 7f58 b13e edc3 93be
000002a0: 954c 50bd 8223 1b3e 2112 67be 9703 22bd
000002b0: c82b 85bb b342 a0be 2cb1 27be 9789 873e
000002c0: 5009 9d3e 9fbc 4a3e ae1c 063e ef69 32bc
000002d0: a2a6 803c 4ffa fd3c 8532 42be 1a62 9b3e
000002e0: c7ef 573e c645 7a3e cf47 30be 1b3c 64be
000002f0: 9b88 ea3d 5263 723e db23 3d3e 233d 1b3e
00000300: 7574 7b3e 3cc3 7d3e 528c 203e f6ef 913e
00000310: 7f8a 383e ef99 78bd da33 0dbe 46b5 373e
00000320: 6764 723d 5c3f 7dbe 1ac8 04be 6c19 d4bd
00000330: aeb0 023e 58fb 823e b407 b4be b797 3bbe
00000340: 000c 603d cb7e 9b3e 2e43 13be 704c 08bd
00000350: 4456 e73d f9f0 8c3e b443 9fbe 4674 c73d
00000360: 1755 7d3e f3ea 98bd 69ac 68be d26c 29be
00000370: de48 01be 9d68 8b3d d8b7 adbe 8a4c 583e
00000380: 6232 6abc c1ee 69bd 5cea 913e 5696 33be
00000390: 113a 0d3e fec9 0d3e ef87 23be 1a2a 75be
000003a0: cd44 e63b 71a5 b3be 0a89 81be c806 f73d
000003b0: a243 0d3d 81e0 c13d 2cf0 213e 05c9 8e3e
000003c0: e618 123a eaf1 95be 95a0 80be e503 ffbd
000003d0: 6bc0 883d 755c 0e3c 1e90 0c3e 520a 843e
000003e0: 5457 31be 6b96 04be 2b55 8bbe 9faf e5bd
000003f0: d109 c93c 4437 713c fefa a1be cec6 d9bd
0.23185906 -0.09943819 0.23727608 -0.21739054 -0.21539642 -0.15990709 -0.052419335 0.15026504
-0.32342014 -0.23774928 -0.2640486 0.20992869 0.0072113513 -0.07772249 -0.23478314 -0.22426812
-0.33320785 0.17146845 -0.053729355 -0.24266914 -0.16110986 0.19164972 0.17829584 -0.35035333
0.21962792 -0.13090588 -0.21373008 -0.068381235 -0.2203081 -0.12844138 -0.25455523 -0.23534884
0.03321192 0.14193767 0.051119156 -0.00083947583 -0.32133707 0.006915689 -0.20328727 -0.08743201
0.03630009 0.18106389 0.111886375 0.11414405 0.05239582 -0.06428155 0.0050852266 -0.017601753
0.069207005 -0.0070727766 0.22210966 -0.15408124 0.1278543 0.06582432 -0.044358537 -0.097591616
-0.068598144 -0.2605318 -0.09028178 -0.063195825 -0.31137964 -0.33455333 0.09144337 -0.22536942
0.2844723 -0.07067849 -0.32124668 0.30300266 0.1916045 -0.15105078 -0.06025351 0.21974196
0.3383315 -0.13537791 -0.2562168 0.012181473 0.2683033 -0.09601787 -0.004600486 -0.008298745
-0.19770479 0.14753163 0.18102162 -0.14521813 0.20397379 -0.27818185 0.048263792 0.10742539
-0.28262365 -0.19233914 -0.33806428 0.27355823 -0.064367466 0.23141158 -0.24171981 0.10084215
0.042929564 0.27434385 0.10117636 0.09330909 0.27891552 0.17610255 -0.16230662 0.22249424
-0.09365735 -0.0008855751 0.024649238 -0.08739481 -0.15072557 0.32274693 0.00985741 0.3311366
0.1991676 0.32175502 -0.32242242 0.11712109 -0.2303056 -0.020414142 0.14549181 0.0064141145
0.20381677 -0.21006723 -0.021337673 -0.09452778 0.2432535 -0.07353476 -0.0491342 -0.12858184
0.29576492 0.22173576 -0.2038488 0.30751032 -0.33578417 -0.06043154 0.27870956 0.3238382
0.09336178 -0.198688 -0.0912896 0.34512362 0.32588783 -0.14814386 -0.24451914 0.24265613
0.12016371 0.34457055 0.27865398 0.09416348 0.24317501 -0.30544856 -0.19994093 -0.24705309
-0.002459845 0.09930122 -0.27713537 0.32174006 -0.025693385 0.2279909 0.28977194 -0.10239664
0.032371998 -0.22496313 0.1650538 0.28792572 -0.12972492 -0.21445568 0.3463783 -0.28860417
-0.050854284 0.15150264 -0.2256551 -0.039554205 -0.004064057 -0.31300887 -0.1637618 0.2647216
0.30671167 0.19798516 0.13096878 -0.010889514 0.015704457 0.031003146 -0.18964584 0.30348283
0.21087562 0.24440679 -0.17214893 -0.22288553 0.11451837 0.236707 0.18470709 0.1516004
0.24556144 0.24781507 0.15678528 0.28503388 0.18021582 -0.060693678 -0.13789311 0.17940244
0.059177782 -0.24731201 -0.12966958 -0.10356411 0.1276271 0.25582385 -0.35162127 -0.18319593
0.054698944 0.30370173 -0.14381096 -0.03327602 0.11295751 0.27527598 -0.3110634 0.09738974
0.2473949 -0.07466688 -0.2272202 -0.16545418 -0.12625453 0.06807063 -0.33929324 0.21122947
-0.014294239 -0.05711246 0.28499115 -0.17537817 0.13791682 0.13846585 -0.15969823 -0.23941842
0.0070272447 -0.3508716 -0.25299865 0.1206184 0.034488328 0.09466649 0.15814275 0.2788774
0.0005573168 -0.29286128 -0.25122514 -0.12451915 0.06677326 0.008689036 0.13726851 0.25789124
-0.1731847 -0.12948005 -0.27213416 -0.11215138 0.024540814 0.014722649 -0.31636804 -0.10633622

fc2.weight f4 [256, 512]
00000000: 0ec7 b2bb d0fb 5b3c 7ba6 ffba c945 07bd
00000010: 862f 813c aaf9 f13c 8270 59bc 3966 d23c
00000020: d842 5abc b1f1 debc 46f0 25bd dab8 853c
00000030: 2a49 d63c 8294 d93c e0ac 4d3c 9a11 7d3a
00000040: daaa acba 7fbb b7bc f791 093d 283e 29bd
00000050: 00bc 98b9 5135 cfbc c337 073d 2e5e a83c
00000060: 84b4 0e3d 6cd0 7d3c efcb 9fbc 58c3 09bd
00000070: bbd0 e8bc ab63 91bc 4f32 24bd 3773 223c
00000080: 095f 663c dfbc d73c b3c7 d23c 3be0 acbb
00000090: f327 87bc d538 0ebd a3f4 4f3c 9e62 8d3a
000000a0: 178d b93c 7373 80bb 9f89 78bc 18c7 8b3c
000000b0: eefc edbc fb9c 313d c4b7 b0bc 4a36 1bbc
000000c0: c7cd 85bc 33f8 093d 5914 f5bc f0e7 93bb
000000d0: 2d91 25bb 62a5 0e3d e5a3 ac3c 5bc0 19bd
000000e0: 735f 1d3d a4f7 1fbb 82c9 293d f204 053d
000000f0: d144 173d d365 09bd 2d9b 623b 6814 5abc
00000100: 0210 02bd 54ab 7c3c 7a62 673c 0fa9 be3c
00000110: fd26 13bd e3a2 52bc 55bd 0f3d 0ea8 ee3c
00000120: d6fb d93c 217c 103d a036 d53b e13d 253d
00000130: d60f a83c b33d c1bc 5928 0b3d 11e4 583c
00000140: 7e86 b7bc b4d2 2abd 824a 7f3c d482 113c
00000150: f8db 12bd ef22 0abc cf2a 19bb be61 04bc
00000160: 33b7 1a3d 95a2 97bc 6a8f 02bd 2a7b aa3c
00000170: 6ba1 fbbc efba cb3c df42 f63c 0d8f 063d
00000180: 8ae5 7cbc b8d4 ca3c 1f7a d53b 27da 8e38
00000190: 8b5d b73c b9c2 dcbc 9065 6fbb 31b2 963c
000001a0: 9b3e 97bc cfa5 88bc b9a7 c1bb 23c6 03bc
000001b0: 35af 8b3b c2f0 33bd 477f ebbc 158b 603c
000001c0: 20fd dcbc 8a08 1cbd 3e07 ee3c daae 78bc
000001d0: 9f72 87bc a852 173d 8fef 233d ed59 c6bc
000001e0: fad8 203d 54a6 353c d575 98bc e89d 233c
000001f0: 5c7f 2cbd 828f 18bc ddec c8bc 7f7b 9cbc
00000200: 1d2e 013d 853f ef3c 0433 7f3c b25a df3c
00000210: e3f4 07bd 3431 003c f128 eb3c 9006 01bd
00000220: cfbb faba 57e0 523c 3a9e 0d3d c4ac f2bc
00000230: 903a 25bd 40f2 1c3b f405 403c 1664 be3c
00000240: b040 323b 62ef b23c 0751 163d eb74 f83c
00000250: 370f bfbc 308b 853c 45af 17bd 9861 5e3c
00000260: 34f0 ec3b 51d4 083d f183 0cbd cc58 1dbc
00000270: d29a c13c 6df1 0a3d 7469 1dbc 48db 98bb
00000280: 5984 1d3c 8fb2 333c 0f16 d43c 5832 2d3d
00000290: 8a9a bb3c 4411 d5bc dc0b 0f3c 33ab 103d
000002a0: 1502 0a3a 1c3f 6b3c 9326 443b 03cf f53c
000002b0: 0067 debc 6b20 193d ec80 2abd 7f80 233d
000002c0: 9d1b a03c e899 fabc 0193 153b 6982 e03c
000002d0: 9e7c 633a 92ef 6dbc df86 43bc 1abb 94bc
000002e0: 01bb 303d 2f1f a33c c081 213b 2d5e a5bc
000002f0: 52b7 4c3c 9950 2fbd 7112 533c 323e 66bc
00000300: 338f 00bd 357b a5ba 7aa2 67bc e02d 8dbb
00000310: f94b e1bc c760 02bd 0fb6 013d 1fe4 e7bb
00000320: 7b5d 1b3d 62d6 a5bc 4613 3cbc 4493 87bc
00000330: 66f9 aa3c 9ccf 48bc 7e27 ef3c f3c8 5abb
00000340: a457 98bb 6414 113d b1da 273d 7e66 37bc
00000350: 651c 80bb ecc0 f5bc e3b5 023d 1d50 c0bc
00000360: c883 e2bc 6ea7 6c3c 2acf 23bd 4198 f03c
00000370: 00f0 433c b37b ab3b c4db f8bc ea1c 043d
00000380: 58b8 10bd 2674 dfbc a5ef 78bb 6ca1 afbc
00000390: a6c6 7bbc 42d8 f83c 8f39 b9bc fd0b 1bbd
000003a0: ccfe 853c 4040 2a3d b80e d0bc 6320 3dba
000003b0: 24cc df3c c69f d3bc 3fda 12bd a154 f4bc
000003c0: ddc0 76bc 6dba 793c 5280 e7bc 4ea0 503c
000003d0: cf2d abbc ed4a cd3c 3026 9d3b 687c d73c
000003e0: 350f 9cbc 600e 56bb 4a34 fc3c 8323 c2bc
000003f0: dce5 dabc a1b8 4d3b 13cc 473c 92a1 cf3c
-0.005455858 0.013426736 -0.0019504571 -0.033025537 0.015769731 0.029537994 -0.013271453 0.02568351
-0.013321601 -0.027214857 -0.040512346 0.016323496 0.026157934 0.026560072 0.012553424 0.0009653807
-0.0013173476 -0.022428272 0.03358647 -0.041319042 -0.0002913177 -0.025293978 0.033012163 0.02055272
0.034840122 0.015491586 -0.019506423 -0.03363356 -0.028419843 -0.01774772 -0.04008704 0.009915165
0.014060744 0.026335178 0.02572999 -0.005275754 -0.016498541 -0.034722168 0.012692603 0.0010786837
0.022650285 -0.0039200126 -0.01516953 0.017062709 -0.02905127 0.0433626 -0.021572001 -0.009473393
-0.016333474 0.033683967 -0.02991693 -0.004513733 -0.0025263533 0.03482569 0.021074245 -0.03753696
0.038421106 -0.002440908 0.04145194 0.03247542 0.036930863 -0.033544373 0.0034577355 -0.013310529
-0.031753547 0.015421707 0.0141226 0.023273973 -0.035925854 -0.012856218 0.03509267 0.02913287
0.026609343 0.03527463 0.006506756 0.040342215 0.020515364 -0.02358899 0.033974025 0.013237969
-0.022402998 -0.04170485 0.015581729 0.0088812895 -0.03585431 -0.00843118 -0.0023371463 -0.008079944
0.03777237 -0.018510142 -0.03187505 0.020810682 -0.030716619 0.02486941 0.030061183 0.032851268
-0.015435586 0.024759635 0.006514802 6.811722e-05 0.022383472 -0.02694832 -0.0036529042 0.018395515
-0.01846247 -0.016680626 -0.0059098867 -0.008042845 0.0042628297 -0.043930776 -0.028747214 0.013705035
-0.026976168 -0.03809408 0.029056188 -0.015178407 -0.016534148 0.03694406 0.040023383 -0.024212802
0.039269425 0.011087019 -0.018610874 0.009986378 -0.042113647 -0.009311559 -0.024527008 -0.019101856
0.031538118 0.029205093 0.015576128 0.027264927 -0.033192527 0.007824231 0.028706046 -0.0315004
-0.0019129458 0.01287087 0.034574725 -0.029623397 -0.040339053 0.0023948103 0.011720169 0.023241084
0.0027199201 0.021842662 0.036698367 0.030329188 -0.023322685 0.016301721 -0.037032384 0.013573073
0.007230783 0.033405606 -0.034305517 -0.00960369 0.023633394 0.033921648 -0.0096076615 -0.0046648122
0.009614074 0.010967865 0.025889425 0.04228434 0.022900838 -0.02600921 0.008730855 0.03531952
0.00052645925 0.014358308 0.0029930219 0.030005937 -0.027148724 0.03738443 -0.041626856 0.039917465
0.019544417 -0.030590966 0.0022823217 0.027405934 0.0008677932 -0.01452245 -0.011934011 -0.018155623
0.04314709 0.01991233 0.0024643987 -0.020186508 0.012494879 -0.042801473 0.012882815 -0.014052914
-0.031386565 -0.001262522 -0.0141378585 -0.0043084472 -0.027502047 -0.031830575 0.031667765 -0.0070767547
0.037930947 -0.020243827 -0.0114792045 -0.016549714 0.020870876 -0.012256529 0.029193636 -0.0033383935
-0.0046491195 0.035419837 0.040980045 -0.01119387 -0.003909635 -0.029999219 0.031911742 -0.023475701
-0.027650729 0.014444215 -0.03999249 0.029369475 0.011959076 0.005233252 -0.03037823 0.032254137
-0.035332054 -0.027277064 -0.0037984636 -0.021439277 -0.015367186 0.030376557 -0.022610454 -0.03785323
0.016356848 0.04156518 -0.025397643 -0.0007214604 0.027319022 -0.025833022 -0.035852667 -0.02982551
-0.015060631 0.015242201 -0.02825943 0.012733532 -0.020895867 0.025060141 0.004795812 0.026304439
-0.01905022 -0.0032662377 0.030786652 -0.023698574 -0.026720934 0.0031390565 0.012194651 0.025345597

fc2.bias f4 [256]
00000000: b8fc 1dbd bac0 043d 99bd c13c 0096 143d
00000010: d32f 9aba c694 d03c 9b1d 723c 1347 2c3d
00000020: 9bea 2bbd 683e bebc 9150 ee3c 51b5 b2bc
00000030: 01e6 13bd ddb8 5e3c 630d 12bd bff1 193d
00000040: 3342 043c 2b53 fb3c e326 afbc 4331 b73c
00000050: 9796 d73b 0a4e 9e3c a5e9 5fbc df30 6abc
00000060: dfe1 13bd 8f17 52b8 5077 1bbd 5fd7 fe3c
00000070: a13d 073c e80a bf3c 08cf 2f3d af64 ed3c
00000080: 51cc 9bbc 063e f8b9 aee5 34bd 0f23 083d
00000090: 86a4 8a3a 85af 0ebd 4539 6ebc ae09 1cbd
000000a0: dadf d93c 8762 1bbd 601c d7bb 8f51 ddbc
000000b0: 74ff e93c 2fdd d03c 1e16 9ebc ca98 0abd
000000c0: 9616 a43c 7903 1bbd c82a 71bc a851 d5bb
000000d0: 16a0 d4ba cc7c 8fbc 6f85 193c f4b0 273c
000000e0: a5f0 e4bb d3ff a83c 3fdd 513b f298 72bb
000000f0: 2c76 29bd df07 ae3c a163 85bb cf7b 2fbd
00000100: 4889 25bd 668c 9d3a dccd 1cbd effd 65bc
00000110: 0d2a 85bc 31ce 2e39 72d1 2a3d 6a38 c9bc
00000120: b3dd 113d 516f 24bc ecb8 073d 41da 24bd
00000130: b3a8 813c 23eb 9e3c 88a1 953b f17d bebb
00000140: 7ac6 a1bc 193f 8e3c 8546 8b3c 82b7 213c
00000150: d2db ac3c 788f 1d3c c142 9bbc 7a4c e63c
00000160: 094a 2abc 3ce6 5cb9 42f7 a3b9 14bb 9c3c
00000170: 8261 a33c 9021 f23b faf7 39bb 4d51 333d
00000180: 6757 e5bb b0df c8bc 9e98 92b9 9a2d 9d3c
00000190: ac80 e23b 5d0f 0cbd 0a3d aa3c 682f 40bd
000001a0: b65d a73c 47e1 b3bc 3085 003d 160d 8f3c
000001b0: 35db e73c a5a7 5b3c 0d32 7d3a 5875 4eba
000001c0: ab1e f83c ff34 343c e08a 283d a10d 4b3c
000001d0: fe65 013d f788 43bc 13cb 403b ffd3 073d
000001e0: 8108 02bc 340f a63c aa80 9e3c ffdf 243d
000001f0: 5195 e4bc 7428 bc3c ec7a 2a3d 5d55 0ebd
00000200: a4fb 5e3c 5e77 7cba 486c d9bc b36d e8bc
00000210: 3fc5 82bc 2654 44bc 6b3b b5bc a94b 923c
00000220: c5c7 fb3c 1109 df3b 7851 d03c e632 84ba
00000230: 1d90 35bd a2db 8ebc 98ac 573b a28d 063d
00000240: c9e9 513c da84 0bbd 00d5 013d 3559 783c
00000250: 0e49 32bd d0bb 933a a92b a03c 420e 88bc
00000260: 9f45 81bc 8d1f 18bd c2b6 e1bc 6c50 633a
00000270: ec72 b5bc c5c7 953c 6610 26bd 463e a73c
00000280: 5b68 8abc e9c9 d1bc 0689 bd3c a51b 303d
00000290: 1aea b9bc b0af 16bd 436e c9bc 0619 0e3d
000002a0: 35c2 8f3c bb17 053d 3176 6cbc 647f d33c
000002b0: 3d6c 593c 7038 073d 835b 18bd a628 e93c
000002c0: 18ca 85bc 3c5e 7b3c e370 20bd cd54 9ebc
000002d0: 42d5 d0bc 3001 8f3b 42a4 14bd 3496 0f3d
000002e0: 9325 f8bc bdc3 303d b9b8 27bc e0ef 2cbd
000002f0: aff3 28bc 4388 0bbd cde4 293d 6541 96bb
00000300: 1fe1 bf3c 7177 29bd 8097 be3c c572 27bc
00000310: 2d6d 903c ef87 5cbb 8c78 1e3d b27e 863c
00000320: 18e6 b13b 660f 353d 1a46 94bc 7769 f53b
00000330: 5351 223d 7f5b 1cbd a174 dc3c 096d 85bc
00000340: 2a99 c23c c17d 3fbc 6759 fd3c 414b 24bd
00000350: 45d5 fa3b 34ab 623c 9eb8 0c3d f328 1fbd
00000360: f226 563c 5fe6 2dbd 6090 17bd 40e0 ba3c
00000370: 13c6 e6bc d210 903c ca90 00bb 63ba 843c
00000380: 5a7c ecbb 7cd1 e13c 7d19 1c3d a7d7 8dbc
00000390: aec2 68bb 975e 06bd 0731 d1bc f31c 3b3b
000003a0: 8b5f 05bd 980e 16bb ded9 373c 82f8 06bd
000003b0: 66be 2c3d 3af3 9a3c 1e85 ed3c 9e17 523b
000003c0: 2ee2 983a 82b0 083d c98f ee3c 9313 36bc
000003d0: 57b1 b63c 7837 23bd 4713 13bd 3ac5 263b
000003e0: ef4f 173d 2fbe 143d f9d2 1abd fcad eb3c
000003f0: 533c a43c 6bdb 043b 1eec fe3c d02f 743c
-0.03857109 0.03241036 0.023649978 0.036275864 -0.001176352 0.025461566 0.014777566 0.04205997
-0.041971784 -0.023223117 0.029091151 -0.021814974 -0.03610802 0.0135938795 -0.035657298 0.037584063
0.008072424 0.030679306 -0.021380847 0.022362357 0.006579231 0.019324321 -0.013666545 -0.014293878
-0.03610408 -5.0089842e-05 -0.037955582 0.031108556 0.00825444 0.02332063 0.04292205 0.028978674
-0.019018324 -0.00047348457 -0.044164352 0.03323656 0.0010577596 -0.034835357 -0.014540021 -0.03809517
0.026595999 -0.03793576 -0.006564662 -0.02701643 0.028564192 0.025496094 -0.019297656 -0.033837117
0.020030301 -0.03784511 -0.0147196725 -0.0065099783 -0.0016222026 -0.017515562 0.009370192 0.01023506
-0.006986695 0.020629799 0.0032022742 -0.0037017432 -0.041372463 0.021243988 -0.0040707146 -0.042842682
-0.040414125 0.0012019991 -0.03828226 -0.014037593 -0.016255403 0.00016670745 0.04170365 -0.024563033
0.03561182 -0.0100363055 0.03313534 -0.040247206 0.015827512 0.019399231 0.004566375 -0.005813353
-0.019747961 0.017364072 0.0170014 0.009870412 0.021100912 0.009616725 -0.01895273 0.028112639
-0.010393628 -0.00021066604 -0.00031274004 0.019132175 0.019943956 0.007389255 -0.0028376565 0.043778706
-0.0069989446 -0.024520725 -0.00027961 0.019186784 0.0069123115 -0.03419434 0.020781059 -0.04692021
0.020430427 -0.021958007 0.031377017 0.017462295 0.028302768 0.013406669 0.0009658642 -0.0007875762
0.030288061 0.010998963 0.041148067 0.012393386 0.031591408 -0.01193451 0.0029417917 0.03316116
-0.007936598 0.020270921 0.019348461 0.04025268 -0.02790323 0.022968508 0.041621134 -0.034749378
0.0136098005 -0.0009630824 -0.02654089 -0.028372621 -0.015963195 -0.011982953 -0.02212306 0.017858343
0.030734906 0.0068065007 0.025429472 -0.001008597 -0.04432689 -0.017438713 0.003290927 0.032849915
0.012812086 -0.034062244 0.031697273 0.015157987 -0.0435267 0.0011271182 0.019552069 -0.016608361
-0.015780268 -0.037139464 -0.027552966 0.00086713466 -0.022149526 0.018283734 -0.040542983 0.020415436
-0.016895464 -0.025608974 0.023136627 0.042995114 -0.022694636 -0.036788642 -0.02458871 0.034691833
0.01754866 0.032493334 -0.014432476 0.02581758 0.013270435 0.033012807 -0.037196647 0.028461765
-0.016331717 0.015342291 -0.039170157 -0.019327546 -0.025492314 0.0043641552 -0.03628946 0.035055354
-0.030291354 0.04315542 -0.010236912 -0.04222095 -0.010312005 -0.034065496 0.041477967 -0.0045854324
0.023422776 -0.041373674 0.0232656 -0.010220234 0.017630184 -0.0033650359 0.03868918 0.016417835
0.0054290406 0.04420414 -0.018099833 0.007489379 0.039628338 -0.038173195 0.026911082 -0.016287344
0.023754675 -0.011687697 0.03092642 -0.04011083 0.0076548182 0.013834763 0.034355752 -0.03885741
0.013070809 -0.042456027 -0.03700292 0.022812009 -0.028170621 0.017586146 -0.001961755 0.016202157
-0.0072169723 0.02756571 0.038110245 -0.017314745 -0.0035516429 -0.03280505 -0.025536073 0.002855119
-0.03256182 -0.0022896882 0.011221377 -0.03295184 0.042173766 0.018914808 0.02899414 0.0032057534
0.0011664086 0.033371456 0.029121296 -0.011113065 0.02230136 -0.03984782 -0.035907056 0.0025447146
0.036941465 0.036314186 -0.037798855 0.028769486 0.020048296 0.0020272385 0.031118449 0.0149039775

fc3.weight f4 [128, 256]
00000000: 4076 9f3c ee9d 823c 75b7 7bbd aff0 6fbd
00000010: 0c98 653d e704 62bc acef 603d ba8a 043b
00000020: b894 603d 023f 41bd f80b 7a3d b45e 773d
00000030: 0278 003c 4177 03bd 10ba e03b c54b 7e3b
00000040: 7cd6 103d 189e f33c b07e 02bd 55f1 e83c
00000050: fe3c 013c 89c1 58bd a16c 5bbd 901b 6d3d
00000060: a109 eabc 7245 8cbb 7b3b 4bbd 01da 07bd
00000070: 0e63 6a3d 2433 d23c c53d 05bc 4368 0dbc
00000080: d262 6dbd 7fdf 423d 5f23 08bd 7eae 793d
00000090: 8e87 bdbb a5b4 e8bb dcd5 f93c 36fc 153d
000000a0: 1970 843c 8c55 30bc 20c0 073d d71b 3dbd
000000b0: 3419 b4bc 1be7 973c 4b62 0a3d a02a edb9
000000c0: 982e 0ebb 74de 56bc 97e1 953b a741 4a3d
000000d0: 1fee 623d 8179 4a3c e11e 523c e4ed c13c
000000e0: 1999 163d cb63 413c a598 20bc 1ddd 543d
000000f0: 38e2 31bd b8bd ed3b a2f3 cdbb 8c6d 613d
00000100: eba6 38bd 9878 623d a5ce 4f3c 3ba7 663d
00000110: 8248 ec3b bbdc 71bc 949a 693d 67f5 06bd
00000120: 4df6 0c3d 62e3 c6bc 2330 c5bc 43d6 5e3d
00000130: 48b6 9a3c 3131 13bd b371 24bd c5d5 c9bc
00000140: 5e57 90bc ff61 43bd 14f6 da3c a078 3dbd
00000150: d54d a6bc 9bf3 223c f701 303d 0edc 5e3d
00000160: 99d4 103d b170 403d 6b4d 54ba 21d2 283d
00000170: 9156 c53c 544f 433d 9ed9 4dbc 2d4d 90bb
00000180: 1607 c13c a91a 3a3d af19 b93c 4266 c83c
00000190: d6c4 7a3d cb57 67bd 8cfd 0cbd 0c6a 23bd
000001a0: f612 ff3c 36d6 2d3b a296 a13c 603a a5bc
000001b0: c5e3 dab9 d28f 14bd 9693 f43c c2ef 403c
000001c0: b6f8 12bc 0e6d 77bd 986a 0e3c 5239 94bc
000001d0: 06bf f83c 87ce 0cbd cdf3 443d 4b69 cfbc
000001e0: ada2 ad3b 427a 483d f7c0 513d 22f3 173c
000001f0: 0b8d c0bc f88b 183b aafb 693d 4663 4bbd
00000200: 9e0c 53bd cabb f4bc 891c 903c 3219 54bd
00000210: 1fc4 bd3c 1e7b 34bd 2c6d 9d3c b12b 2fbc
00000220: c94e 31bd 38ec b13b 1fe7 d53b 802f 263d
00000230: 22d0 2e3d 28a8 973a 4aa5 333d cc26 36bd
00000240: bcaa a03b c974 44bd 7556 3b3d 1a9f cabc
00000250: e7f0 96bc ca7a 8b3b 7c90 56bc 4809 08ba
00000260: 2224 1dbd dfe1 6cbd 4f1d 7e3d a277 adbc
00000270: 3375 553d 56df 043d 4b1b ecbc c830 743c
00000280: ed91 7ebd 76f1 f0bc eae6 5f3c 3c3d 5b3d
00000290: 497e c83c f196 7d3c 7851 edbb 39e7 0cbd
000002a0: 0a27 f8bb 0f4a 3b3d 4ff7 aebc 6b30 283d
000002b0: 67a2 eebc 1261 e1bc 7e2b 4abc e32b 42bd
000002c0: c7af 5ebd fc1e 72bd e2ad 893c 6ae0 cf3c
000002d0: 0b4a 3d3d bcdf 723c dce0 303d 2e2f 783d
000002e0: 3888 cbbb ee65 b6bc 3078 7ebd 69a1 d23c
000002f0: 1f4e 013d 5808 9bbc 9813 35bd 7c1a ad3c
00000300: 6096 093d fd89 ea3b f7ca 67bd d007 253d
00000310: 15dd 1dbd c81d 1c3c c225 5f3c 60ba d4bc
00000320: 1397 83bc 458c afbc 068a a5bb 08c5 56bd
00000330: dc0b 153d a9f6 5ebc d4da 2dbd fd6c 733d
00000340: 8e60 e53c 18b2 c1bb 160b c3bc fe59 973c
00000350: 8b4a ecbc 3a82 a53b e416 a3bc afa4 f03c
00000360: 0951 6f3d 6ca8 793c 32fb 5fbb a66f 923c
00000370: cd99 57bd b067 71bc 64da c13c 3e5d fa3b
00000380: c75e 263d 32ae 833c f158 4a3d 3278 153d
00000390: 9d7a 3dbc 5d1a efbc 0476 3dbd ac43 0d3b
000003a0: e543 9dbb 1d29 88bc 2d14 203d 0902 183d
000003b0: 07de aa3c 575f 243d 60cc 3dbd 4125 5cbd
000003c0: 6ea6 69bd 3637 a2bc 0475 0ebd f161 b0bc
000003d0: b811 7cbd 0a3e 84bc 46b0 6f3d 89d8 94bc
000003e0: 75f1 42bd 71b6 debc 8c7c c83b 2adc 7c3d
000003f0: ed27 ba3c db38 7ebd df57 2c3d d947 27bd
0.019465566 0.015944447 -0.061454255 -0.058579143 0.056053206 -0.013795114 0.05491607 0.002022429
0.05482933 -0.04717923 0.06104657 0.06039305 0.007841112 -0.03209615 0.006858118 0.0038802486
0.0353608 0.02973847 -0.0318591 0.028435389 0.007888077 -0.052918945 -0.053570393 0.057887614
-0.028569045 -0.0042807395 -0.049617272 -0.03316689 0.057223372 0.025659151 -0.008132403 -0.008630815
-0.05795557 0.047576424 -0.033236858 0.060957424 -0.0057839816 -0.0071016126 0.030497484 0.03661748
0.016166734 -0.010762583 0.03314221 -0.04616913 -0.021984674 0.018542817 0.033785146 -0.0004523592
-0.0021695253 -0.01311456 0.0045740115 0.049379017 0.05540287 0.01235807 0.012824745 0.023673005
0.0367671 0.011803578 -0.009802018 0.051968683 -0.04342863 0.0072552823 -0.006285147 0.055036113
-0.04508106 0.05529079 0.012683545 0.056311827 0.007210792 -0.014762099 0.057032183 -0.032948878
0.03441458 -0.024278346 -0.024070805 0.054403555 0.018885747 -0.035935584 -0.040147495 -0.024638066
-0.017619785 -0.04770088 0.026728667 -0.046257615 -0.020300785 0.009945775 0.042970624 0.05440908
0.035359 0.04698247 -0.00080986944 0.04121602 0.02408913 0.047683075 -0.012564091 -0.0044037313
0.02356295 0.04543558 0.022595255 0.024462823 0.061222874 -0.05648021 -0.03442149 -0.039896056
0.031136971 0.0026525385 0.019725148 -0.020169437 -0.00041749902 -0.03626997 0.02985553 0.011775913
-0.00897043 -0.060406737 0.008692406 -0.018093739 0.030364525 -0.034376647 0.04808407 -0.025318762
0.0052989335 0.04894472 0.051209416 0.009274276 -0.023504755 0.0023276787 0.05712477 -0.04965522
-0.051525705 -0.029874701 0.017591732 -0.05178184 0.023164807 -0.044062726 0.019217096 -0.010691569
-0.043288026 0.005429771 0.006527796 0.040572643 0.04267896 0.00115705 0.043858804 -0.044470593
0.0049031656 -0.047962938 0.04573675 -0.024734069 -0.018425418 0.004256581 -0.013095971 -0.00051893713
-0.038364537 -0.057832595 0.06203967 -0.02117521 0.052113723 0.032439552 -0.028821608 0.0149042085
-0.062150884 -0.029412013 0.013665894 0.053525195 0.02447428 0.015477882 -0.007242378 -0.0344002
-0.007573013 0.045724925 -0.02135816 0.0410618 -0.029130174 -0.027512107 -0.012339471 -0.047405135
-0.054366853 -0.05911158 0.016806547 0.025375564 0.04621319 0.01482385 0.043183193 0.06059187
-0.006211307 -0.0222654 -0.06212634 0.025711732 0.031568643 -0.018924877 -0.04420814 0.021130793
0.033590674 0.0071575628 -0.056590047 0.040290654 -0.03854092 0.009528585 0.013619842 -0.025967777
-0.016063249 -0.02142919 -0.005051854 -0.052433997 0.036388263 -0.013608613 -0.04244502 0.05943011
0.028000142 -0.005911123 -0.023808997 0.018475529 -0.028844139 0.0050509246 -0.019908376 0.029375402
0.05842689 0.015237909 -0.0034176824 0.017875504 -0.05263691 -0.014734194 0.023663707 0.00764051
0.04061773 0.016074274 0.049401227 0.03649158 -0.011564878 -0.029187376 -0.046255127 0.0021555228
-0.0047993534 -0.016621167 0.03908174 0.037111316 0.020857824 0.040129986 -0.046337485 -0.053746466
-0.057043485 -0.019801717 -0.034779564 -0.021531077 -0.061540335 -0.016142864 0.058517717 -0.018169658
-0.047593553 -0.027186604 0.006118363 0.061733402 0.022724116 -0.06206594 0.042075988 -0.040840004

fc3.bias f4 [128]
00000000: 4f78 143d 5abf 9f3c 6d19 5ebd 4f82 42bd
00000010: 274e 76bd 0fd4 7abd e004 3dbd ec1d 7c3d
00000020: 95de 08bd b4ee 593d 743d 063d 69f5 903a
00000030: 97db 4ebd b603 12bd bd84 43bc 2b15 823d
00000040: f5f4 1fbd 1cc6 4f3d 605b d6bc 6b5a 1abc
00000050: eb26 5d3c 5266 4c3d 6a77 84bc bdeb 0ebd
00000060: 129a e4bc 32fb 12bd bacb 103c b843 f13c
00000070: 1ec1 31bd de15 5dbd e91a 37bc 144a 013d
00000080: eb8b 773d 1ba2 823b cc10 843d 32f1 b1bc
00000090: 6d60 5f3d 66df d73c 7cec 41bd 4e7b 5d3d
000000a0: c459 903c 33a6 a63c e482 0c3d 379a db3c
000000b0: bac0 803d c1c3 803d 3e93 4ebc 46d6 2abd
000000c0: edf1 c43b 8bab e53c 9487 6a3d 3d04 59bc
000000d0: 598a 543d 2aa2 8e3c c17d 28bd e6bb c0bc
000000e0: 9688 513d 21a6 e2bc 38d9 1abc cb82 143d
000000f0: 8331 0a3d 9744 3cbd f88e b73b ed06 083d
00000100: ef10 10bd dc0e 28bd 38a6 d7bb 5ffc 72bd
00000110: 29e5 01bd 891f 32bd ed36 09bd d590 333c
00000120: d627 0d3d 7e67 fb3c 5467 04bd cc85 6dbd
00000130: 8eaf 51bd 8a85 6b3d d693 16bd 10b3 e3bb
00000140: 5c36 0e3d aa91 27bd 2feb 803c d5f4 24bd
00000150: d530 cc3c 8a32 383d a02d 593d 9e8d 50bd
00000160: efc1 d039 cf9e 43bd cd56 26bc e755 cbbc
00000170: 4b3c dbbc 8586 41bd 13aa 00bd 5b88 49bd
00000180: 20ae 6d3d 7809 ff3c 4036 3e3d d824 9b3c
00000190: 2e14 51bd de92 68bc 77e8 a13c 8a78 c13b
000001a0: d2d9 5c3d d1f8 22bd f52e 2f3c 689a 53bc
000001b0: 3ede 293d 6985 023d 590f f03b b62e 23bd
000001c0: 0b6b 59bd 173b 4abd 04ca 2abd 82e7 913c
000001d0: e4d0 53bd d9dc d63c 1202 30bd 8b6d 5b3d
000001e0: f662 26bd 737f d33c b640 5f3d 878e 223d
000001f0: 9cf7 923c 0b8f 7b3c 9378 9cbc bc55 75bd
0.036247548 0.019500423 -0.054223467 -0.047487553 -0.060133126 -0.06123739 -0.046147227 0.061551973
-0.033415396 0.05320616 0.03277345 0.0011059466 -0.050502386 -0.03564807 -0.011933503 0.06351694
-0.03905197 0.05072604 -0.026166618 -0.009420971 0.013498048 0.049902268 -0.016170222 -0.034892786
-0.027905498 -0.03588409 0.008837635 0.029451236 -0.04339706 -0.053975932 -0.0111758495 0.031564787
0.06043617 0.0039866096 0.06448516 -0.021721456 0.05453532 0.026351642 -0.04734467 0.05407267
0.017620929 0.020342922 0.034304515 0.026806934 0.0628676 0.06287337 -0.012608347 -0.041708253
0.006010285 0.0280359 0.057258204 -0.013245639 0.05188975 0.01741131 -0.041135553 -0.023527097
0.05115565 -0.027667107 -0.009451203 0.036257546 0.033738624 -0.04596385 0.00560176 0.03320973
-0.0351724 -0.041029796 -0.006581094 -0.05932271 -0.031712685 -0.043487106 -0.033499647 0.010959824
0.03446182 0.030688997 -0.032325104 -0.057988927 -0.051192813 0.0575004 -0.03676208 -0.006948836
0.03471981 -0.0409104 0.015737144 -0.040272553 0.024925629 0.044970073 0.053022027 -0.050916307
0.00039817343 -0.047758874 -0.010152531 -0.024821235 -0.026762148 -0.04724743 -0.031412195 -0.049202304
0.058027387 0.031132445 0.046438456 0.018938467 -0.051044635 -0.014195172 0.019764168 0.005904262
0.053918667 -0.03978807 0.010692348 -0.012915231 0.041471712 0.03186551 0.0073260483 -0.03983947
-0.0530806 -0.04937276 -0.041696563 0.017810587 -0.051712885 0.026228355 -0.042970724 0.053571265
-0.04062172 0.025817608 0.054505073 0.039686706 0.017940335 0.015353928 -0.019100463 -0.059896216

fc4.weight f4 [64, 128]
00000000: 4521 2bbd 3930 81bd fecf d03c 945d c53c
00000010: 3da6 1c3d 0b5d 483b 5b5c aa3c 7e5c 533d
00000020: f351 cb3c 5e79 08bd 7f9a 8cbd dfe5 a13d
00000030: 6b07 23bd fe4d 35bd 495f b5bd 4f32 15bd
00000040: 9ee3 aa3d 1d23 143d 4187 833d 7bb2 3ebd
00000050: cc5d 84bd 799e 473d dada 09bd 2ab8 9c3d
00000060: 2137 ec3c 1650 5fbc 2421 88bc b93b 14bd
00000070: 9252 ce3c 43e9 803d 1a18 963d 4ea4 a13d
00000080: 8ae8 4e3d 3804 1abd b82d 3cbd 8bd4 8a3d
00000090: c157 133d 3df4 893d 3e68 ab3d e4ba 423d
000000a0: 299b ab3c 24d1 9a3d e50a 2e3d 0e79 e03b
000000b0: b145 a6bd c3cd edbb 53ee 78bd fe2f a9bc
000000c0: d7b0 653d 30c0 39bd dced 9b3d 89db 58bd
000000d0: c32d 8f3c a7c0 a6bd a32d 3a3d 0bd7 2c3d
000000e0: baba 4dbd 4df0 a1bd 0392 a23c f24c 783d
000000f0: 45f9 883d 65d4 193d 23df a93d 469c 8d3d
00000100: ea43 7a3d a03c 943d 25a9 c03c 1226 353d
00000110: a083 f03c 430f 9bbd ff58 b43d 75ec 743d
00000120: a483 a63b a7e5 953d 1344 1bbd 0e8f 8fbd
00000130: 0fc7 b1bd 62ca 9bbd b6ef aebd 73a4 a53d
00000140: cecf 283d 3f05 bc3c aa53 0abd 315a b13d
00000150: 1e8d a33b f920 2c3d 51d0 933d 61ca 843c
00000160: aeeb af3d f596 153d 6dcc abbd a60b c43c
00000170: 8d75 823d dca3 543d 304e fbbc b147 b4bd
00000180: 5271 6abc b032 683d 156f 883d cabd 63bd
00000190: a0de 57bd 3e14 2a3c 1406 b0bd 56dd 3fbd
000001a0: 5cde a3bd 908e a53c d9ed bf3c e1fc 3e3d
000001b0: 14be 2abd 720b e23c adef 5ebd a5da a53b
000001c0: c75e fc3c 0839 253b a1b9 c33b bb1d 833d
000001d0: 4cfc 5bbd 830a a43d 3a9e 94bd a3ad a13d
000001e0: 19c4 47bc a599 b23c aed3 de3c d40e b0bd
000001f0: d39e 83bd d96c 51bd 0a18 73bd 790f 67bd
00000200: abb9 653d 3c29 a93c 87e3 60bc a0b1 f33c
00000210: f924 543d 0078 64bd ac06 1b3d 02f7 debc
00000220: 43d0 ff3b b718 b3bd 4b0c 31bd 7f17 7f3b
00000230: 3752 93bd 7ca6 b83b b632 2dbb 45c6 953d
00000240: 2384 a43d fe95 7cbd 742f 123d f06c 733c
00000250: fd59 883d 125c 1fbd 1530 6cbd c6d2 10bd
00000260: b83b 51bc 1f1e aebd 7dfb 613d 102a 0cbd
00000270: 00f2 8ebc 8c51 d8bb 8dd6 873d c4d0 81bd
00000280: dcb9 afbc 1048 de3c ae50 aebd 90a4 683d
00000290: 55b8 813d 17eb 95bd d8e1 77bd dc99 a03c
000002a0: 1272 dc3c da80 833d cc25 b03d 2c02 18bd
000002b0: e7c1 d13b e8ae 66bd c566 87bc 5344 a9bd
000002c0: 64f8 ad3d 8373 b33d 2b5e 943d 4b2d a4bd
000002d0: 247d 863d 1d2f b3bd 4968 1ebc 9300 4dbd
000002e0: d8f5 75ba f099 93ba 1d8d d23c 9e73 96bd
000002f0: 7505 963d fb44 4cbd 99ca a03c 47cf 903d
00000300: dd7d 163d d44d b1bd fbd0 9a3d f658 4f3c
00000310: 2e7e 24bd c998 953d 7d53 cfbb 6aa8 ad3d
00000320: ce2c a33d 2c86 aa3c 0b9c bbbb 1478 873d
00000330: e1fe 77bd 479f ab3d 79de 23bd a721 1ebc
00000340: 76dd a13d aeda 553d a874 eb3c f38e 9ebd
00000350: f04b ae3d c836 06bd e08c 983d b930 ab3b
00000360: 0b69 2fbd a11b 063d 80fa 293d 4966 62bd
00000370: bc16 003d 37d6 3a3d e5db b33c 7dfe 6ebd
00000380: 4f7a cb3c d719 6dbd 0ddd 0fbd 3401 573d
00000390: ab9a cebc 7fa7 2e3d da3b 233d d18c 443d
000003a0: 1f80 5bbd 72de 263d bcba 0c3c fa03 7d3d
000003b0: 5249 903b 835e 84bd 87ca 44bd d9cb cd3c
000003c0: 2d53 b23d 9c69 123d 78f8 843d eac7 eabc
000003d0: f14c 2bbd ec88 a1bd 0a10 75bd a705 09bd
000003e0: 9b7a 8f3d 6391 5c3c b92a cebc 0af2 333b
000003f0: 32d7 9d3b c359 183d 30b8 403d 9ac4 af3d
-0.041779775 -0.06308026 0.025489803 0.024092473 0.038244475 0.0030573036 0.020795992 0.05160188
0.02481935 -0.03331887 -0.06865405 0.079051726 -0.039801996 -0.044263832 -0.08856065 -0.03642493
0.08344196 0.0361663 0.06422282 -0.04655693 -0.06463203 0.048735116 -0.03365598 0.07652314
0.028834881 -0.013629934 -0.016617365 -0.03618977 0.025185857 0.06294491 0.07328816 0.07892667
0.050514735 -0.03760168 -0.04594204 0.067788206 0.03597236 0.06736038 0.08369492 0.047541514
0.02094801 0.07559422 0.04249086 0.0068503683 -0.08118761 -0.0072571947 -0.06077416 -0.020652767
0.05607685 -0.0453493 0.076137275 -0.05294374 0.017477876 -0.08142214 0.04545368 0.04219727
-0.050226904 -0.07907162 0.019845014 0.060620256 0.066881694 0.03755607 0.08294513 0.069145724
0.061099924 0.07238126 0.023518154 0.04422576 0.029359639 -0.0757127 0.08806037 0.059795815
0.0050816108 0.07319193 -0.037906718 -0.070097074 -0.086805455 -0.07606961 -0.08541815 0.08088007
0.041213803 0.02295172 -0.033771195 0.08659781 0.0049911877 0.042023633 0.072174676 0.016209783
0.08589874 0.036520917 -0.083886005 0.023931336 0.06370077 0.05191408 -0.030676931 -0.088027366
-0.014309244 0.056688964 0.06661812 -0.05560092 -0.052702546 0.010380803 -0.08594909 -0.04684194
-0.08001396 0.02020958 0.023428844 0.046627883 -0.04168518 0.027593348 -0.05442779 0.005061465
0.030806912 0.0025210995 0.0059730564 0.06402155 -0.053707406 0.080098175 -0.07256742 0.07894447
-0.012192749 0.021801779 0.027200546 -0.08596578 -0.06426778 -0.051129196 -0.059349097 -0.05641124
0.05608527 0.020649545 -0.013726122 0.029747784 0.051793072 -0.055778503 0.03784816 -0.027217392
0.007806809 -0.08744948 -0.043224614 0.0038923917 -0.071934156 0.005635081 -0.002642793 0.073132075
0.080330156 -0.06166648 0.035689786 0.014857516 0.06657789 -0.038906164 -0.057663042 -0.03535726
-0.012770586 -0.08501839 0.05517148 -0.0342198 -0.017449379 -0.006601518 0.06632719 -0.06338647
-0.02145093 0.027133971 -0.08511482 0.056797564 0.06333987 -0.073202305 -0.060518116 0.019604616
0.026909862 0.06421061 0.08600959 -0.037111446 0.006401289 -0.056319147 -0.016528497 -0.08264985
0.084946424 0.087622665 0.072445236 -0.080164514 0.065668374 -0.087492205 -0.009668418 -0.050049376
-0.0009382642 -0.0011261087 0.025702054 -0.07346271 0.073252596 -0.049870472 0.019627856 0.07070785
0.036741126 -0.08657423 0.07559391 0.012655487 -0.040159397 0.07304532 -0.0063270913 0.08479388
0.0796753 0.020815931 -0.005725389 0.066147 -0.060545806 0.08379989 -0.04000709 -0.009651578
0.079035684 0.052210502 0.02874215 -0.07742109 0.08510578 -0.032767087 0.07448745 0.005224314
-0.042824786 0.032741193 0.04149866 -0.055273328 0.03127168 0.045614447 0.02195544 -0.058348168
0.024838595 -0.05788597 -0.03512292 0.05249138 -0.025220236 0.042640205 0.039852 0.047985855
-0.053588983 0.040739484 0.008589443 0.06177137 0.0044032717 -0.06463339 -0.048044708 0.025121616
0.08707271 0.03574525 0.06492704 -0.02865978 -0.041821424 -0.07887444 -0.05982975 -0.033452656
0.07005807 0.013462397 -0.025166856 0.00274575 0.004816913 0.03719498 0.047050655 0.08582421

fc4.bias f4 [64]
00000000: 29ee 81bb 858c 60bd c2cf e2bb 04a2 513d
00000010: f84a ba39 b9bf 1a3d 62f8 3fbc 582a 5c3d
00000020: 58c1 9ebd 5828 3c3d 213b dbbc 449a 843d
00000030: 4b77 8a3d 07ce b1bd b6d7 89bd 3bef 09bd
00000040: ac3e 8dbd 054b 87bd 8723 1a3d a535 9abd
00000050: 9d2c 54bd 4a29 2b3d 4df8 9abd 2c94 443b
00000060: d255 db3d f07b 0abd fd27 e3bb 93fd c53d
00000070: 388f 12bb 1a89 103d d987 8abd b744 873d
00000080: 4ce9 a93d 8803 9abb 0345 abbd fb9b 79bd
00000090: 77c1 46bd 3935 0c3d 679c af3d ebe0 b53c
000000a0: c6cc 11bb 4ff0 c13d 3b71 5bbd 2bdc 7dbc
000000b0: e55b f5bc 88e1 7e3d 2312 15bc f3a0 8cbd
000000c0: 3f21 a6bd bdca 8abd 605d 1c3d fd66 ce3c
000000d0: 14b4 6ebd 3e9a 51bd aa0e 963d 83d3 54bd
000000e0: 69d2 393c eab8 33bd 7334 823c b955 30bd
000000f0: 6fc7 73bd 4a3c 6a3c e2a2 b53b 36d4 563d
-0.0039651585 -0.05482151 -0.0069217393 0.0511799 0.0003553254 0.037780497 -0.011716934 0.05375132
-0.07751721 0.045936912 -0.026761593 0.06474736 0.067610346 -0.08681875 -0.06730597 -0.033675414
-0.06896719 -0.06606106 0.037631538 -0.07529763 -0.05180036 0.041787423 -0.07566891 0.0029995544
0.10709728 -0.033809602 -0.006932257 0.09667506 -0.0022363197 0.035287 -0.06764192 0.06604903
0.08296451 -0.004700128 -0.08362772 -0.06093977 -0.048524346 0.034230445 0.08574753 0.022201976
-0.0022247299 0.09469663 -0.053574782 -0.015494387 -0.029951045 0.062226802 -0.009098562 -0.06866636
-0.0811181 -0.067769505 0.038174987 0.025195593 -0.058277205 -0.051172487 0.07327016 -0.051959526
0.01134167 -0.04387752 0.01589415 -0.0430505 -0.059516367 0.014296601 0.005543099 0.052448474

fc5.weight f4 [2, 64]
00000000: 0eb7 c2bd db5d 95bd b269 9cbd 4cf8 b3bd
00000010: d4e3 9d3d f1a5 a4bd 986f d1bc 5355 953d
00000020: 3efe ec3c e679 df3d 349a 153d 09ce e5bd
00000030: 7169 b8bd e966 1ebd a6a8 d03d b8f4 debd
00000040: c50e eebd cc69 b03d 8343 a8bd 52c1 c9bd
00000050: 6e24 64bd 0fc4 1abc 0bf8 96bd d770 12bd
00000060: d269 c73d b552 b3bd 4795 b33d 044c 4ebd
00000070: 4969 96bd 131f 2fbd 8c07 333d 44eb fe3d
00000080: 026c 31bd 71a0 58bd e468 35bd d946 ecbd
00000090: ef17 efbd 4be4 933c e772 96bd ffb9 c23d
000000a0: 8e4c a63b a5ce 753d 2ca5 f4bd dd28 033c
000000b0: fc6d 43bd 5117 2b3d 5010 d3bb d6c8 74bd
000000c0: c908 aabd 58f8 1ebd 2f59 8c3d 1de8 b03c
000000d0: f0c0 52bd b454 91bd e6de 0d3d bb15 153d
000000e0: 28ab a33c 52b1 4abd 3b04 7d3d 9cad c2bb
000000f0: f70b edbd b696 babd a330 d9bb 9139 2fbd
00000100: 5493 593d eb87 873d 36d0 d73d dd18 d13d
00000110: 5c21 d43d 2940 06be ae9d 6abd 4d2e c5bd
00000120: c51f ed3d 3e72 a3bd 0aca ed3d f9b4 b4bd
00000130: f8fa dc3b 7f14 833d 0a31 8f3d fa2f c1bd
00000140: da34 703c 3ab9 a9bd 5599 37bd 02c1 a73d
00000150: e7af e33a f6fa 983d af02 b73d cbb8 cdbd
00000160: 0632 efbd cad4 6ebc c57d de3d 0667 eabd
00000170: 476f d43d d68c c43d e5d0 88bd ecd7 db3d
00000180: f062 a2bd 16c1 f93d 60fb 873d 23f4 e53d
00000190: ae32 f9bc 2c62 37bc 33a8 9fbd dbc9 9dbb
000001a0: 3f8c 5abd e0d4 06be d277 80bc 050d d13d
000001b0: 3026 f9bc 448c d23d a17c e03c 051c dabd
000001c0: b9f6 ef3d c68d e4bc 09fd 61bd f1ae dfbd
000001d0: 50d2 49bd c520 883c a269 bdbd 2e7e b93d
000001e0: f471 273d 4e7b a6bd 1bdb 2e3c aee6 cf3d
000001f0: 85e6 163d 989f 243d bdec cebc 9109 d13c
-0.09507571 -0.07293292 -0.07637347 -0.08787593 0.077094704 -0.08039463 -0.025565907 0.07291665
0.028929826 0.10911922 0.036524013 -0.11220939 -0.09004486 -0.03867236 0.10188417 -0.1088652
-0.11623911 0.08613929 -0.08216002 -0.09851326 -0.055698805 -0.009446158 -0.07371529 -0.035752144
0.097369805 -0.087560095 0.08768707 -0.050365463 -0.073443 -0.042754244 0.04370837 0.12447217
-0.043315895 -0.052887384 -0.044289485 -0.115369506 -0.11674487 0.018053195 -0.07346135 0.09508132
0.005075044 0.060011525 -0.119455665 0.008005348 -0.04771231 0.041770283 -0.0064411536 -0.059761845
-0.08302457 -0.038811058 0.06852948 0.021595055 -0.05145353 -0.07096234 0.0346364 0.036397677
0.019979075 -0.049485512 0.061771613 -0.005941106 -0.11574548 -0.09110777 -0.0066281124 -0.04277951
0.05311902 0.06617721 0.1053776 0.102098204 0.10357925 -0.13110413 -0.05727928 -0.09627972
0.11578325 -0.07980774 0.116108015 -0.0882358 0.006743785 0.06400394 0.06991775 -0.09432979
0.014661038 -0.08287282 -0.044823963 0.0819111 0.0017371149 0.07469742 0.08936059 -0.10045012
-0.11679463 -0.0145771 0.108638324 -0.114454314 0.10372787 0.09597175 -0.066804685 0.10734543
-0.07929027 0.12195031 0.06639743 0.11228206 -0.030419674 -0.01119284 -0.07795753 -0.004815323
-0.053356405 -0.13167143 -0.015682135 0.102075614 -0.030413717 0.1028066 0.027403178 -0.106498756
0.117169805 -0.027899634 -0.055172954 -0.10922039 -0.049272835 0.016617188 -0.092486635 0.0905727
0.04088016 -0.08128987 0.010672356 0.101514205 0.036840934 0.040191263 -0.02525937 0.025517257

fc5.bias f4 [2]
00000000: 02ea d23d 612c 59be
0.1029854 -0.21208335
