best_model.pth (torch, 712235 bytes, 10 tensors)

fc1.weight f4 [512, 8]
000000 1b 24 a5 be 65 21 8d be 44 5a dc 3d 0a 69 40 3e
       -0.3225411 -0.2756454 0.10759404 0.18790069
000010 1a 29 57 3e ec 10 ad 3d a7 4d 69 be 88 91 15 3e
       0.21011773 0.08450493 -0.22783528 0.14606297
000020 07 13 72 be 6c 4d b4 3e 91 02 5f be f4 9b dd 3d
       -0.23640071 0.35215318 -0.21778323 0.10820761
000030 a7 fc 0d 3e 2c d5 46 3d 43 f3 b3 bd e2 ca 9e 3d
       0.1386591 0.04854314 -0.08786633 0.077535406
000040 7b b0 4f 3d 87 00 8b bd 7f 2a 51 3d 85 34 96 be
       0.050705414 -0.0678721 0.051065918 -0.29336944
000050 0c 8c 16 3d 05 7e 67 be f0 01 2d 3c 17 02 5c 3e
       0.036754653 -0.22606666 0.010559544 0.21485172
000060 ae 94 ac 3e 19 96 ac be 38 1b 9c 3e 66 18 34 3e
       0.33707184 -0.33708265 0.30489516 0.17587432
000070 e5 10 0e be 0c 1c 88 3e 4a 01 b0 be e9 d9 1a 3e
       -0.13873632 0.26583898 -0.34375983 0.15122189
000080 62 4e ad 3d ac 8c 96 3e 15 5e d1 bd e7 06 eb bd
       0.08462216 0.294042 -0.10223023 -0.11475926
000090 3b 61 6b 3e f9 82 85 3e 63 0a f5 bd 54 88 6a be
       0.22986309 0.26076487 -0.11964872 -0.22903568
0000a0 0b d0 04 3e 91 59 96 be f7 e3 98 3e db 72 ea 3d
       0.12969987 -0.2936521 0.29861423 0.11447688
0000b0 35 c7 a3 3e c4 b7 e5 bb ba b3 af bd d0 e0 af be
       0.3198792 -0.007010432 -0.08579202 -0.34351206
0000c0 09 c1 9c be 65 dc b3 be d7 88 3e 3d 8a 83 81 3e
       -0.30616024 -0.35129085 0.04651722 0.2529567
0000d0 1f 28 a5 be 3f 27 af bc ec f9 12 be d3 00 73 be
       -0.32257172 -0.021381019 -0.1435315 -0.23730783
0000e0 be f7 8f bd b3 c1 a2 be f5 10 6d 3e 48 d8 af be
       -0.07029675 -0.31788406 0.23151 -0.34344697
0000f0 ee c8 7f 3e 53 66 54 3e 5b f4 70 3e 24 01 a2 be
       0.24978992 0.20742159 0.23530714 -0.31641495
000100 cb 58 5b 3e 92 82 29 be 3b bb 3d be 70 64 35 be
       0.2142059 -0.16553715 -0.18528454 -0.17714095
000110 93 65 a8 3e 5f c7 70 bd 7b 17 4e 3e fc 90 50 3e
       0.32889995 -0.058783885 0.20126145 0.20367807
000120 67 f7 cd 3c 66 0e 05 3e c4 65 9d 3e e2 2d ab bd
       0.025142385 0.12993774 0.30741704 -0.08358361
000130 f5 70 b0 be b3 d3 8d 3e f3 6a 2f be aa 35 b6 bd
       -0.3446118 0.27700576 -0.17130642 -0.08896954
000140 15 7d 9d 3e 3c 09 19 3e 8b f7 96 bd ad 84 43 3e
       0.30759493 0.14944929 -0.07371434 0.1909358
000150 ed 79 3c bd a5 6a 7a be c3 3d 4d bd c2 81 4b 3e
       -0.046014715 -0.24454744 -0.05010773 0.19873717
000160 df e8 35 3e 59 81 7f 3e 0a 72 5b be c3 a2 59 3c
       0.17764615 0.24951686 -0.21430221 0.013283434
000170 47 d5 5d be c5 fd 9d 3e 90 89 a3 be 76 a5 6f be
       -0.2166339 0.30857673 -0.3194089 -0.23402962
000180 c6 88 61 be 8d c3 33 3e e3 2b a1 3d ed c8 c1 bd
       -0.22024831 0.17555065 0.07869699 -0.09462152
000190 9b 18 68 be 58 60 97 3d 82 cc 84 3e 81 4b ad 3d
       -0.22665636 0.07391423 0.25937277 0.08461667
0001a0 55 f5 8d 3e 3a d3 19 be a3 fa a1 be 5d f1 21 3e
       0.27726236 -0.15021983 -0.31636533 0.15814729
0001b0 b9 e9 96 be 1d 35 72 3e 5f d1 41 bd 20 96 9d 3e
       -0.2947519 0.23653074 -0.047318812 0.307786
0001c0 4e 83 3d 3e ba 29 85 3d a3 00 40 3e 7f 37 9c 3e
       0.1850712 0.06502099 0.18750243 0.3051109
0001d0 6d d2 2c 3e 11 15 ee 3d 3b 8a 0b be 48 64 a9 3e
       0.16877146 0.11625112 -0.1362695 0.3308432
0001e0 6d 75 07 be 35 80 9b 3e 20 ed 28 be 71 c9 6f 3c
       -0.13228388 0.30371252 -0.16496706 0.01463543
0001f0 52 86 06 be 3f 61 b4 bd 01 fe 57 3d 4c 4e 9f 3e
       -0.13137177 -0.08807611 0.05273247 0.31114423
000200 0a 21 df bd 57 aa 9c 3d 6b c7 76 be dc 34 93 3e
       -0.108949736 0.07649677 -0.2409951 0.28751266
000210 69 7d 25 3e 8a ec a9 3e d2 35 a9 3e ed 2c ab 3e
       0.16161121 0.33188277 0.33048874 0.33432713
000220 18 d0 12 3d c3 2d 98 be 70 c1 64 bd 2d 95 20 be
       0.035842985 -0.29722413 -0.05584854 -0.15681906
000230 c0 5a 14 3c 01 ff a7 3e 60 20 fc 3c ed 20 92 3e
       0.00905484 0.3281174 0.030777156 0.28540745
000240 84 89 83 3e 53 22 0f 3e c1 db 0a 3e 9b c5 3c 3e
       0.25690854 0.13977937 0.13560392 0.18434756
000250 77 96 98 3e b8 be 16 be 1d cd 2c 3e 7b e5 a0 3e
       0.29802296 -0.14721191 0.1687512 0.3142508
000260 24 1a fc 3d d9 4e 72 3e 17 c2 6d 3e 20 81 71 be
       0.123096734 0.2366289 0.2321857 -0.23584414
000270 d5 12 b2 3e 36 13 b5 3d 46 a3 77 bd fb 80 96 be
       0.34779993 0.08841555 -0.060458444 -0.2939528
000280 ce f2 9d bc d1 bd 99 3d a5 bd 45 3c 6a 32 b4 3e
       -0.019280817 0.07506908 0.012069141 0.35194713
000290 84 4a c7 3d 12 c2 17 bc 1b 35 a7 3e 3f ad 1d be
       0.097310096 -0.009262579 0.32657704 -0.1539812
0002a0 20 d8 9c 3e c2 3b ac 3d e5 66 9d 3e fc e9 1a 3e
       0.3063364 0.084098354 0.30742565 0.1512832
0002b0 21 8d 84 3e 6e 9f a8 3d db 6d 40 be 26 21 8c be
       0.25888923 0.08233534 -0.18791907 -0.2736904
0002c0 ef ae 8c 3d 4e 05 86 be 18 a0 98 be 84 c4 15 bd
       0.068693034 -0.26175922 -0.29809642 -0.036564365
0002d0 86 4f 2a 3e 10 80 7b 3e 66 19 83 be dd 35 0e be
       0.16631898 0.2456057 -0.25605315 -0.13887735
0002e0 04 75 3b be 94 ca cf bd 7e 20 e2 bd 28 5a 67 3d
       -0.18306357 -0.101460606 -0.11041354 0.056482464
0002f0 68 ca 8b bd 9f e4 1d be b0 37 3b be f0 7a 91 bd
       -0.06825715 -0.15419243 -0.18282962 -0.071035266
000300 51 a0 fc 3d 49 e5 32 be 09 b8 ac 3e ad 9a d7 3d
       0.123352654 -0.17470278 0.33734158 0.10527549
000310 b4 7b 9e be 2c 93 93 3d de af a2 bd 57 79 28 be
       -0.30953753 0.07205805 -0.079437 -0.16452537
000320 42 5b 88 3e df 58 a1 be 16 e1 f6 3c cc 5d a2 be
       0.26632124 -0.31513116 0.030136626 -0.31712186
000330 df e1 a9 be 40 49 9e 3e b6 fc 98 be dd 4a 03 be
       -0.33180138 0.3091526 -0.29880303 -0.12821527
000340 33 3a 34 be d1 db a4 be ec cb c5 3d b3 9b 9c 3e
       -0.17600326 -0.32198957 0.09658036 0.3058754
000350 ba 5e 84 be 2e a9 23 be 70 fa 00 3d 96 5f 0e 3e
       -0.2585352 -0.15982506 0.031488836 0.1390365
000360 ce 0b 8b be 44 c5 8e be 7f 0d 8b 3e 96 43 6e bd
       -0.27157444 -0.27884877 0.27158734 -0.058169924
000370 7b 3d 93 be 2e ba b1 3e 06 86 82 3e b8 8a 92 3e
       -0.28757843 0.34712356 0.25492877 0.2862146
000380 26 6e c0 bd 20 28 99 be ca 9d 05 be 4b bd 57 be
       -0.09396009 -0.29913425 -0.13048473 -0.21068303
000390 8e 1a 60 3e d9 79 3a 3e 20 fb 8f 3e 49 3d bb 3d
       0.2188513 0.18210544 0.2812128 0.091425486
0003a0 21 cf 52 3e 10 d8 61 3e 25 3e 3d 3e 15 61 e1 bd
       0.20586826 0.22055078 0.18480738 -0.11004845
0003b0 01 77 3e 3e b6 5d 99 3e 5c 5e 96 3e 46 e1 50 3d
       0.18600084 0.29954308 0.29368865 0.050996087
0003c0 27 7b e7 bd ff 96 68 be 94 6b 3d bc cb a3 16 3d
       -0.11302786 -0.2271385 -0.011561293 0.0367773
0003d0 c2 26 2b be 8a 42 aa be cb 7e 08 bd 2f 7b ae be
       -0.16714004 -0.3325389 -0.033324044 -0.34078357
0003e0 b4 26 db 3d b6 8b ab 3e 72 4f 82 3e 29 5e 25 be
       0.107007414 0.33505028 0.25451237 -0.161492
0003f0 36 16 7f 3e a5 d3 11 be 12 c5 93 3e 4c 36 41 3e
       0.24910817 -0.14240892 0.2886129 0.18868369

fc1.bias f4 [512]
000000 b9 42 a5 be 71 10 b4 be e3 fd 97 3e b7 ea 46 3d
       -0.32277468 -0.35168794 0.29685888 0.048563685
000010 24 56 03 3e 8d c1 63 3e 15 95 f3 3b 96 2d e8 3c
       0.12825829 0.22241803 0.0074335434 0.02834205
000020 ee df 81 3e bb 42 8b be 23 9b 5d be 9c 68 a6 3e
       0.25366157 -0.2719935 -0.21641211 0.32501686
000030 02 f1 2e be 6b 98 06 3e bd b0 8c be 9b f9 48 bd
       -0.17084125 0.1314408 -0.2747859 -0.049066167
000040 12 9b d9 bc 56 67 83 be 15 fb 8c be f6 ff 5d 3e
       -0.026563201 -0.25664777 -0.2753531 0.21679673
000050 21 46 a1 3d 93 a7 8b bd 79 f7 07 3e 59 5a ac be
       0.07874704 -0.068190716 0.13277997 -0.3366268
000060 4d 81 aa 3c 88 0e f6 bd 41 ad ab be 52 4b ac 3e
       0.020813609 -0.1201449 -0.3353062 0.33651215
000070 32 cc ae 3d c6 40 2e 3e 92 47 6f 3e 44 32 ab be
       0.08535041 0.17016897 0.23367146 -0.33436787
000080 41 0f 51 3e 1e e4 80 bc 95 17 6e bd 45 62 53 3e
       0.20415975 -0.015733775 -0.05812796 0.20642956
000090 4f a8 7f be a2 34 16 3e 1a 4d cd bc ba a0 67 bd
       -0.24966548 0.14668515 -0.025061179 -0.056549765
0000a0 43 ac 6b be b8 39 83 bd 2e cf 1e 3e 61 2b 36 3e
       -0.23014931 -0.06407493 0.1550872 0.17789985
0000b0 18 75 c6 3c e7 44 a2 3e cb cf 20 3e ac 35 72 be
       0.024225757 0.31693193 0.15704267 -0.23653287
0000c0 58 0c 7a be a8 c5 4a be 1e 3d 2f be 5a 45 91 be
       -0.24418771 -0.19801962 -0.17113158 -0.28373224
0000d0 c6 06 54 be f4 40 30 3e 32 e3 9e 3e 6e 42 a7 be
       -0.20705709 0.17212278 0.3103271 -0.3266787
0000e0 e1 cc 12 be 5d a9 c6 3d 5a e5 81 be 69 9c ac bd
       -0.14335968 0.09700272 -0.25370294 -0.0842827
0000f0 5d 85 81 be 51 44 4f be 45 74 60 3c b0 27 0d be
       -0.2529706 -0.20240904 0.013699596 -0.13784671
000100 87 05 7d be e8 8a f2 bd 3a d4 ef bd 20 e4 13 bd
       -0.2470914 -0.118429005 -0.11710401 -0.03610623
000110 9a 63 a1 be e9 67 df bd e9 3d 9f bd bb 33 bc 3d
       -0.31521302 -0.10908491 -0.0777548 0.09189554
000120 35 a7 99 3e f5 f8 4b 3e d1 d6 a6 3e 04 1a 40 be
       0.3001038 0.19919188 0.32585767 -0.18759924
000130 8f d5 22 be 95 21 27 be d6 3b 2b be 04 66 38 be
       -0.15901779 -0.16321404 -0.16722044 -0.18007666
000140 30 d4 75 3d 46 55 91 be 09 df 16 3d 29 5b 45 3e
       0.06001681 -0.2838537 0.036833797 0.19273056
000150 30 91 50 3e 7a e2 34 3c 5b 80 20 3c 44 3d 91 be
       0.20367885 0.011040324 0.009796227 -0.28367054
000160 b8 ea ac bd 7c 96 25 bd ee 32 8e be 69 67 66 bd
       -0.084432065 -0.040426716 -0.2777323 -0.056250963
000170 1c 19 3b be e3 f2 e1 bd c1 1f 8f 3e 30 b5 31 bd
       -0.18271297 -0.11032655 0.27953914 -0.043385684
000180 ab f8 50 be 97 55 b5 bb 72 1f 67 be 6c 8e 91 be
       -0.2040736 -0.0055338847 -0.22570589 -0.28428972
000190 29 da 07 3e 4e 37 9a 3e eb 4c 17 bd 8f e0 5d 3e
       0.13266815 0.3012032 -0.03693859 0.21667694
0001a0 60 84 b7 3c 43 05 5c bb b4 90 66 3e 79 3a 68 be
       0.022401989 -0.0033572472 0.22516137 -0.22678556
0001b0 c8 7a 80 3e 98 34 a9 3e 1b a7 b0 3e fd 42 19 bc
       0.25093675 0.33047938 0.3450249 -0.00935435
0001c0 58 47 fa 3d bd d8 01 3d 2e 65 02 be 74 7d 2f 3e
       0.12220639 0.03170084 -0.1273391 0.171377
0001d0 7f c1 a0 3e 10 99 06 3e f5 76 a9 3e 3d bd 38 be
       0.31397626 0.13144326 0.3309857 -0.18040939
0001e0 a9 c8 84 be 0a 49 32 3e f3 39 5b be b7 40 6b be
       -0.25934342 0.17410675 -0.21408825 -0.22973906
0001f0 21 1d ce bd bb b4 c3 3d 33 ea 9e be 5d b5 93 be
       -0.1006415 0.09555956 -0.31038055 -0.28849307
000200 fd 6f 73 3d 18 48 69 be bd 06 92 bd 88 14 81 3d
       0.059432972 -0.22781408 -0.071301915 0.06302744
000210 ed bb 95 3e ec c3 ad be 99 9a 05 3e 0f 54 12 3e
       0.29244938 -0.3393854 0.13047256 0.14289878
000220 97 7a 96 3e 48 81 58 bd 00 6a d3 bd 56 b3 60 bd
       0.29390404 -0.052857667 -0.10322952 -0.054858528
000230 a0 f0 91 3c fd 1b 0d 3c 25 31 bf bc 12 4d 95 3e
       0.017814934 0.00861263 -0.023338864 0.29160362
000240 27 dd 8e be cd bf b2 bd 02 0d 97 be d2 1e 69 be
       -0.279031 -0.08727989 -0.29502112 -0.22765663
000250 01 60 e7 bd cf 53 83 be cf ba 27 be 6d 58 ed bc
       -0.11297608 -0.25649878 -0.16379856 -0.028972829
000260 f3 19 64 3e d2 54 95 3e 5c 91 8a be 42 88 ad 3e
       0.22275524 0.29166275 -0.27064025 0.3389302
000270 0d 23 36 3e d2 c3 af be 5c 60 26 3e 48 e1 00 be
       0.17786808 -0.34329087 0.16247696 -0.12585938
000280 ae 33 92 be dc b9 ab 3e ed 8a 11 be da f1 37 bc
       -0.28555053 0.33540237 -0.14213152 -0.0112270955
000290 91 d0 19 3c da f3 95 3e d7 1d 80 3e 9e b7 82 be
       0.009388105 0.29287606 0.25022766 -0.25530714
0002a0 c9 4d 86 3d dd 0f 20 be 50 95 de 3c be 73 72 bd
       0.06557805 -0.15631051 0.027170807 -0.05919241
0002b0 f2 33 80 bd 57 eb 66 be f8 b7 74 3e 45 16 b1 3e
       -0.06259908 -0.22550713 0.23898304 0.34587303
0002c0 d9 c2 b4 3c 14 c7 a5 be fe 34 12 3e d3 fa 68 3e
       0.022065567 -0.32378447 0.14278027 0.22751932
0002d0 e1 8e 0f be a2 97 bf 3d 16 cd 3d be 50 3b ee 3c
       -0.14019348 0.093550935 -0.18535265 0.029081017
0002e0 b7 fa 4c bd 17 56 4c 3e ee 88 91 3e a1 ba bf 3d
       -0.050043788 0.19954716 0.28424782 0.093617685
0002f0 4b 6d 6b 3e 9b 71 56 bd a2 69 b1 be 4a cb 54 3e
       0.2299091 -0.052354436 -0.34650904 0.20780674
000300 c4 97 26 be f3 1f 51 be 80 4e 1b 3d 74 36 0e 3e
       -0.16268831 -0.20422344 0.03791666 0.1388796
000310 e8 b6 93 3e 4d 09 73 3e ce d6 40 3c fb 91 99 3e
       0.28850484 0.23734017 0.011769963 0.29994187
000320 1d 4f 70 3e 78 96 86 3e 5e c7 24 be d8 f6 72 bd
       0.2346768 0.26286674 -0.16091678 -0.05931744
000330 61 33 ba bd fc e9 50 3e cc b9 9b be eb c6 f6 3d
       -0.09091831 0.20401758 -0.3041519 0.12049659
000340 cc 6d 21 be 37 f8 46 be 63 5a 9a bd a6 03 97 3e
       -0.1576454 -0.19430624 -0.07536771 0.2949497
000350 49 bd 96 bd 6f f0 61 bb 62 74 ac bd 6e 54 ab 3e
       -0.07360322 -0.0034475585 -0.08420636 0.33462852
000360 6d fc 31 3e 41 fa ee ba 89 db 6b 3e 2a 9c 97 3d
       0.17381449 -0.001823254 0.23032965 0.07402833
000370 ad 8a 9c bd 06 9c 8f 3e 80 3c 13 3e 28 ca a7 3e
       -0.07643638 0.28048724 0.14378548 0.3277142
000380 69 d2 ab 3e 5e 8b 64 be 37 a9 8d be a0 a8 2b 3e
       0.33558968 -0.2231879 -0.27668163 0.16763544
000390 57 d0 60 3e 38 54 6e be a7 a9 17 be f2 f4 ac be
       0.21954475 -0.23274314 -0.14810811 -0.33780628
0003a0 f3 8b 0d bd 40 65 46 3e 9d 97 01 3d e2 6c a4 be
       -0.034557294 0.19374561 0.03163873 -0.3211432
0003b0 45 3b a3 3e 16 b4 00 3e 20 f0 b2 bd 38 09 2e be
       0.31881157 0.12568697 -0.087372065 -0.16995704
0003c0 89 4c 4c bd d8 d3 8c be 15 50 38 3e 9d df 92 be
       -0.049877677 -0.27505374 0.17999299 -0.28686228
0003d0 c9 b7 13 3e 32 67 55 3e f5 cc 47 be 65 3d 0f bd
       0.14425577 0.20840147 -0.19511779 -0.03497066
0003e0 37 86 84 be 4e c8 c8 3d 7f 25 22 3e 67 95 b1 3e
       -0.25883648 0.0980383 0.15834616 0.34684297
0003f0 05 68 89 be a7 8a 34 be 09 23 11 3e f6 9d 68 3e
       -0.26837173 -0.17631017 0.14173521 0.22716507

fc2.weight f4 [256, 512]
000000 12 21 a3 3c e6 15 23 bd 7b 38 0f bd 83 bd 9b bb
       0.01991323 -0.039815806 -0.034965973 -0.004752816
000010 03 17 e2 3c 64 3e 87 3c 2c ef 00 3c 63 72 ad bc
       0.027598863 0.016509242 0.007869523 -0.021172708
000020 72 e8 36 bc ba 81 03 3d b5 e1 54 bc 3e 7d 91 3b
       -0.011163818 0.03210614 -0.012993266 0.004439979
000030 c5 3d 0b bd a3 37 61 3c 67 8d 0c bd 46 e0 1d 3d
       -0.033994455 0.013746175 -0.03431454 0.038543962
000040 24 b5 dd bb 64 e2 11 bd bd b5 41 bc 56 be a6 bc
       -0.0067659784 -0.035616294 -0.011823115 -0.020354431
000050 13 29 17 bd 41 4e 7b 3b 28 d8 21 3d 7c 2f 60 3c
       -0.036904406 0.0038346204 0.039512783 0.013683196
000060 81 7e 38 3c 37 a3 bc bc 08 a9 e7 3b 39 68 0d bd
       0.01126063 -0.023027046 0.0070697106 -0.034523223
000070 2c bc bf 3c 95 be af bc 18 1d ab bc 1b d4 ab 3b
       0.023405157 -0.021453181 -0.020887896 0.005243791
000080 d3 94 8a 3c e2 ea 08 bd b1 bc b1 3c f7 73 24 3d
       0.016916668 -0.033427127 0.02169642 0.040149655
000090 db 15 be 3c da c5 c1 bc 6b ee 18 bd a7 06 9c 3b
       0.02320378 -0.023653913 -0.037336748 0.004761535
0000a0 10 91 71 3c 72 3f 0b bc 7a 71 20 bd 21 b7 cc bc
       0.014744058 -0.008499013 -0.03917072 -0.024989666
0000b0 e7 50 01 bd b0 74 55 bc 98 e2 b1 3c cf 57 43 3c
       -0.031571295 -0.013028309 0.021714494 0.011922791
0000c0 0f 76 dc bc 4c a4 cd 3b 23 d9 13 bd 8c 0b 2b bd
       -0.026911763 0.006275689 -0.03609575 -0.04175906
0000d0 64 86 15 bd 96 ac 02 3d 75 24 95 3c 1f b7 18 3d
       -0.036505118 0.031902872 0.01820586 0.037284013
0000e0 22 8e 1e 3c 81 ad 3e ba 39 a0 b1 3b 85 f8 58 bc
       0.009677442 -0.0007273779 0.0054207114 -0.013242845
0000f0 12 32 2d 3c 7f 4d 32 bd c0 1e 72 bc 7e 0d 01 bd
       0.01057102 -0.043530937 -0.014777839 -0.031507008
000100 e8 ce 00 3d 76 77 89 3c 25 05 47 bb 74 16 6d bc
       0.03144732 0.016780596 -0.0030368057 -0.014470685
000110 25 59 d9 bc 4d cb c2 3b ca 13 ab 3b 04 aa fd 3b
       -0.026531765 0.0059446455 0.005220865 0.0077412147
000120 43 cb 0e bd ce 60 7e 3a 7b d2 18 bb 68 91 54 3c
       -0.034861814 0.0009703756 -0.0023318816 0.012974121
000130 4a 68 3c 3c 1a c3 2c bd f0 5d 66 3b 92 4b 29 3c
       0.011499474 -0.04217825 0.0035151206 0.010332959
000140 25 95 a7 bc e9 f6 ad 3c f9 a5 32 bd fe 49 e0 bc
       -0.02045686 0.0212359 -0.043615315 -0.027379032
000150 cf 4d e9 bc 54 83 2b bd 45 2f 87 3b 60 74 08 3c
       -0.028479485 -0.04187329 0.004125508 0.008328527
000160 c0 13 51 bb 99 cb 2f bd cd fb db 3c 27 11 01 bd
       -0.003190264 -0.042918775 0.026853466 -0.0315105
000170 03 0b 04 3d ac 1c 03 bc 9b 50 c2 bc 4b 5b b3 3c
       0.032237064 -0.008002441 -0.023720076 0.021894118
000180 d1 e8 6e bc e0 06 24 3d aa 14 d5 3c 00 5f 09 39
       -0.014581875 0.04004562 0.02601083 0.00013100728
000190 dc 9d 9c bb a1 99 84 bc cf 86 46 3c e0 aa 0a bc
       -0.0047795605 -0.016186537 0.012117102 -0.008463591
0001a0 ca 28 01 3d 44 1f bd bc 6b 4f bc bb 26 49 a3 3b
       0.03153304 -0.023086198 -0.005746772 0.004983085
0001b0 e7 04 1e bd 68 6f 1f 3d d5 43 bb bb e3 8a a4 bc
       -0.038578894 0.038924605 -0.0057148733 -0.020085758
0001c0 57 cc ba bc f1 2c 21 bc 42 cd 27 ba f1 b0 e3 3c
       -0.022802515 -0.009837375 -0.000640113 0.027794333
0001d0 94 bf d6 bc 84 b8 a8 bc 95 b2 20 3d 17 39 22 bd
       -0.026214398 -0.020595796 0.03923281 -0.039605226
0001e0 00 2f 80 3c 81 17 f7 bb 07 41 c9 bc 1c d5 9f bc
       0.015647411 -0.0075406437 -0.02456714 -0.019510798
0001f0 06 6b f2 bc 39 6d 8a 3c b0 e5 06 3b cf a8 71 3c
       -0.029592048 0.016897785 0.0020583682 0.01474972
000200 db e7 0f 3c 34 23 77 bc 50 5c 2f 3c e4 64 2f 3d
       0.008783306 -0.015084077 0.010703161 0.042820826
000210 e6 8a 87 3b 80 0c 90 bc bf 59 a7 bc 7e 7e 2a 3d
       0.004136431 -0.017584085 -0.020428536 0.04162454
000220 55 c8 ac bc 55 1d 00 3d fb 79 08 3c 92 52 00 3b
       -0.02109162 0.031277973 0.008329864 0.0019580466
000230 68 75 66 3c 55 8d 02 3d d2 86 ea 3c 48 13 13 bd
       0.014066078 0.031873066 0.02862874 -0.03590706
000240 84 82 6c 3c 62 3c 9b bc e9 59 69 bb aa 48 a1 3b
       0.014435414 -0.018949691 -0.003560657 0.0049219923
000250 1f cc c7 bc 4a 2a b0 ba 56 20 82 bc 75 c0 e7 3c
       -0.024389325 -0.0013440337 -0.01588456 0.028290013
000260 31 25 b5 bc a8 47 55 bc 20 8d 99 bc 4e cf dc 3c
       -0.02211246 -0.013017572 -0.018744051 0.02695432
000270 e5 56 a3 bc 75 9b 08 bd 54 31 4a bc 2d 1f 0f 3d
       -0.019938895 -0.03335138 -0.012340862 0.03494184
000280 c6 8d d5 bc 4e 21 a7 bc d4 02 cc bc 07 69 96 3c
       -0.02606858 -0.020401623 -0.024903692 0.018360628
000290 03 9b 8c bb 7d ee 1f bd eb 63 77 bb 49 05 24 bc
       -0.00429094 -0.0390458 -0.0037748765 -0.010011026
0002a0 2c 49 25 3d 50 6d 8a bb c3 2a 6d bb cd 25 00 3d
       0.040352985 -0.004224457 -0.0036188818 0.03128605
0002b0 bc 19 4e bc 89 20 bc bc 5a 57 ed bc ac 90 17 bd
       -0.012579378 -0.022964733 -0.028972317 -0.037003204
0002c0 77 1b b5 bc a0 1d cb bc d9 e1 94 38 0e c9 2f bd
       -0.022107823 -0.0247944 7.099257e-05 -0.04291635
0002d0 69 aa 17 3d 29 ca e6 3c 6d fc 0f bd 00 64 f3 b8
       0.03702775 0.02817257 -0.03515284 -0.000116057694
0002e0 a9 ff 61 3c a3 27 25 bc 66 0b 91 3c 08 3e 10 bd
       0.013793864 -0.010080251 0.01770563 -0.035215408
0002f0 e5 80 14 bc 69 14 f0 bc 52 72 88 3c 06 c3 e3 3b
       -0.009063934 -0.029306607 0.016656075 0.006950739
000300 9d 18 01 3d 40 4b 34 3b b8 96 82 bc 02 04 87 3c
       0.031517614 0.0027510673 -0.015941009 0.016481403
000310 cb eb 23 3d 61 8e 19 bc f1 b5 c7 bc b7 21 c2 bc
       0.04001979 -0.009372325 -0.024378749 -0.023697717
000320 0d 1d c6 3c 58 16 2a 3d 65 5a 05 3d e8 15 1b 3d
       0.024183774 0.041525215 0.03255691 0.03786269
000330 9e 47 e9 3c 9b e7 2f bd 98 bb 2a bd f2 0f db 3b
       0.028476533 -0.042945486 -0.04168281 0.0066852504
000340 cc 82 f9 3c 19 db 9b 3c 27 d5 1d 3d 45 ab c6 3a
       0.030457877 0.019025372 0.038533356 0.0015157243
000350 df 28 27 3d b7 8d a1 3c 0c 24 ff bc 57 b6 f5 bc
       0.040810462 0.019720895 -0.031145118 -0.029994173
000360 cc 37 b9 3b 34 8b b0 3c 96 40 1c bd 85 c2 cf 3c
       0.0056524035 0.021550752 -0.03814753 0.025361309
000370 2a bb ef bc 73 c9 e8 bb 80 7c 79 3c b6 a4 e1 bc
       -0.029264051 -0.0071040927 0.015227437 -0.02754436
000380 46 06 12 3d c9 04 2e 3d ea fd c5 3c 9d 65 bc bc
       0.035650514 0.042485032 0.024168927 -0.022997672
000390 ff 07 b5 b9 6a e5 2f bd 9e 52 c4 3c b7 b5 90 3c
       -0.00034528968 -0.042943396 0.023965176 0.017664773
0003a0 70 07 05 bd 76 48 9a 3b 1f 2a 96 3c 78 bf a0 bc
       -0.032477796 0.004708345 0.018330632 -0.01962255
0003b0 84 f5 ac bb 06 36 f6 3c 9a fb 83 3c 30 49 4f 3b
       -0.005278291 0.030055057 0.016111184 0.0031629317
0003c0 ab e8 23 3d fe a2 dd 3c 8c e5 10 bb f1 06 0d 3d
       0.04001681 0.02705526 -0.0022109477 0.034430448
0003d0 9b 0f 3f bc 44 a2 b4 3c 9e ab a4 3c 26 b3 27 3c
       -0.0116614355 0.02205003 0.020101365 0.010235583
0003e0 f6 2a 36 bc 0b ab d9 3b aa a2 2b 3d 4e 44 73 3c
       -0.011118641 0.0066427044 0.041903175 0.014847828
0003f0 3e 7e bf 3c a3 01 e9 bc e6 13 14 bd 5d 86 ff 3c
       0.023375627 -0.028443163 -0.03615179 0.031192

fc2.bias f4 [256]
000000 a3 c3 93 bc d1 cc 1f 3d d5 1f 8f bc ac c0 f7 3a
       -0.018037623 0.039013688 -0.017471233 0.0018902025
000010 7d 87 d2 bb 5f 0d 1b bd dd 01 08 bc 9d 0f 0e 3d
       -0.006424843 -0.03785455 -0.0083012255 0.03468286
000020 86 1a a8 3c e5 e2 0d bd a5 54 0b bd 9a 9f db 3c
       0.02052046 -0.03464021 -0.03401627 0.026809502
000030 45 96 4f bc da 24 05 3d 0d 19 b8 bc 60 90 88 bb
       -0.012670104 0.032505848 -0.022472883 -0.0041676015
000040 ec 0b 0d 3d 03 4d 82 3c ed fe bd bb 9b 6d a0 3a
       0.034435198 0.015905863 -0.005798212 0.0012239696
000050 5d 71 ce 39 52 f5 4e bc 88 b8 61 3c 9d b4 dc 3c
       0.00039375844 -0.012631731 0.013776906 0.026941592
000060 0c b2 30 bd c0 b4 ff 3c 16 79 b1 ba 94 7f e5 3c
       -0.04313855 0.031214118 -0.0013540115 0.028014936
000070 28 1b 13 3d f8 3f 04 3d 3c 60 a5 3c d5 d2 8f bb
       0.03591457 0.032287568 0.02018749 -0.004389147
000080 10 ce 5f 3c aa 9f 0e 3d f7 25 2d 3c fa 32 2b bd
       0.013659969 0.034820236 0.010568134 -0.041796662
000090 49 b2 d9 3c 04 9b b9 bc 6f 54 a0 3c a1 51 7c 3b
       0.02657427 -0.022656925 0.019571511 0.0038500803
0000a0 e4 b5 67 3c 0c cf 35 bd a6 50 09 3d 9b 2a 2a bd
       0.014142487 -0.04438691 0.033524178 -0.041544538
0000b0 a9 c6 af 3c 60 bb 6c 3c 4e 1e bf 3c c5 d7 c6 bc
       0.021457033 0.014448971 0.02332988 -0.024272809
0000c0 5a b7 19 3d 10 ce f4 bc 3f a0 7d bb fa eb 76 ba
       0.037528373 -0.029883415 -0.003870025 -0.00094193185
0000d0 f4 6e 30 bc 1d d2 39 bc 52 02 9a 3c 4d 0e 5f 3c
       -0.010768641 -0.011341599 0.018799935 0.013614249
0000e0 de 40 13 bd b7 1b 4f 3c 0a 3a c7 bc c1 aa 1c bd
       -0.035950534 0.012640885 -0.024319667 -0.03824878
0000f0 1f 19 77 bb 4a 1d 00 3d 1d 48 0e 3d a1 49 fc ba
       -0.0037704182 0.031277932 0.03473674 -0.0019248017
000100 2f 72 26 bd 22 08 85 bc 14 e7 e6 3c cf 6e 87 bc
       -0.040636238 -0.01623923 0.028186359 -0.01653233
000110 1c 11 47 3c 4e 35 45 3a ba 84 1c 3d 7d 2c 22 3d
       0.012150075 0.00075228966 0.038212515 0.03959321
000120 26 75 dc bc cc b4 5d bc 03 3c 84 bc 51 eb 2a 3d
       -0.02691133 -0.013531875 -0.016141897 0.04172832
000130 77 ae 61 3c a2 7d af 3b 0d fc 99 3c aa 35 04 3d
       0.013774506 0.005355553 0.018796945 0.03227774
000140 49 31 19 bd 2d f1 0a 3c d4 d1 d9 3b f0 81 22 bd
       -0.037400518 0.008480352 0.006647328 -0.0396747
000150 eb 6f 62 bc 6b e8 0d bd 3f 42 82 bc f7 b2 0a 3d
       -0.013820629 -0.03464548 -0.01590073 0.03386208
000160 4b fb 43 3c 0f 62 02 3d 7a 5e 25 bd 1b ad 32 bd
       0.011961768 0.031831797 -0.040373303 -0.043622117
000170 ca b6 cb 39 cf d0 32 3c da bc a8 bc 99 db d3 bc
       0.00038855366 0.010914042 -0.020597864 -0.025861548
000180 d4 60 16 bc 5a 63 1a bd 45 65 1f bd 8a 26 96 3c
       -0.009178359 -0.037692405 -0.038914938 0.018328924
000190 bf ee 02 3d 7a 17 9b bc c3 ac 20 bd 32 9c 2d bd
       0.031965967 -0.018932093 -0.03922726 -0.042385288
0001a0 cb f1 d5 3b 4b 3f ee 3c 37 c9 08 3d e0 68 d0 3c
       0.006529068 0.029082915 0.03339502 0.025440633
0001b0 59 d4 30 bd 93 93 1d 3d 02 97 29 bd 25 00 4f 3b
       -0.04317126 0.038470816 -0.041403778 0.003158578
0001c0 70 16 d7 3c d8 5d 32 3d 8e 75 21 3d 8e 1b ab 3b
       0.026255816 0.043546528 0.03941875 0.0052217906
0001d0 28 19 1c bd fe 13 91 3c ed c1 1e bb 5e 3e 22 bd
       -0.03810993 0.017709728 -0.0024224475 -0.03961026
0001e0 07 0f 34 3b 5c b2 68 3c ab f8 04 bd 7e 48 a6 bc
       0.0027474777 0.01420268 -0.03246371 -0.020298239
0001f0 bc 9b 07 3d fa aa 6f bc c8 ca a4 bb cf 05 18 bd
       0.033107504 -0.014628166 -0.005029056 -0.037114915
000200 77 ec 16 3d 6e 52 e5 bc b7 26 46 3c 36 e4 60 3b
       0.036846604 -0.027993407 0.012094191 0.0034315712
000210 25 79 2a 3d c8 79 2a bc b5 70 09 bd b8 6d 1a bc
       0.04161944 -0.0104050115 -0.03355475 -0.009425573
000220 77 7b 23 bd d0 f5 97 bc 1b a5 58 3c 41 36 e2 ba
       -0.039912667 -0.01854983 0.013222958 -0.00172586
000230 ec aa 25 3d bc 55 ff bc bd 7e bf bb 74 5b c2 bc
       0.040446207 -0.031168811 -0.005843966 -0.023725249
000240 e2 d4 ae 3c 4a 28 99 3c 99 63 08 3d 96 a2 07 bd
       0.021341745 0.01869597 0.03329811 -0.03311404
000250 92 03 be 3b 7d 4c 09 3d 4a 37 eb 3c 89 d2 f0 3c
       0.0057987655 0.03352021 0.028712887 0.029397266
000260 cd 5e ae bc c0 a7 0d bd 1b 3d dd bc ee 7d 74 bb
       -0.021285439 -0.034583807 -0.027006676 -0.0037306505
000270 85 98 7c bc fc c8 11 bd c0 2e 6e 3c 5b 78 dc bc
       -0.015417223 -0.035592064 0.014537513 -0.026912859
000280 91 09 ce 3c 6b 6f 17 bd a8 d8 f7 bc 04 dc cd bc
       0.025151046 -0.03697149 -0.030254677 -0.025129326
000290 1a 3e 1e 3d 2e 32 ac bb de bf 1c bd 6f 7a 82 bc
       0.038633443 -0.0052550053 -0.038268916 -0.015927522
0002a0 99 4f 31 3c 37 a8 ac bc bf 9e 7a bb 6c 66 5c bc
       0.0108222 -0.021076305 -0.0038241593 -0.013452154
0002b0 ea d4 83 ba 6b bc 75 bc 9b 09 b2 3c d8 ab 31 3d
       -0.001005796 -0.014998536 0.021733096 0.043376774
0002c0 4a 63 76 bc 18 4d 9b 3c 8e f6 98 bc cf 84 57 b8
       -0.015038321 0.01895766 -0.018672254 -5.1383682e-05
0002d0 e6 5e fa bb 41 7a e2 bc 10 ce 34 3b 13 37 91 bc
       -0.0076407073 -0.027646186 0.0027588643 -0.017726457
0002e0 86 57 1d bb bc b6 ef 3c 04 cf a6 bc e5 a0 01 bc
       -0.0024008467 0.02926194 -0.020362385 -0.007911895
0002f0 3e 14 ec bb c3 f5 b8 bb bd 4a b3 3a ad a0 cf 3c
       -0.0072045615 -0.0056445315 0.001367889 0.02534517
000300 c1 22 25 3d 2f dc 21 3d 7a 5f d5 bc 53 6b 9f bc
       0.040316347 0.039516624 -0.026046503 -0.019460356
000310 63 0d b3 3c 25 42 2c bd 56 a7 20 bd 14 43 1c bc
       0.02185697 -0.042055268 -0.039222084 -0.009537477
000320 25 be 1b 3d be ee 0e 3d 12 ab 04 3d 88 7a ca bc
       0.038023133 0.03489565 0.032389708 -0.02471663
000330 de 81 65 b9 42 a6 5f bc a3 c6 c5 bc e1 81 83 3c
       -0.00021887521 -0.013650479 -0.024142569 0.016053142
000340 98 e3 20 3c a6 60 f8 bc 1b 82 a7 3c f3 16 23 3c
       0.009819888 -0.030319523 0.020447781 0.009954202
000350 b6 24 2a 3d 1f 8c 11 3d 42 df 2e bd 94 86 d9 bc
       0.041538917 0.03553402 -0.042693384 -0.02655343
000360 c1 30 f4 3b 45 6a 33 bd 0e 6b 18 bd 05 cb a3 bc
       0.007452101 -0.04380252 -0.03721147 -0.019994268
000370 65 72 69 bc d3 6f 28 3d d0 33 d4 3c 84 95 94 bc
       -0.014248465 0.04112227 0.025903612 -0.0181377
000380 ce b2 09 bd f9 c8 45 3c c3 d7 99 bc 9c 39 c7 bc
       -0.033617787 0.012071841 -0.018779641 -0.024319462
000390 87 7c 1c 3d d9 9e 1e bd c0 7f c7 3c c4 18 f7 3c
       0.038204696 -0.038725708 0.024352908 0.030163176
0003a0 61 38 09 bd aa 83 36 ba 59 6b f3 3c 29 4f 81 bc
       -0.033501033 -0.00069623685 0.029714273 -0.015784817
0003b0 68 8b dc bb 04 c8 94 3c 39 10 90 bc 5b 56 2d 3d
       -0.0067304857 0.018161781 -0.01758586 0.042318683
0003c0 15 92 06 bc 0c 2c d2 3c 85 4d b0 bc 52 a6 f0 3c
       -0.00821354 0.025655769 -0.02152134 0.029376183
0003d0 3f 29 d1 3a 60 d1 52 bb a7 38 7a bc 07 41 77 3c
       0.0015957727 -0.0032168254 -0.015272296 0.015091187
0003e0 ba 6f 28 bd 10 e3 e6 3c c9 c1 02 3c 54 a2 0f 3d
       -0.041122176 0.028184444 0.007980772 0.035066918
0003f0 89 20 62 bc 93 3a 07 3c 44 06 3e 3c 25 12 38 bc
       -0.013801702 0.008253711 0.0115981735 -0.011234795

fc3.weight f4 [128, 256]
000000 ef 63 df 3b e4 af 50 3d 4c 13 61 3c 06 c7 41 3c
       0.006817333 0.050948992 0.013737511 0.011827236
000010 39 2d 85 3c 10 ac 64 3d e1 6b 7d bd a6 1e b3 3c
       0.016256915 0.055828154 -0.06187046 0.0218652
000020 e3 9a 43 bd ef 39 d4 bc 39 fa 96 bc 25 74 2d bd
       -0.047755133 -0.025906531 -0.018429862 -0.042347092
000030 be 94 6d bd 1c d3 71 bd 4a fd f0 bc 70 d8 68 bd
       -0.05800318 -0.05903922 -0.029417653 -0.056847036
000040 d7 b4 33 3d 46 f9 10 3d d2 aa 63 3d 39 9a 20 ba
       0.043873634 0.035393976 0.05558283 -0.00061264966
000050 58 f5 b4 bc fe 8d 1d 3c 59 af 98 bc ca 93 45 3d
       -0.022089645 0.009616373 -0.0186383 0.048236646
000060 e9 06 25 3d 18 bc 5f bd ff 3c 46 3d 0c f5 f9 bc
       0.040289793 -0.05462274 0.048398014 -0.030512355
000070 ae 2b 72 3d 74 81 15 3c fc fb 17 3d a3 53 1e bd
       0.059123687 0.009125102 0.037105545 -0.03865398
000080 62 69 64 3d 3f 0e 8b 3b 97 41 07 bd e7 ab 1a 3d
       0.055764563 0.0042436416 -0.033021536 0.037761595
000090 29 16 22 3d 8c 20 e6 3c 54 9a 52 bd 24 b4 01 bd
       0.039571915 0.028091691 -0.05141671 -0.031665936
0000a0 ac dd 77 bd 66 71 4b 3a 83 ea 21 bd 90 70 1c 3c
       -0.060514137 0.0007760733 -0.03953029 0.009548321
0000b0 11 55 bb bc 23 83 74 bc 8f 0b 4a bd e9 57 ed 3b
       -0.022867711 -0.014923844 -0.04932743 0.0072431457
0000c0 a4 73 21 3d 50 fb e5 3c c3 29 9e bc c5 92 e7 3c
       0.039416924 0.028073937 -0.019307023 0.028268227
0000d0 33 b6 03 bd 2b 33 24 bd 96 c1 80 3c d0 fc 59 3d
       -0.03215618 -0.04008786 0.015717309 0.053219616
0000e0 b2 7b 11 bd 34 bf c0 3c e6 fe d1 ba 88 2f d3 bc
       -0.035518356 0.023528673 -0.00160214 -0.0257795
0000f0 b4 69 78 bd 63 4e 07 3d 4c 36 24 3d ad 2e be bc
       -0.06064768 0.03303374 0.040090844 -0.023215616
000100 56 d1 99 bc b1 7a cb bc a6 b4 26 bb 85 09 62 bd
       -0.018776577 -0.024838777 -0.0025437265 -0.05518486
000110 c2 d0 77 3d 5f 57 19 3d b9 3c 78 bd 3a ab fb bc
       0.06050182 0.03743684 -0.060604785 -0.030721296
000120 89 cb 7d 3c ec 15 1c 3d 12 f2 8f 3c 7f 3c 30 3b
       0.015490421 0.038106844 0.017571483 0.0026891527
000130 d3 ca a2 3c 88 f1 31 bd 73 c5 65 3c 1e 58 55 bb
       0.019872105 -0.043443233 0.014024126 -0.0032553743
000140 91 84 30 3c 48 c1 f4 3c f1 87 7f 3d 31 b0 69 ba
       0.010773794 0.02987732 0.062385503 -0.0008914499
000150 d0 55 4e 3d c4 2c 2e bd 72 1d 71 bd 53 ea 5d 3d
       0.050374806 -0.04252316 -0.058865972 0.054178547
000160 05 50 6a bd 72 c4 8d bc 3c 5a 2b bd 20 c5 3f 3d
       -0.05720522 -0.017305586 -0.0418341 0.046818852
000170 d4 92 4c bd 4e 01 33 3c 95 2c ad 3c 72 6e 0b bd
       -0.049944714 0.010925604 0.021139422 -0.034040876
000180 d0 9e 2b bd 33 e9 99 bc d6 00 c6 bc c0 d5 2f 3d
       -0.041899502 -0.018787956 -0.02417032 0.042928457
000190 53 13 46 bc e9 bc d0 bc 0e 50 6e bd ba 3d 9e 3c
       -0.012089568 -0.025480704 -0.058181815 0.019316543
0001a0 05 40 a3 bb a5 3c 64 bc 95 35 9f 3c f6 f3 50 bd
       -0.004981997 -0.013930474 0.01943473 -0.05101391
0001b0 73 f8 02 bd cc 32 cf 3c 2c 6d 7e bd 7f d0 22 3d
       -0.03197522 0.025292777 -0.062115833 0.03974962
0001c0 1c 52 d1 bb 83 6a 64 bc e3 5f b0 3b 87 4c 2b 3d
       -0.006387962 -0.01394141 0.0053825243 0.04182103
0001d0 89 a5 5a bd c9 86 43 3c d1 d7 11 bd e4 6a 17 3d
       -0.053380523 0.011933991 -0.03560621 0.036967173
0001e0 bc a3 b0 3c 4b 62 15 3d 43 a1 75 bb 88 8d e8 bb
       0.02156245 0.036470693 -0.0037480153 -0.00709695
0001f0 26 01 b1 3b 52 f2 a7 bc 04 ce 7e bd 82 ab 4e bd
       0.005401748 -0.02050129 -0.06220819 -0.05045653
000200 45 c7 55 3d c8 3d 21 bd 6f ac eb 3c e7 71 2a bd
       0.05219199 -0.03936556 0.028768746 -0.041612532
000210 f3 35 8a 3c 29 a9 53 bd 1d dc 37 3d f0 73 e7 bb
       0.016871428 -0.051674996 0.04488765 -0.0070633814
000220 b6 a5 a0 3c d9 f8 06 bd 1c d1 00 bb 2b e0 c5 3a
       0.019610267 -0.032952163 -0.001965589 0.0015096714
000230 1c 8d 07 3d 43 38 59 3c 71 45 b1 3c f8 75 26 3d
       0.033093557 0.013258043 0.021639558 0.040639848
000240 d9 8f 47 3d 27 49 49 bd ad 1f b0 ba 45 a0 52 3d
       0.04872117 -0.04914203 -0.0013437174 0.051422376
000250 36 c2 99 bb 93 5f ff bc f9 7d 22 bb 06 c0 72 3d
       -0.004692341 -0.031173503 -0.0024794324 0.05926516
000260 e4 f7 e9 3b 0d 9d 0a bd 5f 78 6b bd 5c 4c 5c bd
       0.0071401466 -0.03384118 -0.05748784 -0.05378376
000270 26 3c 16 3d 86 23 72 3b d6 fb 46 3d 4d d3 5b bd
       0.036678456 0.0036947443 0.048580013 -0.05366831
000280 a6 26 aa 3c 19 76 4f bd e8 a2 5c bc 64 6f 8e 3c
       0.020770382 -0.050649736 -0.013466574 0.0173871
000290 29 1c c0 bb ef 6e fc 3b d2 10 6c 3d b9 97 88 3b
       -0.005862732 0.007703654 0.05763323 0.0041684774
0002a0 54 4d 20 bd 1a 2b 62 bc d3 82 4c 3c b1 4e 4d 3d
       -0.039136246 -0.0138042215 0.012482363 0.050123874
0002b0 03 cf 11 bd 29 23 e8 3c e4 47 1d 3a 62 d8 44 bc
       -0.035597812 0.028337078 0.0005999787 -0.01201448
0002c0 86 f2 2d bb db 8f 2e 3d ed 81 11 bd d1 68 c2 bc
       -0.002654226 0.04261766 -0.035524298 -0.023731621
0002d0 10 92 e4 bc 10 49 c9 bc 61 e0 b4 3c 6d 22 46 3d
       -0.02790168 -0.024570972 0.022079648 0.048372675
0002e0 65 c6 01 bd 58 07 3f bc e3 48 ee ba fc f5 dc ba
       -0.031683344 -0.011659466 -0.0018179681 -0.0016857977
0002f0 31 5a 95 bc be 72 60 bc 9f 1d 0b bd 80 bc 34 bd
       -0.018231483 -0.013699232 -0.033963796 -0.04412508
000300 4b 26 73 bd 02 cd 58 bd c2 ee 5e bd de 67 01 3d
       -0.05936269 -0.052929886 -0.054426916 0.031593196
000310 15 de 24 bd da be d0 bc f3 21 d5 bc 56 85 63 bd
       -0.040250856 -0.02548163 -0.026017165 -0.05554708
000320 70 97 57 3d e6 93 b1 bb 96 de c5 bc 1f 9c 1a bd
       0.052634656 -0.005419242 -0.024153989 -0.037746545
000330 47 0e 14 3c 91 54 6b 3d 09 ff 51 bd 63 25 88 bc
       0.009036607 0.057453696 -0.05126861 -0.01661939
000340 67 6d 08 bd e3 42 2c 3d d3 66 35 bd d3 95 1e 3c
       -0.03330746 0.042055976 -0.044287514 0.009679276
000350 4e 7d c3 bc 1b f5 7d 3d a2 24 ed 3c b5 f8 5e bd
       -0.02386346 0.06200133 0.028948132 -0.054436404
000360 53 0f c6 3c 1c 58 62 bd 94 f7 85 bc bb 9b 94 3b
       0.024177229 -0.05525981 -0.016353406 0.004535166
000370 b4 1a 24 3b 87 05 13 3d b9 23 4f 3d 3a ba 0d bc
       0.002504033 0.035893943 0.050571177 -0.008650357
000380 cb 8e da 3c 98 11 6f 3d d0 9a 1f 3d b2 d4 1b bd
       0.026679417 0.058366388 0.038966 -0.03804464
000390 d5 ae a9 bc 03 da 20 bc 22 92 11 3d c0 57 40 3d
       -0.02071325 -0.009817603 0.035539754 0.046958685
0003a0 64 13 8d 3c c9 77 1e 3d 82 a3 2c bd d3 d6 39 3d
       0.01722116 0.038688455 -0.04214812 0.045370888
0003b0 81 e2 2e 3d 16 82 58 3d f0 27 98 3c b7 17 e2 3c
       0.04269648 0.052858435 0.018573731 0.027599199
0003c0 e4 f7 79 bd 59 b7 e6 3b 3e bb 79 bd fa da 32 bd
       -0.061027423 0.0070408997 -0.060969584 -0.043665864
0003d0 46 44 08 bd 72 15 17 3b 73 83 4f bd 0e f6 2a bd
       -0.033268236 0.0023053554 -0.05066247 -0.041738562
0003e0 42 6b 50 3d b1 62 ea bb f2 60 25 bd d3 ee 4c bd
       0.05088354 -0.007152878 -0.040375657 -0.050032448
0003f0 2b ea 71 3c eb 7a 92 3b 20 84 ac 3c c9 cf 44 3d
       0.014765303 0.0044702194 0.021059096 0.048049722

fc3.bias f4 [128]
000000 31 8c 9b bc 57 de 6e 3d 46 a5 de 3c dc a9 24 bd
       -0.018987747 0.05831751 0.027178418 -0.040201053
000010 2c 53 8e 3c 32 06 01 3d 05 4f 79 3d 5c e6 2a bc
       0.017373644 0.03150005 0.060866375 -0.0104308985
000020 a8 f2 82 3c a0 79 55 bd 0a 9c d7 bc 77 83 2b bd
       0.015984848 -0.052117944 -0.026319522 -0.04187342
000030 61 1f 02 3d fd 07 4a bc 61 34 4e 3d 98 b8 cf 3c
       0.031768207 -0.012331006 0.05034292 0.025356576
000040 38 1b 2a bd 1f fa de 3b 64 fa 69 bd 42 1f 98 3c
       -0.041529864 0.006804719 -0.057123557 0.018569592
000050 05 08 d8 bc d9 46 39 3b f7 03 24 bd 88 18 6a bc
       -0.026371012 0.0028270988 -0.040042844 -0.014288075
000060 f9 fd 8b bc 9f 3e d0 3c 29 78 3e b9 42 f5 53 bd
       -0.017088877 0.025420485 -0.00018164575 -0.051747568
000070 e9 f0 17 bd d1 a5 ee 3a 66 52 5b bd ad 92 da 3c
       -0.037094984 0.0018207376 -0.05354538 0.026681269
000080 14 3b 42 39 d2 a4 85 bc 35 b5 6c 3d ff 8b 43 3d
       0.0001852329 -0.016313944 0.05779 0.047740933
000090 6c 4e 0a bd 3f 05 52 3c 54 30 6a bc 0a 90 91 bc
       -0.033766195 0.012818634 -0.014293749 -0.017768878
0000a0 5b 37 06 3b 71 f6 7c bc 2f 30 39 3d 5d 48 62 bb
       0.0020479772 -0.015439616 0.045211967 -0.0034527995
0000b0 5d 23 5e bd 62 0e ff bc de 6c 36 bd 6f 57 45 3d
       -0.054232944 -0.031134788 -0.044537418 0.048179086
0000c0 5b 0f 32 3d 30 94 09 bd 1b 28 21 3d 7c 4f aa bc
       0.043471675 -0.03358859 0.03934489 -0.020789854
0000d0 00 21 37 bc 90 68 3b 3d 75 a1 e3 bc 20 5f 26 3c
       -0.011177301 0.045754015 -0.02778695 0.0101545155
0000e0 58 f3 eb 3c 9d 6b 76 bd 8d 06 3c 3d bf c7 92 3c
       0.028802559 -0.06016122 0.045904685 0.017917512
0000f0 4c 00 1f 3d 09 49 5d 3d 30 3c 76 3d 1b d4 10 3c
       0.038818642 0.05402473 0.060115993 0.008839632
000100 8c 64 50 bd 8f 38 b3 bc 1a df 82 3c b8 94 02 bd
       -0.05087714 -0.021877555 0.015975524 -0.03188011
000110 f7 17 d5 3c 05 25 e5 3c 11 3e 9e 3c 16 6b cd 3c
       0.026012404 0.027971754 0.019316705 0.025075477
000120 2f fa 94 3c b3 61 2e 3d 6e 60 77 bd 62 de 38 3d
       0.018185703 0.042573642 -0.060394697 0.045133956
000130 c1 2b dc 3c e4 1e 6c 3d 84 b6 47 bd 4e fc 64 3d
       0.026876332 0.057646647 -0.048758045 0.05590468
000140 de d1 65 3d 3e 75 79 3c a3 7f 07 bd 7d 44 80 3c
       0.056108348 0.015225707 -0.03308071 0.015657658
000150 06 76 63 bd 15 cb 68 3c 36 64 9a 3c 4d 3a 62 3b
       -0.055532478 0.014208575 0.018846612 0.0034519613
000160 db 27 a2 3c 64 07 9b bc 02 85 db bc d4 68 e7 bb
       0.019794395 -0.018924423 -0.026796822 -0.007062057
000170 bc 2f 2a 3d 10 d0 32 bc 06 78 06 bd fb ac 2b 3c
       0.04154943 -0.010913864 -0.032829307 0.0104782535
000180 4b f7 5d 3c 2d 3f 4a bd 17 3a 19 bd 82 85 48 3d
       0.013547729 -0.049376655 -0.037408914 0.048955448
000190 82 6e 27 bd 00 59 90 bb 81 b6 43 3d 96 f8 02 bd
       -0.040876873 -0.004405141 0.04778147 -0.03197535
0001a0 d0 de 7d bd 02 34 6e 3c 80 72 e4 3b a5 65 60 bd
       -0.06198007 0.014538767 0.0069716573 -0.054784436
0001b0 0c 6d 04 bd c8 79 5b bd 34 24 c0 bc 7a 08 6a 3d
       -0.032330558 -0.053582937 -0.023454763 0.05713699
0001c0 fd 6c 05 bd 42 05 cd bc a3 ce 17 3d d6 bd e1 3c
       -0.032574642 -0.025026921 0.0370623 0.027556341
0001d0 a6 ea fd 3c 35 e5 48 bd 26 02 45 bd 5f 68 75 bc
       0.030995678 -0.049046714 -0.048097752 -0.014978497
0001e0 ed 06 48 bb fc f8 16 bb 65 28 00 bd 73 64 a8 bc
       -0.0030521706 -0.002303659 -0.031288523 -0.02055571
0001f0 c9 94 74 bd b6 19 0c 3d 63 41 56 3c fb 77 66 3c
       -0.059712205 0.034204207 0.013077113 0.0140666915

fc4.weight f4 [64, 128]
000000 53 6e 5a bd 1e 58 eb bb 4f 3c 05 bd b0 6f 23 bd
       -0.05332787 -0.0071821352 -0.032528218 -0.039901435
000010 56 61 3c 3d 81 2e 9f bd 03 4c 46 3c 42 57 53 3d
       0.045991264 -0.07772542 0.012103084 0.051596887
000020 6a 12 61 bd e0 80 9b ba 53 f0 9f bd 00 a8 3e bc
       -0.0549492 -0.0011863969 -0.0780951 -0.011636734
000030 b9 40 b1 bd 65 0b b2 3d e9 72 8e bc 53 97 8f 3d
       -0.08654923 0.086935796 -0.017388778 0.07011285
000040 30 ec 94 bd 7f 27 4c 3d d7 99 07 3d cf 38 0e 3d
       -0.07271612 0.049842354 0.033105697 0.034722146
000050 c8 21 42 3d 57 ae a7 3d 7b 3f 74 3d 75 9a 75 bd
       0.047395498 0.081875496 0.059630852 -0.059961755
000060 95 47 87 bd 67 4a ae 3d 56 15 a4 bd 8d 93 43 bc
       -0.0660545 0.08510285 -0.08011882 -0.011937034
000070 52 fc 5c 3d 3e a7 4b bd ab b6 60 3d 8b 8d a8 bd
       0.05395157 -0.04972004 0.054861706 -0.08230122
000080 c7 b4 03 3d 0c 5f bc bc 6b b2 4c bc ef 3c 32 bd
       0.032154825 -0.02299454 -0.01249371 -0.043515142
000090 6b 53 da 3c b6 f7 8b 3d 47 10 98 3c 28 de ab bc
       0.026651105 0.068343565 0.01856245 -0.020979956
0000a0 b9 d3 5d 3d 60 93 ac bc b7 22 a2 bc ff 04 e4 3c
       0.054156993 -0.021066368 -0.019791944 0.027834414
0000b0 c1 b9 1b bc d5 d8 84 bd fb 24 a0 3d 11 97 df 3c
       -0.009504736 -0.0648667 0.078195535 0.027293714
0000c0 8b 76 f1 3c a8 77 0d 3d 03 b8 0a 3c 4e 09 ea 3c
       0.029475471 0.03453794 0.008466723 0.02856889
0000d0 48 36 27 3d 1d 3d 24 3d cb 81 23 bc 5d d2 48 3d
       0.04082325 0.040097345 -0.0099796755 0.049028743
0000e0 92 df 13 bd 43 8e 94 3d 5e 95 99 3d 3d 66 20 3d
       -0.036101885 0.07253697 0.07499193 0.039160002
0000f0 96 8d 98 3d 1c 3a 95 bc 50 e0 3b bc 03 13 8e bd
       0.074488804 -0.018216185 -0.0114670545 -0.0693722
000100 db 8c a0 3d b9 0d 43 3a e7 5c 2f bd 2d f3 3d bd
       0.07839366 0.00074407045 -0.042813208 -0.04637449
000110 15 28 8b 3d 2e ea 32 bc f9 e9 85 3d d2 18 b6 3c
       0.067947544 -0.010920091 0.06538767 0.022228632
000120 2d 70 ad 3d 40 54 43 3c a1 d6 56 3c 0e 2b c9 bc
       0.084686615 0.011921942 0.013112695 -0.024556663
000130 f5 a1 a0 bd 43 83 67 bd 2a 9b f1 3c ec 68 9c 3d
       -0.07843391 -0.056521665 0.029492933 0.076372
000140 7c e8 03 bd a3 cc 43 3c f3 e9 38 3d a3 86 a6 3c
       -0.032204136 0.011950645 0.045144986 0.020327872
000150 63 c1 b9 3c 2e f2 6f bd 74 f5 92 bd d7 e1 32 3d
       0.022675222 -0.05858057 -0.07175723 0.04367241
000160 97 5d 95 3d c1 28 d1 3b f4 17 4a bd 25 33 44 3d
       0.072932415 0.006383032 -0.04933925 0.047900338
000170 d0 aa 6c bd e8 22 2b bc 78 8b 12 ba e4 ef cc bc
       -0.057780087 -0.010445334 -0.00055902405 -0.025016733
000180 91 55 cb ba 15 6c 3b 3d 3f b0 12 3d 9d 94 39 3d
       -0.0015513172 0.045757372 0.035812613 0.045307744
000190 13 50 76 3d 2a 46 9a 3d 67 f1 95 bc b9 91 06 3d
       0.06013496 0.07532914 -0.018303586 0.032853816
0001a0 e2 c0 77 3d 07 91 89 bd c9 1f ce 3c 7e 8f 8e bd
       0.06048668 -0.06717115 0.02516164 -0.06960963
0001b0 3c 38 5a bc df 33 88 bd aa e0 91 3b 8c b3 8a bd
       -0.013319071 -0.066505186 0.004451831 -0.06772527
0001c0 7a c4 a0 bd ac 40 a5 bd 72 97 56 3d 3b 63 0b bd
       -0.07849975 -0.08068976 0.052390523 -0.03403018
0001d0 b8 90 a3 bd 5d 56 85 3d 51 86 cf 3c cf 13 a7 3d
       -0.07986587 0.06510613 0.025332602 0.08158075
0001e0 9d 3a 50 bd 50 12 b2 bd 8c 44 b2 bd 9e 41 9f 3d
       -0.050837148 -0.08694899 -0.087044805 0.07776187
0001f0 9d 4d 24 3d 45 02 93 bc 09 41 02 3c 21 bf 2c 3d
       0.04011308 -0.017945418 0.007950076 0.042174462
000200 17 98 8e 3d 5c f3 00 3d bb 55 42 bc c9 ff 1a bd
       0.069626026 0.031482086 -0.01186126 -0.037841592
000210 37 3f 95 3c fe a6 a5 bb 3e 2f 00 3c c5 04 2d 3d
       0.01821862 -0.0050553074 0.007823763 0.042240877
000220 a0 f4 72 3c 5f 16 80 bd 67 54 55 bd 90 f9 51 bd
       0.014828831 -0.06254267 -0.052082445 -0.051263392
000230 8a 03 7b 3d c6 b3 25 bd bf 62 73 3d 80 e1 81 3d
       0.061282672 -0.04045465 0.059420343 0.06341839
000240 e2 37 ab 3d cc 27 b4 bd 04 c5 92 bc d5 42 23 bd
       0.08360268 -0.08796653 -0.01791621 -0.039858658
000250 df f4 bb ba f8 35 8b bd c9 a2 95 3d 0c 43 08 3c
       -0.0014339945 -0.06797403 0.073064394 0.0083167665
000260 99 0a 82 bd 4c b5 a0 3d c5 2f 03 3a 7f e2 68 bd
       -0.063496776 0.0784708 0.00050043716 -0.05685663
000270 72 b7 43 bd b3 14 f8 3c 0b 83 30 bd 1d 80 8c 3d
       -0.04778237 0.030283308 -0.043093722 0.06860373
000280 ca 40 5b bd 00 20 3f bd f1 e7 5d 3d d7 af 9d 3c
       -0.053528585 -0.046661377 0.054176275 0.019248886
000290 1f c9 eb bc 87 fa 9e 3d 75 71 ab bd 14 21 1a 3d
       -0.028782425 0.07762628 -0.083712496 0.037629202
0002a0 a5 4e 75 3c 03 f3 7a 3d ec bf 49 3c 96 b8 12 3d
       0.014972364 0.06126691 0.012313824 0.035820566
0002b0 12 0f 9f 3c 0c 49 5a bc 8f 42 7c bd 21 be 98 bd
       0.019416366 -0.01332308 -0.061586913 -0.07458139
0002c0 05 ed 96 3d 9c 93 de 3c 00 33 11 bd 4b b5 ad bc
       0.07369427 0.027169995 -0.035449028 -0.021204611
0002d0 03 ea b1 bd 2d 9d 86 3d 31 e7 b5 bc 23 42 a2 bc
       -0.08687212 0.06572948 -0.022204967 -0.019806927
0002e0 5a d3 86 bd 9c 5f 90 bd ea dd ad bd 2e aa 07 bd
       -0.06583281 -0.07049486 -0.084895924 -0.03312128
0002f0 cc b4 f6 3a b2 28 92 bd 5b 3d 12 bc b5 e9 17 3d
       0.0018822192 -0.07136668 -0.008925761 0.037088115
000300 91 55 4e bb 59 cf 1d bd 03 6c a6 bd 32 1c a3 3d
       -0.0031484107 -0.03852782 -0.0812607 0.07964362
000310 f0 01 f7 3c 50 c4 a7 bd 02 9d 1a 3c 0a b6 86 3d
       0.030152291 -0.081917405 0.009436848 0.0657769
000320 d3 41 67 3c 70 f0 85 3d 5d 49 37 bd 68 fe a2 bd
       0.014114815 0.065400004 -0.0447477 -0.079586804
000330 52 e8 24 bd d5 bb 2b bd 11 3b 8e bd 08 94 b0 bd
       -0.04026062 -0.041927177 -0.0694486 -0.08621985
000340 f0 6a 7f 3c cd 63 4d bd 82 0e 8e 3d 43 51 05 bd
       0.015589461 -0.050144006 0.06936361 -0.0325482
000350 65 04 45 bd df df a4 bc 41 c9 5e bd 26 9c 81 3d
       -0.048099894 -0.020126281 -0.05439115 0.06328611
000360 de 7a 97 bd a8 fd 76 3d 5a 08 ab 3d 78 2b 9e bd
       -0.07396482 0.0603005 0.08351202 -0.07723135
000370 0d 51 9c bc f6 7b 3b bd 98 e2 a4 3d 90 7f eb 3c
       -0.019081617 -0.045772515 0.08051032 0.02874735
000380 0b e2 27 3d 9a 34 a6 3d a9 5f 9e 3c 8f fb f8 3c
       0.040987056 0.08115502 0.019332724 0.03039339
000390 4e 85 31 bd 15 3f e1 3c 86 7f 68 3d 8f 75 02 bc
       -0.04334002 0.0274959 0.05676224 -0.007962598
0003a0 70 53 a4 3c b8 90 ac bd 0e 71 15 3d 82 9f a2 bd
       0.020059317 -0.084260404 0.03648477 -0.0794058
0003b0 9e 03 44 bd 5e d0 64 bd 17 23 a8 bd 66 7a 6e 3d
       -0.047855012 -0.055862777 -0.08209818 0.058222197
0003c0 fe e9 92 bd 06 cb 98 bb a8 58 df 3c cb 2e 87 3d
       -0.07173537 -0.004662874 0.027263954 0.06600722
0003d0 59 91 92 3d f4 3e 21 bd 33 84 92 3b 78 78 ad 3d
       0.07156629 -0.039366677 0.004471326 0.08470243
0003e0 bc 5c a2 bd 2f 13 24 bd 06 81 3b bb ee 92 04 3d
       -0.07927844 -0.040057357 -0.002861084 0.032366686
0003f0 cb f7 e6 3b 70 35 d3 bc 52 26 86 bd 27 95 80 bd
       0.007048582 -0.025782317 -0.06550278 -0.062784486

fc4.bias f4 [64]
000000 b2 c0 38 bb 63 ab 97 3d 60 67 4b bd d0 65 57 bd
       -0.0028191027 0.07405736 -0.049659133 -0.05258733
000010 7d 39 6d bd 34 45 71 3c d9 87 17 bd fc b6 35 bd
       -0.057916153 0.014725972 -0.03699479 -0.04436396
000020 26 6a 0c 3d 49 7c a1 3d 6c 4b 3e 3c 8e 6c 8b 3c
       0.03428092 0.07885034 0.011614662 0.017019536
000030 fa 23 69 bd ab 5b 48 bd 4b 0a 87 bd 6b 3a e8 bc
       -0.056919076 -0.048915546 -0.0659376 -0.028348168
000040 2e 97 a0 3d ec 70 30 3d 90 98 38 bc c3 44 37 3d
       0.07841335 0.04307644 -0.0112668425 0.04474331
000050 0d 0f d1 ba 4e 3b 8e 3c 85 50 90 3c f6 a7 4a bd
       -0.001594992 0.017362263 0.01761652 -0.049476586
000060 9f 88 2f bd 7e 86 4a bc dd fd 04 3d 25 11 5e 3d
       -0.0428549 -0.012361167 0.032468665 0.05421557
000070 37 94 93 3d 9e 25 f3 bc 45 02 2c 3b 00 4a 1b bd
       0.07206004 -0.029681023 0.002624647 -0.03791237
000080 8f 7e 8a 3d 25 d7 a4 3d 1b 5a b1 bd 27 34 ed bc
       0.067624204 0.08048848 -0.086597644 -0.028955532
000090 ac 4c d2 3c 8b 31 a8 3d 4c 33 a7 bc b1 e0 d3 3c
       0.025671326 0.082125746 -0.020410202 0.025863977
0000a0 a5 f1 c4 bb 71 ab 98 bd b7 86 ab 3d 69 e6 0e bd
       -0.0060102516 -0.07454575 0.08375304 -0.034887705
0000b0 08 98 19 3d 8b 84 3a bd 9c 8d 79 3d d2 c8 5f bb
       0.037498504 -0.04553656 0.060926065 -0.0034146798
0000c0 57 3b 4d bc f4 38 4b bd d5 10 07 3d 15 01 44 bd
       -0.012526355 -0.04961486 0.032975037 -0.047852594
0000d0 1d fd 26 3b 0c 62 07 bd 84 af 6c bc 02 8b b1 bc
       0.0025480457 -0.03305249 -0.014446143 -0.02167273
0000e0 ad 2b 27 3d 1e 84 32 3d 68 11 5c bc 99 58 43 bd
       0.040813137 0.043583028 -0.013431884 -0.047691915
0000f0 59 0f ac 3d f2 c8 c8 39 c2 4e 5a 3d b0 1f 5d bd
       0.08401365 0.0003829669 0.053297766 -0.053985298
