best_model.pth (torch, 712235 bytes, 10 tensors)

fc1.weight f4 [512, 8]
00000000: 74bb 15be 2d0a 823e 33ab d8bc b6a2 253b
00000010: 4f3f a63e 8747 8ebe 4cc7 613e 57eb 123e
00000020: 529a 2a3d 016e aebd 025b ffbc aab6 b83d
00000030: 072e d93d e3d8 463e 607b da3d 3436 823d
00000040: ad7b 69be 13e5 c33b cecb 173e 4dee a63e
00000050: 946a fcba a9f5 07bc 2fe1 173e a2a2 183d
00000060: 9a6c c73d 0bd0 3bbe a9ac 97bc b15f a3be
00000070: f139 98be 111b 8dbd 9301 5e3b fd15 403d
00000080: 0229 a5bc 292c 733e 5a8c 133d 51c1 6fbe
00000090: 4520 d73d c288 8abe ff9c c83d ecbd a03e
000000a0: a077 babd 4921 86be 1b8b b9bd 05be 7f3e
000000b0: 25fd 983e fa5e a63e 556f 473d ba83 033d
000000c0: ffb3 23bd 6b49 3cbe 9926 843e 6db4 9bbe
000000d0: 0c9c 86bc 39a8 3e3e baba a93e b25d 35bc
000000e0: c8b3 00be d7c9 2ebe 2c3a a53e 2202 1abe
000000f0: f532 073c 8112 ae3e ba69 d3bd 33b6 5abe
00000100: a922 ac3e 99fa 84be 4189 fb3c 7187 37be
00000110: a24e 43be 0663 a73e ad1f 69be d0e6 033c
00000120: bbcd 103d 65a7 ae3d 7fea a13e 6971 9cbe
00000130: e581 73bd 75bd a5bd b5b0 ab3e 3b0d cebd
00000140: e0ad 583d 538b c43d a99d b0be 4b98 9d3d
00000150: c6c6 42be 9ee1 6d3e 0f07 45be 4482 96be
00000160: a676 193d 3439 6d3e a572 71be 7054 f6bd
00000170: 425e 6abe f976 30be d36f 18be 3124 223d
00000180: 7dcd 273e 6913 783e bc49 503c a8cc cd3d
00000190: 86e1 9e3e 9c31 26be 37b8 8a3e d12e 2dbd
000001a0: 6741 813e c3c5 9abd 3807 de3c 7c82 77be
000001b0: e78f d5bc a9e4 73be 6e9e 273e 0b6e bfbc
000001c0: daf9 b33e dc49 9c3d 8825 17bd 361a 9abe
000001d0: 846e 9abe 83a0 c93d 87c7 a63e 176f 2d3d
000001e0: d574 853e 1853 3b3d 68b6 823d 251d 1cbe
000001f0: 2830 73bd aa59 4bbe 6b8c 8a3e a2aa a4be
00000200: 6b3e 00bc 0954 a63e 74bf 853e 94c4 97be
00000210: 8cfc e63d b0e7 be3d 381a 403e 685c 97be
00000220: 2569 a3bd 25ff 88bc b1b4 3b3e 871b 6d3e
00000230: 0e97 7e3e 4a2d 1c3e 6bb8 05be a1ad 36be
00000240: f7e2 903e 8667 253e 404a c83d 0061 4c3c
00000250: 616e 9ebe 3067 7bbe affa b2be 4f2d 9ebe
00000260: e805 483e b34c c6bd cdc9 8b3b 0b75 013e
00000270: c87f 1abe 1177 933e 2507 623e cb3d 21be
00000280: 4cec 1a3e 3be8 8a3e bfe2 893e 89dd b7bd
00000290: 542c a63e eca8 8bbe e50b 3cbd 34e0 41bd
000002a0: 2f88 f83d 688e 1d3e 2a07 4fbc 7e41 733e
000002b0: bfd2 c03d 39be 9dbe f052 51be 9c47 b23e
000002c0: 6c58 863d 071b b03e 5cbe 453e feb9 093e
000002d0: 2559 993e 3181 abbe 00c2 d93d 87bb 50be
000002e0: 53b7 a83e b6db 57be ffea 27bd 3018 6dbe
000002f0: 3e73 9f3e 7652 d33d 0670 863e 9cac 943e
00000300: 6b06 43bd 891b 5dbe c0c5 34be fc68 a6bd
00000310: 71a2 933e edb5 a73c 59ee 993e d91f 563d
00000320: 32ca 1bbe de43 1fbe b11c b7bd 7b57 7bbe
00000330: 7f57 813e b993 71bc abae 8cbe bda7 0f3e
00000340: bf8c 513e c2c7 843e 42e6 9bbe 4d70 a6be
00000350: 3338 b2be fade c4bd 45c6 3fbe 2933 853e
00000360: 5926 b03e 1a51 273e a01e c0bc 058f 4bbe
00000370: 4dea 983e 6fc8 abbe 20c8 8dbe a0f2 97bc
00000380: 9273 d33d 52f5 483e decb f2bc 0cd6 a73e
00000390: 2219 a03e 058a 26be a930 fe3d 9df4 913e
000003a0: 73f3 a33e 073b bd3d bf70 a7be 5862 b43e
000003b0: d7f0 743c 001c 98be d0b6 2dbe 21f8 a63e
000003c0: 11e4 7d3e 70da 7abd c2e8 81be 5830 b33e
000003d0: 7af9 853e dad5 a7be 5035 783e 510b 163e
000003e0: 967b bebd fd32 a33d 06fb 873e 6e88 aabe
000003f0: 400b 0b3c 78b6 ffbd 2961 b6bc ca7f 633e
-0.14622289 0.25398389 -0.026448822 0.0025273985 0.32470176 -0.27788946 0.22048682 0.14347588
0.041651078 -0.08517075 -0.031171326 0.090192154 0.10604482 0.19418673 0.10668063 0.06357995
-0.22801085 0.0059782355 0.14823839 0.32603684 -0.0019257837 -0.008298316 0.14831994 0.037264474
0.09737511 -0.18341081 -0.018514948 -0.31908944 -0.29731706 -0.06889928 0.003387545 0.04689597
-0.020161156 0.23747315 0.03602252 -0.23413588 0.10504202 -0.27057463 0.0979557 0.313949
-0.09104848 -0.2619727 -0.090597354 0.2497483 0.29880634 0.32494336 0.04869016 0.032108046
-0.03996658 -0.18387382 0.25810698 -0.3041109 -0.01643183 0.1861886 0.33150274 -0.011069702
-0.12568581 -0.17069183 0.32270944 -0.15039876 0.008251895 0.33998492 -0.103229 -0.21358566
0.33620194 -0.2597244 0.030705096 -0.1792276 -0.19072965 0.32692736 -0.2276599 0.008050635
0.03535245 0.08528022 0.3162422 -0.30555275 -0.05945005 -0.08092777 0.33533254 -0.10061117
0.052900195 0.095968865 -0.34495285 0.07695063 -0.19021139 0.23230597 -0.19240974 -0.2939626
0.037466668 0.23166353 -0.2357889 -0.12027824 -0.22887519 -0.17232884 -0.14886408 0.039585296
0.16386981 0.24226154 0.012712892 0.10048801 0.31031436 -0.16229862 0.2709367 -0.042280976
0.2524521 -0.07557251 0.027103052 -0.2417087 -0.026069595 -0.23817696 0.1636903 -0.023367902
0.3515156 0.07631275 -0.036901027 -0.30098122 -0.30162442 0.09845068 0.32574102 0.04234227
0.26065698 0.04573354 0.063824475 -0.15245493 -0.059372097 -0.19858423 0.27060255 -0.32161433
-0.007827382 0.3248599 0.2612263 -0.29642165 0.11278638 0.09321535 0.18760002 -0.29562688
-0.07979039 -0.016723225 0.18330647 0.23155032 0.2486231 0.15251651 -0.13058631 -0.17839672
0.2829816 0.16152772 0.09779787 0.0124742985 -0.30943587 -0.24551082 -0.3495688 -0.30893943
0.19533503 -0.09682598 0.004266 0.12642305 -0.15087807 0.28801778 0.22073038 -0.15746228
0.15129203 0.27130303 0.26930806 -0.08977801 0.32455695 -0.27277315 -0.04590978 -0.047332957
0.1213535 0.15386355 -0.012635985 0.23755452 0.094151966 -0.3080919 -0.20441794 0.3482026
0.06559834 0.3439562 0.19310898 0.13449857 0.29950824 -0.33497003 0.10632706 -0.20384036
0.32952365 -0.21079907 -0.040995594 -0.23153758 0.3114261 0.103184626 0.26257342 0.2903794
-0.047613543 -0.21592535 -0.1765356 -0.08125493 0.2883487 0.020472491 0.30064657 0.052276466
-0.1521385 -0.15553233 -0.08941019 -0.2454509 0.25262067 -0.0147446925 -0.2747701 0.14028831
0.20463847 0.25933653 -0.3044911 -0.32507554 -0.34808502 -0.09612842 -0.18727978 0.26015595
0.34404257 0.16339532 -0.023452103 -0.19878776 0.29866257 -0.33551356 -0.27691746 -0.01854831
0.10324778 0.19624832 -0.029638227 0.32780492 0.31269175 -0.16263588 0.12411625 0.28506938
0.32021675 0.09239774 -0.32703206 0.3523128 0.014949999 -0.29708862 -0.16964269 0.32611182
0.24794032 -0.061243474 -0.25372893 0.3499782 0.26166898 -0.32780343 0.24239087 0.14652754
-0.09300916 0.079687096 0.26558703 -0.33307213 0.008486569 -0.12485975 -0.022263126 0.22216716

fc1.bias f4 [512]
00000000: 175b 3ebe e74d 07be cf15 3bbe a748 843e
00000010: db40 983e 9eec f4bc 82af 9d3e 2978 3e3b
00000020: 4902 62bc 9886 b1be 9cdf 853e 6085 a63e
00000030: 908f 3a3e 4016 983e 0f4d 403e 2429 55be
00000040: b560 e8bd f218 cbb9 e8b0 73be eaba 17be
00000050: 6415 1dbe 3db2 bfbd dd0b 8c3e 21f4 633c
00000060: 62eb 3bbe 1b96 163e bbb0 723e e8e8 b3be
00000070: d272 c83c dadf b03e e527 003e d7f5 35be
00000080: bb2f bdbd df32 9cbe 1538 943e 1a20 ba3d
00000090: f796 623e 276e 5d3e f7e9 d7bd db7e a73e
000000a0: 5435 933b f3fd 98be 92de e93d 720b 6dbe
000000b0: 2013 1fbb 42d9 29be 1d4e 983e 3c84 5fbe
000000c0: f651 5abe ee7e ad3e 8d5c a13e 64e5 b03e
000000d0: f362 9ebe b4b3 2bbe 2007 a83e 0912 acbe
000000e0: 0a61 1bbe 4ece f3bd c9c5 5ebe f7b4 ec3d
000000f0: c6b6 813e 8f42 81be 9158 fbbd 564c 4ebe
00000100: f976 7e3e a1f9 173e 77f2 c33d d827 de3d
00000110: a22b 503e 77bf a1be 0980 d9bd 21f6 96be
00000120: 3223 a9bd f9d1 b13e d2be 6c3e f363 90bd
00000130: bc8b b23d dabc adbe 4745 69be 4be2 10be
00000140: b86e 22be 33be 553e 8f7a e93d c99d 71bd
00000150: bbfb 95be 95c8 943e 8ec6 94bc c1ba 4ebd
00000160: 1b82 18be f166 a2be acb5 b63d 5c80 69be
00000170: 0f01 523e 2aab 093e 5734 2bbe 39a7 ab3e
00000180: bd36 65be 8661 a9bd 48e5 8ebe e31d ab3e
00000190: e62d d1bd a088 a3be 3157 a83e e19e 4d3e
000001a0: 6f43 6a3e cb3c 643e 616d 61be 8ef9 3ebd
000001b0: ade8 83be 1a45 87be 90ad 6ebe dabd b43e
000001c0: 234d a73e d72c 5ebe fed8 a53e dd7a 17be
000001d0: 38aa 113e 1bb7 3e3e 824d b03e 85ec 113e
000001e0: 9296 a33e 9616 b1be 4540 83be 6518 8fbe
000001f0: 63b9 5ebe 6ca2 8c3e 54f4 c23b 90f7 bebd
00000200: 1657 7d3e 9ec0 843e 3955 80be e82e 16be
00000210: 6649 1e3e 0ba2 8bbe fce3 aa3d 1348 813e
00000220: 70c2 153d 8827 9c3d 85a8 6a3d a677 9d3e
00000230: 0b19 a53e 9295 8dbe 3dd7 153c 7ab2 903e
00000240: f438 0ebc 32cd 4f3e 5496 cabd dc68 a93d
00000250: b8c7 8e3e 8bac fabd fe0c c1bc d4a7 653e
00000260: 2a32 c936 7d4a 853e 7c92 5e3e 080d a73d
00000270: 8cc8 a33d c4dc 623e c322 b9bd 6f38 80be
00000280: 06fb b4be 81fd 753e a8df 563e e991 9f3d
00000290: a3bd 083e e7af 0f3e ade5 dd3d 5a3f d0bd
000002a0: 7a8a 35bd 6ce1 e13d fc4e 94be 5dc0 d3bd
000002b0: a2eb 20be 5eaf 903e 3c91 253e a142 7dbe
000002c0: 34b5 74be 1999 b23e e361 3c3e 6811 32be
000002d0: ce6f 333e 2e49 0f3e 2056 a5bd 583f a6be
000002e0: 66b3 24ba 3050 12bd 1154 0bbc 5c80 383d
000002f0: 8933 3bbd 4b38 26be c118 a93d 7eab 03be
00000300: 0e73 a0be 8678 ebbd 5e2d 26be 9197 493e
00000310: a26c 363e 9498 783d 5747 bc3d 1446 3b3e
00000320: 62eb 3b3e 0969 7e3d 9503 923d 0ab4 93be
00000330: 50a8 923e e23f d5bd 7f10 71be e45b 70bb
00000340: 2a53 2f3e a700 743d f50d 4abe 60bf f1bd
00000350: 6a6b 843e fe70 57be c193 9c3d 6663 94be
00000360: 3c9b 513e 4f48 b73d 2eb1 b4be f467 923e
00000370: f097 a33e 9676 da3d 9667 ccbd a0ea cc3d
00000380: 21c4 333e 65a6 40be 134b b4be c002 6b3d
00000390: cb78 843e 312b 61be 9eb9 78be 99d1 35be
000003a0: 34e8 4f3e 63af fdbd 8690 113e 70bb dcbc
000003b0: db3f 4f3e 39d1 263e 4491 9abe db83 ab3e
000003c0: 528d e1bd 4ee5 873e f972 efbd bd59 e83d
000003d0: c5ff a9be d02a 09be 4603 5cbe f23a 83be
000003e0: 5419 34be dd2c 723d e5b7 e33d 318e 0bbe
000003f0: 2ae5 193e 3be7 ccbd 6c4a 8d3e 61ba 2a3e
-0.18589436 -0.13213311 -0.18270038 0.2583668 0.2973698 -0.029897984 0.30797964 0.002906332
-0.01379449 -0.34673 0.26147163 0.32523632 0.18218827 0.29704475 0.18779396 -0.20816475
-0.113465704 -0.00038737763 -0.23797953 -0.14817396 -0.15340191 -0.09360168 0.273528 0.013913185
-0.1835151 0.14705698 0.2370023 -0.3513863 0.024468813 0.34545785 0.12515219 -0.17769562
-0.092376195 -0.30507562 0.28949037 0.09088154 0.22127901 0.21624051 -0.10542672 0.3271397
0.004492441 -0.29881248 0.11419405 -0.23148897 -0.0024272874 -0.16586784 0.29747096 -0.21827787
-0.21320328 0.33885902 0.31515923 0.3455001 -0.30934867 -0.1676777 0.32817936 -0.3360751
-0.15173736 -0.11904584 -0.21755137 0.11557954 0.25334758 -0.25246093 -0.12272752 -0.20146307
0.24850072 0.1484132 0.09567731 0.10847443 0.20329145 -0.3159139 -0.10620124 -0.29484656
-0.08258666 0.3473051 0.23119667 -0.07050314 0.087180585 -0.33933145 -0.22780333 -0.14148824
-0.15862548 0.20873336 0.11400329 -0.058988366 -0.29293618 0.29059282 -0.018161085 -0.05047107
-0.14893381 -0.31719163 0.0892137 -0.22802871 0.20508216 0.134442 -0.16719185 0.33526018
-0.22384162 -0.08270554 -0.27909303 0.3342124 -0.102138326 -0.31940174 0.32879022 0.20080139
0.22877286 0.22288816 -0.22014381 -0.046624713 -0.25763455 -0.26419908 -0.23308396 0.35301095
0.32676038 -0.21696793 0.32392114 -0.14792962 0.1422509 0.18624537 0.34434134 0.14250381
0.31950814 -0.34587544 -0.2563497 -0.279483 -0.21750407 0.27467668 0.0059495363 -0.093245625
0.24740252 0.25928205 -0.2506502 -0.14666331 0.15457687 -0.27272066 0.08344266 0.252503
0.036562383 0.076247275 0.05728962 0.30755347 0.3224567 -0.27653176 0.009145555 0.28261167
-0.008680571 0.2029312 -0.09891954 0.082719535 0.27886748 -0.12239941 -0.023565765 0.22427303
5.9961067e-06 0.26033393 0.21735567 0.081567824 0.07997236 0.22154528 -0.090398334 -0.25043055
-0.35347766 0.24022485 0.20983756 0.07791502 0.1335359 0.14031945 0.10834823 -0.10168333
-0.044321515 0.11029324 -0.2896651 -0.10339425 -0.15714887 0.28258795 0.16168684 -0.24732448
-0.23897249 0.3488243 0.18396716 -0.17389452 0.17523119 0.1399276 -0.08073068 -0.32470202
-0.0006282836 -0.035721004 -0.00850393 0.045044288 -0.045703445 -0.16232412 0.082566746 -0.12858388
-0.3133778 -0.114975974 -0.16228244 0.19686724 0.17814878 0.060692385 0.091932945 0.18288451
0.1835151 0.062111888 0.071295895 -0.28848296 0.28644037 -0.10412575 -0.23541449 -0.0036675865
0.17121568 0.059570935 -0.19731887 -0.1180408 0.258632 -0.21039197 0.07645369 -0.28982085
0.20469373 0.08949339 -0.35291427 0.28594935 0.31951857 0.1066715 -0.09980695 0.10005689
0.17555286 -0.18813474 -0.35213527 0.05737567 0.25873408 -0.21989132 -0.24289557 -0.17755736
0.20303422 -0.12386968 0.14215288 -0.026944846 0.20239203 0.1629075 -0.30188954 0.33499035
-0.11013283 0.26542133 -0.11691851 0.11345241 -0.3320295 -0.13395238 -0.21485624 -0.2563091
-0.17587787 0.059124816 0.111190595 -0.1362846 0.15028825 -0.10005041 0.27595842 0.1667266

fc2.weight f4 [256, 512]
00000000: 6424 9dbc fe95 113d abc3 8e3c 19ab 23bd
00000010: c1da 003d 5897 963c 8fba 04bd d6ef 033d
00000020: 34e2 8d3c b93c 11bc 340b d0bb 3b47 18bd
00000030: ed1b 1d3d 2c28 af3c d6f6 17bd 556b 2b3d
00000040: 6453 d7bc 54e3 a23c 9ecd f03c f9f5 0c3d
00000050: aba5 71bc 6560 12ba 0548 2f3d 3d1a fe3c
00000060: 45f9 08bd 163f 0c3c 0b7b c0bc 2aac bb3c
00000070: a6f7 aa3b 2208 2c3d 2e3a d33c ecb2 16bd
00000080: 93c2 383c 61be 72ba a758 d1bc 7299 debc
00000090: d4ee 063d e484 983c 2ff6 e83c fc44 0abd
000000a0: 20a6 5f3c ea12 d63c 91f0 e53b 1a25 fdbc
000000b0: 5b81 a3bc e804 da3c 6738 c7bc 87ec 74bb
000000c0: eaf4 47bc 569c 5b3b 27c3 2dbd 705b ff3b
000000d0: 3191 32bd d5f0 a6bc 4121 21bd bf74 c3bc
000000e0: 6cb5 9fbc 9f2b 0a3d cd50 1cbd 1613 143d
000000f0: 9e94 1dbc 4060 043b c4ff f33a 703c 443c
00000100: 192b d3bc 5038 2dbc 5b04 06bd 0e95 01bc
00000110: 3c7c 2fbd 273e 0ebd ccb3 813a 6129 003d
00000120: fbfd 21bd e4d9 cb3c 379a 913c 1666 0bbb
00000130: 1b1e 113d 58b7 4d3c bac5 2bbd 26bb 8d3c
00000140: a331 853c 688b 5bbc 4c8c 1dbd 0305 57bc
00000150: 7dc3 16bd a581 233d 323e 18bd 7ec1 353b
00000160: 8806 173d 38c7 1c3d 8e4b 1abd ffc9 c83c
00000170: 341f 3abc 623a b3bc 0e9e 213d fe08 da3c
00000180: 6302 163d b5e9 293d 6eda 93bc 085d 533c
00000190: 9673 22bd 9d61 0a3d ffbe e53b a2df cbbb
000001a0: d5bb bc3b c256 073d 2758 273d 775f f63c
000001b0: 35f5 94bc 9b6a 9cbc 0a21 39bc 75b4 2dbd
000001c0: 3921 33bd 0b57 333d f9a7 0dbd d751 9d3c
000001d0: a271 223d 2201 eebb bdbe 0e3d 9b68 eebc
000001e0: b296 d03c dc33 8e3c 5fd2 23ba 6341 253d
000001f0: e190 163d 9a09 963c 2caa 2b3d f835 a43a
00000200: 0944 41ba a8f5 22bc d95c f73a a818 4fbc
00000210: 353d abbc 6656 523c b3b0 88ba 5fe7 1c3d
00000220: 20c6 1ebd 64d8 063d 4d73 083d f839 ebbb
00000230: 64ea 313c 2f84 2cbd b336 f2bc f16f 163d
00000240: 160f 323c 4b4f be3c b88b 5a3c ea87 28bd
00000250: ad90 f6bb cb3c babc f51c d3bc 365a 03bd
00000260: 9a3e 0eb9 34f1 85bc 7070 b43b a7e9 ca3c
00000270: f65b 02bd 6b88 b1bc 753b 10bc 075c 2bbd
00000280: 6304 283d 4b84 f4bc 111c 0ebd 18c7 963c
00000290: bcb2 0dbd 0b04 7c3c e7d9 cdbc b9d3 033d
000002a0: 39e4 81bc e262 aabc b646 27bd f0a2 023d
000002b0: ae52 eabc 990a a53c 62be ef3c 871e 203d
000002c0: 881b 1fbc 245b 103d 27ad 293d d0f5 dcbc
000002d0: 7abe f73b 1ab3 9dbb a723 cabc e092 84bb
000002e0: 085e fa3a 3eeb a3bc 7315 32bd 8ba1 233d
000002f0: 38e4 e23b c8f6 163c 716a bc3b 7209 9ebc
00000300: 8047 84b9 6ea2 f73c 342a 18bc 7b05 443b
00000310: 0ec6 013d ac2e e9bc ce9d 5fbc 9c74 16bb
00000320: 209e e23c bbc3 a53c 8fa5 6dbc 7eb1 f93c
00000330: d094 10bd bd9d 333d a0c6 2bbd 5515 1e3d
00000340: e2b4 37bc 616e 30bd f139 9e3c bf34 dbbc
00000350: 18e2 cb3c f4af 193c 9990 8fbc dbcd 993b
00000360: 29eb afbb 5180 233c 8eea e33c cc4b 663b
00000370: cceb 423a c2ca 123d ff2a 0abc 6ae7 43bc
00000380: dd9f 6dbc 2c6c a9bc f498 03bd 5d01 1dbd
00000390: 597e ae3c aa1d f43c bac7 6ebc 0cf5 2d3d
000003a0: f7d9 0abc 37bc f9bc fd7b 4e3c acf3 4b3c
000003b0: 91ff c03c 8b1a 0b3d 3d55 34bd 4fcf ed3c
000003c0: c185 2a3d 5162 403c bca5 18bd 50cc 2a3d
000003d0: 8092 573c 8046 c439 040e 6abc 1753 b2bc
000003e0: c099 043a 78ed 30bd b7be 1fbd 4ef3 3139
000003f0: d1bc 433c 864a 2f3d 2fdb ef3c 6667 9dbb
-0.019182391 0.035543434 0.017427286 -0.039958093 0.03145862 0.018382713 -0.03240448 0.032211147
0.017319776 -0.008864575 -0.0063489918 -0.037177306 0.03835671 0.02138146 -0.037100635 0.041850407
-0.026284881 0.01988379 0.02939492 0.034414265 -0.014748971 -0.0005583822 0.042793293 0.03101837
-0.033440847 0.008559963 -0.023496171 0.022909243 0.0052175103 0.041999944 0.025784578 -0.036791727
0.011276859 -0.0009259936 -0.025554968 -0.027172778 0.032942608 0.018618055 0.028437702 -0.033757195
0.013650447 0.026132066 0.007017203 -0.03090148 -0.019959142 0.026613668 -0.024318887 -0.0037372427
-0.012204388 0.0033509932 -0.04242244 0.0077928826 -0.043595497 -0.02037851 -0.039338354 -0.02385938
-0.019495688 0.033733007 -0.038162995 0.036151014 -0.009617953 0.002019897 0.0018615653 0.0119773
-0.025777387 -0.010572508 -0.032718997 -0.007909073 -0.04284309 -0.03472724 0.0009895503 0.031289462
-0.039548855 0.024884172 0.01777373 -0.0021270565 0.0354291 0.01255592 -0.041936614 0.017301153
0.01625902 -0.013399936 -0.038463876 -0.0131237535 -0.036807526 0.03991856 -0.03716869 0.0027733739
0.036871463 0.038275927 -0.03766971 0.024510382 -0.0113599785 -0.021878425 0.039457373 0.026615616
0.03662337 0.041482646 -0.018048491 0.012900598 -0.039661013 0.033784498 0.007011294 -0.0062217275
0.005759696 0.033041723 0.040855553 0.030074818 -0.01818333 -0.019093802 -0.011299381 -0.042408425
-0.043732855 0.043784183 -0.03458402 0.019204063 0.03965915 -0.0072633186 0.03484987 -0.029102614
0.025462482 0.017358713 -0.0006249304 0.04034556 0.03675926 0.018315125 0.041910335 0.0012528291
-0.0007372504 -0.009946264 0.0018872275 -0.012640156 -0.02090321 0.012837982 -0.0010428637 0.03830659
-0.038763165 0.03292121 0.033313084 -0.0071785413 0.010859106 -0.042118248 -0.029567098 0.03672785
0.010867855 0.02323117 0.013338976 -0.041145243 -0.007524571 -0.022734066 -0.025770644 -0.032068454
-0.00013565496 -0.016350366 0.0055065677 0.024769617 -0.031825982 -0.021671494 -0.008803238 -0.04183581
0.04101981 -0.029848238 -0.034694735 0.018405482 -0.034594283 0.015381823 -0.025128318 0.032184336
-0.015855895 -0.020799104 -0.04083892 0.03189367 -0.028603878 0.020146655 0.029265586 0.039091613
-0.009711154 0.03524317 0.041424897 -0.026972681 0.0075605484 -0.0048126103 -0.024675203 -0.004045829
0.001910151 -0.020009633 -0.043477487 0.03994898 0.0069241785 0.009214111 0.0057499935 -0.019291613
-0.00025230274 0.03022882 -0.009287406 0.0029910493 0.03168302 -0.028464638 -0.013648463 -0.0022957688
0.02766329 0.020234933 -0.014504804 0.030480143 -0.03529817 0.043851603 -0.04193747 0.038594563
-0.011212559 -0.043074016 0.019314738 -0.02675855 0.024888083 0.009380329 -0.017525004 0.0046937293
-0.0053686094 0.0099793235 0.027821805 0.0035140393 0.0007435649 0.035837896 -0.008433103 -0.011957029
-0.014503446 -0.020681463 -0.03212829 -0.03833138 0.021300482 0.029799301 -0.014573986 0.042470023
-0.008474818 -0.030485256 0.012602803 0.012448233 0.023559364 0.03396086 -0.044026602 0.029029517
0.041631464 0.01174219 -0.03726743 0.041698754 0.013157487 0.0003743656 -0.014285568 -0.021768136
0.0005058311 -0.043195218 -0.03900024 0.00016970673 0.011946873 0.04279568 0.02927932 -0.004803586

fc2.bias f4 [256]
00000000: b190 dc3b f0a3 d2ba 9fef f33c 5833 a3bb
00000010: 3cc3 983c 30bb a43b 5a0e 253d 465b 3a3c
00000020: 93f6 133c 683a 263d 295e 453c 0488 fe3c
00000030: 3b3f b13c 13e6 aebc af8e dabc 1eb1 223d
00000040: 4324 713c e8c7 d1bc c00d cbbb 2c95 51bc
00000050: 70a4 0d3c f044 a6bc 4885 eb3c 7d8e 9dbc
00000060: bcc7 0e3d d6a7 c3bb cb54 8abc 7a9d 073c
00000070: 90bb a8bc cb45 8c3c 3f53 babc b6fa 31bd
00000080: 4f71 573c 4845 0dbd 9269 00bd 84ef a4bc
00000090: dc53 8b3c e724 08bd 5b99 17bb c5d3 30bd
000000a0: af92 c1bc faea 81bb 6078 003d 1ef2 183c
000000b0: c7d0 db3c 2c08 073d 3a1f b3bb 77a6 103d
000000c0: b6ab 70bc 8cdf 243d a5c4 0f3c dfdf 1f3d
000000d0: 00e3 59bc 942e 6dba c113 e93c 6143 e53c
000000e0: 24dc f53c 5023 003d 6035 01bd b084 babc
000000f0: 4819 d13c 174f 27bd b24e 003d c5e3 a03b
00000100: 5e3c 8d3c ad41 913c 7909 07bd bfa3 77bc
00000110: 61a2 8f3c 329a bb3b 4897 92bc 993c 0fbd
00000120: 11d4 02bd fc3b 3a3c 1c43 b33b de9c d3ba
00000130: 647d 08bd 3af8 023d e9f3 1abd 92a8 fd3c
00000140: fa71 163c ef25 b1bc c553 7c3c 9add ce3b
00000150: 9c38 a4bc d8a3 c1bc 2c8d 5e3c b832 2d3c
00000160: 39ff 193d 0cb7 c6bc 8d3b 1abd 0d38 46bb
00000170: a1ed a23c 2a02 27bd 7b7a 4ebc d00a 093d
00000180: 20a0 24bd 1918 093d 9f4e 03bd 2e15 023d
00000190: 7f2a 473b 88ef 073d 8cb8 d43c 2cea 293d
000001a0: 4681 033d 0c11 143d f117 1d3d 3241 ca3c
000001b0: c100 fdbb 2cd5 11bd 62ab 34bd 1996 e93c
000001c0: 62db 8bbb 5855 81bc 6ab3 dabc 67c3 043d
000001d0: a31e 8cbc 9a6a b23c ed84 12bd cf58 2e3d
000001e0: 98f9 0cbd d45c b23c ed55 2f3c 29f6 2d3d
000001f0: 8e92 a6bc 8d1c efbc 1c58 85bb 1ea7 e9bb
00000200: e328 2a3d 19c5 30bd b496 2b3b 0341 46bb
00000210: 027e 803b ee20 1cbc 4750 67bc 30a3 f43a
00000220: b36b 7fbc 5c74 b23c 7a1c 1e3c 18a6 2cbc
00000230: 5ca7 09bb d6ed c2bc 4b32 563c dc54 0c3d
00000240: ee4f 033d eb79 3abc aff2 e3bc cd6f 9cbc
00000250: 3bb9 32bd 3b19 f03c 6dfc f93c 74fc abbc
00000260: 79d2 0d3d 2673 1bbd db0a 3b3c 9ad7 073d
00000270: 27c4 16bd 8eda 1abc 1320 7abc 1e14 233d
00000280: 2814 373c bb1b 853c 8e3b c7bc 7c2a 173c
00000290: 2bbc 15bd bb64 583c 3168 84bc a582 43bc
000002a0: ca69 b3bc 4e51 bb3c 220e fe3c 82bf b63c
000002b0: 3510 6a3c d647 10bc 1c38 93bc 1bee 1abb
000002c0: 40db 113c 6686 20bd 00a0 f13b fdc0 45bc
000002d0: 09e7 183d 5563 773c 6e52 09bd b71a acbc
000002e0: 7a7f 20bc 8e40 e9bc d64d 7cbb 8092 9fba
000002f0: 9486 94bb 04ec 00bc 3d49 a1bc 01ff 87bc
00000300: ff16 a7bc 9445 adbc 47c8 1abd 1bd3 77ba
00000310: 39d9 783b 4897 253d d7cb b6bc 554a 443c
00000320: 5be7 093d 86f9 90bc c14d 1ebd f09d b9bc
00000330: af7e 0b3d b92a 9aba 6686 15bc 5058 2e3d
00000340: 5274 59bb 254b 8e3c 0cd5 96bc 6a80 4b3b
00000350: d916 f23c 518c 333d a1ef 173d a52a 85bb
00000360: 544c c83c 1c1b 73bc f4c2 be3c 0575 bb3b
00000370: 01f0 3d3c 7633 e2bc 6b08 d7ba 1fe1 ecbb
00000380: ce95 1d3c e323 c23c 59ce 943c 0a18 63bc
00000390: b797 213d c20b 2bbd 85f8 123d c798 843b
000003a0: c774 61bb 53be 633c 4bbb 003d 3bff afbc
000003b0: 5bf9 33bc 5460 19bd 73ab d8bc f62f 043d
000003c0: 8ce1 283c 057f 1abd 985c a93c 9cb1 11bd
000003d0: 5465 46ba 29a2 bf3c 0553 2f3d 8c5f b13c
000003e0: c650 4e3c 3fe7 b3ba 9af3 0a3d c9da c6bc
000003f0: 1371 75bc 6f1f dc3c fe41 163c a06c e73c
0.0067311157 -0.0016070586 0.029777346 -0.004980486 0.018647783 0.0050271973 0.04029689 0.0113743
0.009030956 0.040583044 0.012046375 0.031070717 0.021636596 -0.021349942 -0.026679365 0.039719693
0.014718118 -0.025608018 -0.0061967075 -0.012791913 0.008645162 -0.020296544 0.028750077 -0.019232983
0.03485845 -0.0059709353 -0.016886136 0.008277291 -0.02059725 0.017123124 -0.022744773 -0.043451987
0.0131495735 -0.0344899 -0.03135068 -0.020133741 0.01700776 -0.033238318 -0.0023132178 -0.04317071
-0.023629515 -0.003964779 0.0313648 0.009335069 0.026832951 0.032966778 -0.005466369 0.035315003
-0.014689377 0.040252253 0.008774911 0.03903186 -0.01329875 -0.0009047773 0.028451802 0.02798623
0.030012198 0.031283677 -0.031545043 -0.022768348 0.02552475 -0.04084691 0.03132505 0.0049099647
0.0172407 0.017731512 -0.03296802 -0.015114724 0.017533483 0.0057251686 -0.017894402 -0.0349699
-0.031940524 0.01136684 0.0054706465 -0.0016144773 -0.033322707 0.03197501 -0.037830267 0.03096417
0.009182448 -0.021624533 0.015400832 0.006313038 -0.020046525 -0.023637697 0.013583463 0.010571174
0.037596915 -0.024257205 -0.03765445 -0.0030245811 0.0198887 -0.04077355 -0.012602444 0.033457577
-0.04019177 0.033470247 -0.0320574 0.03175848 0.003039032 0.03318742 0.025966905 0.04148309
0.032105707 0.03614907 0.03835291 0.02468929 -0.007721037 -0.035603687 -0.044108756 0.028513955
-0.004268096 -0.015787765 -0.02669688 0.032412913 -0.017104452 0.021779347 -0.0357713 0.042565163
-0.03441772 0.02177278 0.010701639 0.042471085 -0.020333555 -0.029188419 -0.0040693413 -0.0071305176
0.0415429 -0.043156717 0.0026182355 -0.0030251152 0.0039212713 -0.009529335 -0.014118261 0.0018664356
-0.015589642 0.021784 0.009650344 -0.010537647 -0.0021004295 -0.02379505 0.013073514 0.034260616
0.03205865 -0.011381607 -0.027825681 -0.01909628 -0.04363368 0.029308906 0.030515874 -0.020994402
0.03462455 -0.03795161 0.011416162 0.033164598 -0.03680816 -0.009451522 -0.015266436 0.039814107
0.011174239 0.016248574 -0.02432039 0.009226438 -0.036556404 0.01320761 -0.016162964 -0.011933004
-0.02190103 0.022865918 0.031012598 0.022308115 0.014286091 -0.0088061895 -0.017971091 -0.0023640457
0.008902371 -0.039190672 0.00737381 -0.012069938 0.037329707 0.015099366 -0.033525877 -0.021008832
-0.009796018 -0.028473165 -0.0038498542 -0.0012174398 -0.0045326445 -0.0078687705 -0.019688243 -0.016601088
-0.020396708 -0.021151341 -0.037788656 -0.00094537594 0.0037971272 0.040427476 -0.022313995 0.011980613
0.033667903 -0.017697107 -0.03864837 -0.022658318 0.03405636 -0.0011762 -0.009126281 0.04256469
-0.0033180905 0.017369816 -0.018412136 0.0031051883 0.02955191 0.043834988 0.037093762 -0.0040639215
0.024450459 -0.014838006 0.02328632 0.005720737 0.011592866 -0.02761243 -0.0016405707 -0.007228985
0.009618236 0.023698753 0.0181648 -0.013860712 0.039451327 -0.04175926 0.035881538 0.004046533
-0.003440188 0.013900357 0.031428616 -0.021484008 -0.010984744 -0.03744538 -0.02644894 0.0322723
0.010307681 -0.03771879 0.020674035 -0.035569772 -0.00075681997 0.023392754 0.042803783 0.021652006
0.0125925 -0.0013725533 0.033923723 -0.024274247 -0.014980572 0.026870457 0.009171007 0.028250039

fc3.weight f4 [128, 256]
00000000: 23c0 29bd 270f 9cbc 2937 1e3d 99e7 74bd
00000010: b27b 0c3d f2ff 783d ce56 ac3c 4842 09bd
00000020: ae70 fb3c 74f3 d93c 5cc0 5dbb 9cbc 2dbd
00000030: cfd8 7cbd 38b9 10bd cc9b dcbc bec1 77bc
00000040: efc5 21bd 0bf8 20bc e319 03bd 74e1 fc3c
00000050: ede8 d43c 49f1 33bd eb66 11bc e709 8f3c
00000060: 12c3 73bd fe1c 29bc 38f7 1c3d 44d8 7cbd
00000070: 4f93 babc 4bc7 083d bbfe 29bc 8f72 abbc
00000080: e794 353d 2c98 2dbd 866f 523d dc39 4abd
00000090: db06 a33c 742e 1fbd e33d 5bbd e41d 8dbc
000000a0: 85c3 1d3d 6d38 ecbc f73b 7cbc be42 033d
000000b0: c26a 533d da82 db3a 053d 723a 4ed7 ca3a
000000c0: 8dad 083d 84c2 323d 109c 84bc 47f5 0e3d
000000d0: b5b5 d7bc 81c4 f3bc 44c5 763d ec43 dd3c
000000e0: 088b 0fbd dc35 873b 52bf 183d 4871 543d
000000f0: 12a0 01bd 16cc f1bc 2677 04bd ea8c d83c
00000100: ce29 1bbd 6e85 edbc e4a8 40bd f091 673c
00000110: 565e 46bd 173a 71bd 27b0 333d 25b0 db3b
00000120: 7723 7b3d 3f24 a9bc f173 5a3d a6c2 43bc
00000130: 6758 64bd 2c00 403d b0a0 173b d253 dfbc
00000140: 4722 453d 5947 a53c 7dad 51bd d308 373d
00000150: 98e7 163d f128 69bd 9560 6c3d 01da ae3c
00000160: 434a 16bd 1463 6a3d 6ccc e13c 791c 1bbd
00000170: 2745 233d f419 15bd 8915 f13b a640 323d
00000180: ac7a 32bc 2be3 76bd 40d2 1b3d b58b efbb
00000190: acb0 303d 994a 8a3c 5425 77bd 6f91 433d
000001a0: f364 28bd 95de 88bc f5bc 263d 3194 3bbc
000001b0: fb4e 38bd 438f 59bd 6fd7 42bd ffe8 ea3c
000001c0: 926e 7d3a f9ab 083c 1137 54bd 687c 2eba
000001d0: 5a39 7cbd ebc5 573d 07ce 1bbd 1abc 2e3d
000001e0: af1c 3abd 664e 943c 50a0 53bd 3634 b7bc
000001f0: 031a 9f3b 1274 2d3c 603e 11bd 7c41 213c
00000200: 9861 363d e2db e83c f4d3 62bc 90e0 a13c
00000210: 3e7f 0e3d b4f5 0fbd dfac 163d 7149 24bc
00000220: cf20 203d 8cb8 e1bc ae0b 993c 6613 f8bc
00000230: fe3a 3bbd 802b febc 0d8d 87bc 7924 e03c
00000240: 35aa 06bc e5d0 1e3d 7d50 1bbb 201c b1bc
00000250: a3c0 a13c 84a0 1b3d 3031 69bc 72bd d2bc
00000260: 1276 8d3b 0735 333c f5eb 7c3d 4808 8f3b
00000270: ad1d b9ba 6b6c 0cbd 4d58 9ebc 3989 19bd
00000280: 8b01 053d c4cf 353d c583 c0bb 7ca6 0ebd
00000290: 6575 74bc 3d47 d0bc b011 f33c 15a0 153d
000002a0: 283a 30bd 514d e9bb 170a d5bb e304 6c39
000002b0: 9d98 283d 6b80 62bc 9823 793c 431f a0bc
000002c0: 689e 503d f717 743c 9807 20bd 36c1 56bd
000002d0: ab11 0fbc 8f3c a83c ebb0 21bd ace8 30bd
000002e0: b650 3b3d a379 c33c 8015 a9bc 17d6 7dbd
000002f0: 8a21 053d 2c7d 513d bb0d f03b 8d97 72bd
00000300: 2ef6 04bc 00fd 9abc bd00 3b3d 5eb1 693a
00000310: 2945 283d f5da 053d bbe7 24bb ba75 04bb
00000320: 23ab 76bd 086b 75bc 38fd dd3c 5650 11bc
00000330: 17fb bfbc f5b3 16bd 88ea fb3b 2b12 4ebd
00000340: 670c 203d 5a6d b63c 23cc b6bb d008 293d
00000350: 8904 003d 9f4b 4d3d 0445 b2bc e669 df3c
00000360: 75b2 bdbc ddf8 883c 5f25 663d 1eca 5dbd
00000370: 0aeb 363d 0ed3 55bd 5f4a b7bb 7071 73bd
00000380: c9eb 9c3c e5ed 5b3d e74f 583d 7dd9 28bc
00000390: 7ae9 60bd e089 383c 9065 d4bc 69a1 3dbd
000003a0: 8ea3 7fbd 1369 34bd 3051 0c3b 5d6c 6a3d
000003b0: af31 12bd da93 5a3d 5ab9 0c3b 93ec 523d
000003c0: c159 813c d989 40bd a81a 83bc 020f 303d
000003d0: 2671 fd3c daba 27bd af65 bd3c 6df6 5ebc
000003e0: 2df7 983c 14a1 e7bb ed3a 5b3d baed 16bc
000003f0: e31a 0c3d 3d94 39bc b452 1ebd 5354 68bd
-0.041443 -0.019050194 0.038626824 -0.05979118 0.034297653 0.060790963 0.021037485 -0.033510476
0.030693378 0.026605345 -0.003383658 -0.0424162 -0.061730202 -0.03533289 -0.026929758 -0.015121875
-0.039495405 -0.009824763 -0.03200711 0.030869223 0.025989974 -0.04393128 -0.008874635 0.017460776
-0.059512205 -0.010321854 0.038321704 -0.061729684 -0.02277532 0.033393186 -0.010375674 -0.02092865
0.044331457 -0.04238145 0.05137589 -0.049371585 0.01990073 -0.03886266 -0.053525817 -0.017226167
0.03851654 -0.0288355 -0.015395156 0.032046072 0.051615484 0.0016747371 0.000924066 0.0015475543
0.033368636 0.043642536 -0.016187698 0.034901883 -0.026331762 -0.029756786 0.06024672 0.027009927
-0.0350447 0.0041262936 0.037291832 0.051865846 -0.031646796 -0.029516261 -0.03234019 0.02643438
-0.037881665 -0.028994288 -0.047036067 0.014133915 -0.04842981 -0.05889329 0.043869164 0.0067043477
0.06131312 -0.020647166 0.053333227 -0.011948263 -0.05574837 0.046875164 0.0023136549 -0.027261648
0.048128393 0.020175623 -0.051190842 0.04468615 0.03684196 -0.05692381 0.057709295 0.021344187
-0.036691915 0.057223395 0.027563296 -0.03786895 0.03986087 -0.036401704 0.0073573035 0.043518685
-0.010893505 -0.060275238 0.038042307 -0.0073103555 0.043137237 0.016881274 -0.060338333 0.04774612
-0.041111898 -0.016707698 0.040707547 -0.011448906 -0.044997197 -0.05311514 -0.047568735 0.028675554
0.00096676603 0.008341783 -0.051810328 -0.0006656111 -0.061578132 0.052678984 -0.03803828 0.042659856
-0.04543751 0.01810379 -0.051666558 -0.022363763 0.0048553958 0.010586755 -0.035459876 0.009842273
0.044526666 0.02842516 -0.013844479 0.0197604 0.034789316 -0.03514643 0.036785956 -0.010027275
0.03909379 -0.02755382 0.018682327 -0.030282687 -0.045710556 -0.031026602 -0.01654675 0.027361142
-0.008219291 0.038773436 -0.0023699098 -0.021619856 0.019745177 0.037994877 -0.014232919 -0.0257251
0.0043170536 0.010937936 0.061748464 0.004365001 -0.0014123224 -0.034283083 -0.019329214 -0.03748438
0.032472175 0.044387594 -0.005875083 -0.03482674 -0.014920567 -0.025424594 0.02967152 0.03652962
-0.043024212 -0.0071198125 -0.006501447 0.00022508534 0.04116117 -0.013824563 0.01520624 -0.019546157
0.050932318 0.014898292 -0.039069742 -0.052430354 -0.00873224 0.02053669 -0.039475363 -0.043190643
0.04573127 0.023861712 -0.020640135 -0.06197175 0.03250269 0.051144764 0.0073258555 -0.05922656
-0.008115334 -0.018919468 0.045655 0.00089146744 0.04108158 0.032679517 -0.0025162536 -0.0020211772
-0.060221802 -0.0149791315 0.027098283 -0.008869251 -0.023435159 -0.036792714 0.0076878704 -0.050310295
0.039074328 0.02226894 -0.005578534 0.04126817 0.031254325 0.050120946 -0.021761425 0.027272176
-0.023156384 0.01672023 0.056187984 -0.054147832 0.044657744 -0.05220323 -0.0055935825 -0.059434354
0.0191554 0.05369367 0.052810576 -0.0103057595 -0.05491016 0.011263341 -0.025927335 -0.04629651
-0.062411837 -0.04404552 0.0021410696 0.05723225 -0.035691913 0.05336366 0.0021472783 0.051495146
0.015789868 -0.04700646 -0.016003922 0.042983063 0.030937742 -0.04094968 0.023119776 -0.013608557
0.01867255 -0.0070687626 0.053522993 -0.009211952 0.03420533 -0.011326847 -0.03865309 -0.056721043

fc3.bias f4 [128]
00000000: f006 3abd c6e1 553d aaaa 5e3d fdbe 223a
00000010: fe04 e83b 747e 71bc 6d8e 253d 7c86 33bc
00000020: d68b 0bbc 6100 4abd 50b3 67bd 1e76 bbbc
00000030: ec5e 6d3d b453 72bc 7328 843c 4e6e 57bc
00000040: 1385 06bc 91b5 2bbd 3962 753a ef48 e93c
00000050: 0a11 4cbc da3c 82bd 4e5b 10bc 545c 453d
00000060: c7de 7bbb ff65 323d 8146 8fbb 86ec 503d
00000070: 94ba 853d d252 473d fb39 723d c28f d8bb
00000080: ec4c d2bc 8341 9d3c d673 093d a8e4 41bd
00000090: 40a5 b5bb 1a9c 53bc 215e b5bc cce4 67bd
000000a0: 0872 46bd 8b37 b9bc be92 443c 3cdf cd39
000000b0: 541c 7abd a3fd 57bd 61d2 8b3c ec72 33bd
000000c0: 1eed 293d 37f5 453c 12cc 9ebc d3f0 513d
000000d0: 7c19 f63c 0dd8 2c3d c695 7bbc 28ba d93c
000000e0: d61b 363c 1c58 f5bc a709 a8bb d418 1e3d
000000f0: baf6 5fba 544c fa3c f3b1 323d 467b 9d3c
00000100: d73e 7aba dfb6 2b3d 15ba 613d ec63 2d3a
00000110: db18 543d 4612 4cbc 97da 18bc 12d9 5e3d
00000120: ff37 b2bc bd26 313b ffc9 5a3d 82ee 1bbd
00000130: ee9d 6ebd f106 79bd 849c 43bd 0ed7 25bd
00000140: e40d afbc 9410 d03c 8672 63bd 221b 8c3c
00000150: 7f8e 9fbc e02e 20bd 62c7 51bd 5e05 a6bc
00000160: 08df 873c ce8c 253d 353f 9abc 5624 443c
00000170: 8c05 c8bb 7a2b ee39 13ab 153d 5711 553d
00000180: 0d29 20bd 5292 7bbd 87b4 7f3d a18c f3bb
00000190: bba0 6e3d 30e1 293d e476 29bd a56b 44bd
000001a0: 3d1a 233d af35 c13c 85ec 583d 8f42 b7ba
000001b0: 5507 a93c 4b2b aa3c 8ba7 063d b2c0 683d
000001c0: 9b53 7f3b 3998 5f3d 1d58 99bc 4541 7d3d
000001d0: 8f96 23bd e4eb ac3c 8097 f4bc 1a13 b73b
000001e0: 29d9 2fba 3422 673c d35c 64bd f7d9 62bd
000001f0: 0e98 7dbd 5b4b c6bb 7f7b 5cbd 8fb2 303d
-0.045416772 0.052217267 0.054361977 0.0006208269 0.0070806732 -0.014739621 0.04041903 -0.010957357
-0.008517226 -0.049316768 -0.05656749 -0.022883471 0.057951853 -0.014790464 0.016132569 -0.013148857
-0.008210438 -0.041921202 0.00093606446 0.02847716 -0.012455234 -0.06359263 -0.008810831 0.048183754
-0.0038432346 0.043554302 -0.0043724184 0.051006816 0.065297276 0.048662968 0.059137326 -0.006608934
-0.025671445 0.019196277 0.033557735 -0.047337204 -0.005543381 -0.0129156355 -0.02213961 -0.056614682
-0.048448592 -0.022609493 0.011997877 0.0003926697 -0.061062172 -0.05273212 0.01706809 -0.04381077
0.0414859 0.01208239 -0.019384418 0.05125506 0.030041449 0.04219823 -0.015355533 0.026578024
0.011115035 -0.02994924 -0.005128104 0.038597897 -0.000854354 0.030553974 0.043626737 0.01922382
-0.0009546107 0.041922446 0.055109102 0.0006614316 0.051781517 -0.012455529 -0.00932946 0.054406233
-0.021755217 0.0027031146 0.053415295 -0.038069256 -0.058256082 -0.060797635 -0.047756687 -0.040488295
-0.021368928 0.02539853 -0.05552914 0.017102782 -0.019477127 -0.039107203 -0.051215537 -0.020266231
0.016585842 0.040417485 -0.018828968 0.011971554 -0.006104177 0.0004542729 0.036540102 0.05201849
-0.03910165 -0.06141884 0.062428024 -0.0074325358 0.058258753 0.04147452 -0.04137315 -0.04795422
0.039819945 0.023585169 0.052959938 -0.0013981628 0.020633379 0.020772597 0.032874625 0.056824394
0.0038959745 0.05458853 -0.018718773 0.061829824 -0.039938506 0.021108575 -0.029857397 0.005586994
-0.00067080796 0.014107276 -0.055752587 -0.05538365 -0.06191259 -0.0060514635 -0.053828713 0.043139037

fc4.weight f4 [64, 128]
00000000: 531f 3c3d 4281 35bd a0b7 103c a348 afbb
00000010: f4a6 853d 671d ac3d 1c88 9cbd 646b 333d
00000020: d457 5f3d ace2 b43d adbc 063d e4a5 0c3d
00000030: bda0 8e3b b99f 79bd 5fbc 04bd b321 9f3d
00000040: 48c0 8e3d 804d 923c e57d df3c a1a3 64bc
00000050: c9bb f8bc bd04 94bd b647 9b3d 8e02 30bd
00000060: 8140 933d 308e 97bd a907 86bd cd48 ebbc
00000070: b975 ba3d 8d70 213d 3539 82bd f4e5 80bc
00000080: b801 dabc 1bc0 963d f8cb 2bbd c2e5 b83c
00000090: 6c90 3a3d 3f83 edbb 895a 53bd 9dbf 943d
000000a0: 9f28 4abb 91db 37bd 9ef6 c3bb bd33 c93c
000000b0: 35bd aebd e004 fb3c 8ea1 a1bd 4300 723d
000000c0: d7e1 3ebd c7a9 743d babf 45bd 65fc 1a3d
000000d0: 7517 aabd 4101 50bc 2f58 273c 5a17 b43d
000000e0: 7749 b33d 7078 cdbb 2f95 a2bd 5b55 7e3d
000000f0: 3d82 ef3c 9e21 2fbd 12e4 2a3d cc94 abbd
00000100: befa ad3d 0d28 613d 5e2a fb3b 037a c7bc
00000110: fa46 94bd a8b5 85bd 0ec7 b53d 1695 61bd
00000120: a4e6 65bd 466e 863d 404e b4bd 34f3 8bba
00000130: 62f2 a63d d1fb a93d 4d09 44bd 0c6a 943d
00000140: c83d 7a3d 5897 06bc 5c8f a4bc ba81 ac3c
00000150: 13e0 58bd 17a3 f4bc 88a6 f43c 5ce9 763d
00000160: e96e 143d 6ae8 1dbd d0b5 f4bc 9fc9 723d
00000170: ac22 f73c ef1f 34bd 439c 2f3d 60ea 143d
00000180: 3cf7 42bd 569c 4f3d 24c2 4cbd 22e2 43bd
00000190: 140b 0f39 6452 48bd e054 0cbd 47ff 523d
000001a0: 1926 763d b91c 7dbd 150b 69bd e892 a2bd
000001b0: 86f3 3dbd 0da5 cbbc 1c7a 7abd 7e42 e43c
000001c0: f38e 3e3d eb3a 993d 5552 9c3c 7cc3 933d
000001d0: ae59 7fbd ee59 8abd 2851 27bc 78a7 1c3d
000001e0: 9b77 73bd 3e0f ddbc f3d8 5e3d 9e78 5fba
000001f0: 6454 a33d 26a8 b3bd 5d02 8a3c 122a 7f3d
00000200: 3ee5 583d 11e8 81bd 464e 48bd c022 84bc
00000210: 3b97 883d 9169 47bd ce36 ee3c 13c6 c3bc
00000220: cf02 183d 2ed5 90bd d233 d4bb 9d14 4dbd
00000230: b68f b03d 8c18 b33c 3b72 443d 70c2 a0bb
00000240: a4de 893d 5e7f a2bd 7e15 7f3d 4778 cbba
00000250: 6406 2cbd bd19 22bc 42de 8a3c 5703 a9bc
00000260: c0f5 a5bc 486e 813d 15d5 ee3c 099c 723d
00000270: 60fb 393d f581 123b 2c58 193d 3743 a53c
00000280: 174e eeb9 e814 663d 6211 a0bd 82ea 34bc
00000290: d72a baba e31b 37bd 43e8 8abb 66b4 d7bc
000002a0: dae4 a1bd 160c 8cbd 0280 abbd 9a9e a73b
000002b0: c102 a2bd 8bb1 323d 4991 8d3d 6bb0 af3b
000002c0: ed99 fb38 9173 1dbd 818e 023d ce20 583d
000002d0: 06f4 e63c 799b 5dbd b1d8 58bc 1ee9 623c
000002e0: 80ca 36bd 5aae 94bd ca25 b5bc 4cab 8bbd
000002f0: 6af4 343d 301a 5dbc cb05 253d c127 b9bc
00000300: cf3c 80bd e5a2 9f3d 49aa 23bb bcac 89bc
00000310: ceae a0bd 02c1 b3bc 8140 6c3d 96ef e9bc
00000320: f235 f7bc 64a3 803d e0f2 63bd b1fe c63b
00000330: 27d9 adbd db62 d7bc 1cc1 fd3c 0cb4 303d
00000340: a654 abbd 9359 aabd 215f 883d 9ffe c03c
00000350: 566b 91bd 6eaf b73c be19 173d 55cf a53d
00000360: 0d0b 5c3d 58a0 05bd 2b5e 81bd 6bf1 adbd
00000370: 2cf8 dcbc 54c0 883c 1461 ae3c 1323 973c
00000380: 7a22 1c3d a11a e8bc 6699 adba ebd7 f53c
00000390: 4e9c b43c e0f8 d9bb 4c31 313c d735 39bd
000003a0: 9cac 16bd 5dbf aebb 0714 cebc 6ace d83c
000003b0: b080 373d a8e8 88bd d831 013d b50b 01bc
000003c0: 81f1 8c3d ea1d 85bd 6149 873d 29c7 59bc
000003d0: 56f9 96bb ddae c1bc cefa 7fbd 1781 44bd
000003e0: 546b 48bd c5a1 57bd f7a6 bc3c 23d2 b8bc
000003f0: 8a20 bb3c c57d a8bd f784 073d 1649 6f3d
0.04592831 -0.044312723 0.008832842 -0.005349235 0.065259844 0.084040456 -0.07643148 0.043803588
0.05452712 0.08832297 0.03289478 0.034337893 0.0043526576 -0.06094334 -0.032406207 0.077700995
0.069702685 0.01785922 0.02728171 -0.013955028 -0.03036298 -0.07227466 0.07582037 -0.042971186
0.071900375 -0.07400167 -0.0654443 -0.028721238 0.09104485 0.039413977 -0.063585676 -0.01573465
-0.026612148 0.0736086 -0.041942567 0.022570495 0.045547888 -0.007248312 -0.051600013 0.0726311
-0.0030846966 -0.04488713 -0.005980327 0.024560804 -0.08532182 0.030641973 -0.07892142 0.05908228
-0.046602096 0.059732225 -0.048278548 0.03783836 -0.08305255 -0.012695611 0.010213896 0.087935165
0.08754247 -0.006270461 -0.07938611 0.06209312 0.029236907 -0.04275667 0.04172141 -0.0837799
0.08495091 0.054969836 0.0076649627 -0.024350172 -0.072401 -0.06528789 0.08875857 -0.05507382
-0.05612816 0.06564002 -0.088039875 -0.0010677339 0.081516996 0.08299983 -0.047860432 0.07246789
0.061094075 -0.008214794 -0.02008789 0.021057952 -0.05294807 -0.029862924 0.029864565 0.060281143
0.036238585 -0.038551725 -0.029871851 0.059274312 0.0301679 -0.043975767 0.042873632 0.03635633
-0.047599062 0.050686203 -0.049989834 -0.04782308 0.0001364167 -0.0489067 -0.03426063 0.051512983
0.060094927 -0.06179497 -0.056895334 -0.079381764 -0.04637482 -0.024858976 -0.06115161 0.027863737
0.046523046 0.07481941 0.019082228 0.0721502 -0.062341385 -0.06755434 -0.01021222 0.03824565
-0.059440237 -0.026984807 0.054406118 -0.0008524748 0.079750806 -0.08772306 0.01684683 0.06229598
0.052952997 -0.06343091 -0.048902772 -0.016129851 0.0666947 -0.04868466 0.029078867 -0.02389816
0.037112053 -0.07071911 -0.006475904 -0.050068486 0.08621161 0.02186229 0.0479605 -0.0049059913
0.067319185 -0.079344496 0.062276356 -0.0015523516 -0.041998282 -0.009893832 0.016951684 -0.020631475
-0.020258784 0.063198626 0.02915434 0.059230838 0.045405746 0.0022355292 0.037437603 0.020173652
-0.0004545308 0.05617228 -0.078158155 -0.011042239 -0.0014203441 -0.04470433 -0.0042391135 -0.026331138
-0.07904978 -0.06838243 -0.08374025 0.0051153423 -0.079106815 0.04362635 0.069124766 0.005361607
0.000119972836 -0.03844029 0.031874184 0.05276566 0.028192531 -0.05410335 -0.013235257 0.013849525
-0.044626713 -0.072598174 -0.022112746 -0.06819782 0.044178404 -0.013495013 0.040288728 -0.022601964
-0.06261598 0.077947415 -0.0024973324 -0.016805999 -0.07845841 -0.02194262 0.057678703 -0.028556626
-0.03017709 0.06281164 -0.055651546 0.006072842 -0.08488684 -0.026292255 0.03097587 0.043140456
-0.08365755 -0.08317866 0.066587694 0.023558913 -0.07100551 0.022422519 0.036889784 0.08096186
0.053721476 -0.03262362 -0.06316789 -0.084933124 -0.026973806 0.016693272 0.021286525 0.018449342
0.038118817 -0.02833301 -0.0013244569 0.030010184 0.022047188 -0.0066519827 0.010814976 -0.04521736
-0.036785707 -0.005332871 -0.025156034 0.026465613 0.04480046 -0.06685001 0.031541675 -0.007876326
0.06882001 -0.06499846 0.06605793 -0.013292112 -0.00460736 -0.023642952 -0.062495045 -0.047974672
-0.04893048 -0.05264451 0.023028834 -0.022561138 0.022842664 -0.08227114 0.03308579 0.05841931

fc4.bias f4 [64]
00000000: 8fe4 a93d db41 a6bd 965a 3dbd fcf7 06bd
00000010: 0ace b3bd a3a5 c9bc 9677 3ebc b70d 00bd
00000020: 20c9 983c de52 85bc 0471 aabd b38a 93bd
00000030: f90c 153d 3f8f 983d 9277 3cbd b797 babc
00000040: 0395 883d f61a 59bc 9be4 893c 76b7 30b9
00000050: cdb8 9bbd 5ed0 463d a691 733d 1a0d 80bc
00000060: 031d ca3b 4588 95bc 4d33 78bd 7e27 b03b
00000070: 8003 0d3d 942b ca3b 2dde 4abd e78e 1abd
00000080: beba 803d 26ba a0bd 285f 58bc d51a 95bd
00000090: 07f7 fc3d f62b c03c 9dd0 db3c dac8 6bbd
000000a0: 6a61 7b3d 34e2 48bd 9252 96bd 9b49 3b3d
000000b0: 5ebf aabd 6d03 873d ceef 783d 23a5 ea3b
000000c0: aa63 39bd 18a9 9ebd 6201 22bd d92d b7bc
000000d0: ca96 b7bb ca53 1dbd af85 39bd f678 523d
000000e0: d8ae a9bd c788 2abc be6b e9bc 7efc 73bd
000000f0: bd29 96bc 868e 31bc 0ae8 ed3c 812e 8d3d
0.08295547 -0.0811803 -0.046228968 -0.03295134 -0.08779533 -0.024615115 -0.011625191 -0.03126308
0.018650591 -0.016274866 -0.08322337 -0.07204189 0.036389325 0.07449197 -0.04601247 -0.022777421
0.06669047 -0.013251057 0.01683264 -0.00016853012 -0.07603607 0.04853856 0.059465073 -0.015631247
0.0061680092 -0.018253455 -0.0605958 0.0053758016 0.034427166 0.0061697457 -0.04952829 -0.03773394
0.06285618 -0.07848005 -0.013206281 -0.072805084 0.12351804 0.023458462 0.026832873 -0.057564594
0.0613722 -0.04904385 -0.07339968 0.045724493 -0.08337282 0.0659245 0.06077557 0.007160799
-0.045261063 -0.07747096 -0.0395521 -0.022360729 -0.0056026923 -0.038409986 -0.045293506 0.05138489
-0.08285302 -0.010408587 -0.028493758 -0.059566967 -0.01833045 -0.010837203 0.029041309 0.068936355

fc5.weight f4 [2, 64]
00000000: 968a e93d a100 3b3c ca3d 84bc ab4f b9ba
00000010: 76ac 19bd ce7e b0bd aa34 8c3d 035c 023d
00000020: 9332 be3d 778c 293d a9dd f03c 1173 d93d
00000030: a80c d1bd ca92 94bd 3203 e8bc 8c1d c6bd
00000040: 23f5 84bd 9d8a 853d f934 bb3d 6dab 993d
00000050: aa08 c93d 3f12 463d d61a 14bc fd3a a33c
00000060: 35fd efbc a52f b5bd 5315 a93d 6efc cebb
00000070: 487d 523c bf85 dc3c 7a11 c3bd a2e1 09bc
00000080: 769c 96bd 5292 fbbd 494e 94bd c4ca de3c
00000090: 2c23 203e 977b ea3c 90a3 b93d 70ec efbd
000000a0: 8db6 71bc e4c7 c1bc d0a6 debb c6a6 c83d
000000b0: c5ed 533c bdc1 e13d b027 f43b c0d5 45bd
000000c0: d528 9dbc fd92 bc3c a393 6abd 9d9b 3cbd
000000d0: 0f20 88bd 9b76 693d 2e27 003e 4c29 2bbc
000000e0: 5688 a5bd f644 55bd c463 ecbd 2ab6 a9bd
000000f0: 1ae7 3cbd 0362 72bd 292c bcbc 40e6 b8bd
00000100: eeab bfbd 3ee3 cfbd c14f f5bd 2263 c2bd
00000110: 12b4 a63d da53 9ebd 41b3 a9bb 75a9 9e3d
00000120: 7d2f ef3d dfac cabd 42c8 acbb 894a 6dbd
00000130: 9894 ce3d 47bf cebc 2bc9 1f3d 04f8 863d
00000140: c7e0 af3c 4211 8c3d 9678 02be c15c c73d
00000150: e06b a4bd bb68 f2ba 6799 7ebd 21cb 893d
00000160: 09e6 8ebd 09db f5bd 27b1 32bc 23ab 903d
00000170: 9bcd f5bd 2282 90bd 3e55 9b3c a778 5d3d
00000180: 2449 14bd 6bc8 41bd 4771 8bbd d339 913d
00000190: 8a3e 91bd fa31 b93d 605d e93d 1309 06bd
000001a0: 7002 36bd fc68 9f3c bfee e8bd 3052 9d3d
000001b0: 5866 44bd 0112 7a3d be54 073d 7261 cbbd
000001c0: 3677 9d3d 08a1 80bd e632 a8bd 2008 cbbb
000001d0: ab54 08bd e763 a53d 59dd 133c 474f a93d
000001e0: d4d7 6dbc 0edc a03d 1f00 3bbd 48dd 413d
000001f0: 66ca bc3d 1395 d2bb 87dd 09bb 8f9f d8bc
0.11403386 0.011413724 -0.016142745 -0.0014138123 -0.037517987 -0.08617936 0.068459824 0.03182603
0.0928699 0.041393723 0.02940257 0.1061765 -0.10207492 -0.0725456 -0.028321836 -0.09673604
-0.064920686 0.06520579 0.09140963 0.075034 0.09816106 0.048357245 -0.009039601 0.019925589
-0.029295543 -0.08846978 0.082560204 -0.006316713 0.012847252 0.026919244 -0.09524818 -0.008415611
-0.07354061 -0.12283768 -0.07241494 0.027196296 0.15638417 0.028623385 0.090644 -0.11715019
-0.014752996 -0.023654886 -0.006794788 0.097974345 0.012935107 0.11023281 0.00745102 -0.04829955
-0.01918451 0.023019308 -0.057269704 -0.046046842 -0.0664674 0.056997877 0.12514946 -0.010446858
-0.08082645 -0.05206772 -0.11542466 -0.08286698 -0.046118833 -0.059175503 -0.022970276 -0.09028292
-0.09358965 -0.10150765 -0.119781025 -0.09491564 0.081398144 -0.07730837 -0.0051788394 0.07747165
0.116789795 -0.09896254 -0.005272896 -0.05793241 0.10086936 -0.025237693 0.039010208 0.06590274
0.021469487 0.06839229 -0.12741312 0.09734488 -0.08028388 -0.0018494347 -0.062158015 0.06728197
-0.069774695 -0.12004668 -0.010906494 0.07063892 -0.12002107 -0.07056071 0.018961545 0.05407014
-0.036202565 -0.047310274 -0.06808715 0.07091107 -0.070920065 0.090427354 0.11394763 -0.032723498
-0.04443592 0.01945924 -0.11373662 0.07681692 -0.047949165 0.061052326 0.0330398 -0.099306956
0.07688753 -0.06280714 -0.08212833 -0.006196037 -0.03328387 0.080756955 0.009024941 0.08267074
-0.0145167895 0.07854472 -0.045654412 0.04733017 0.09218292 -0.0064264624 -0.0021036582 -0.026443271

fc5.bias f4 [2]
00000000: 54a4 113e 3cd7 39be
0.14222842 -0.18148512
