best_model.pth (torch, 711979 bytes, 9 tensors)

fc1.weight f4 [512, 8]
0	0xbc26d942	-0.010183634
1	0x3ee7178b	0.4513515
2	0x3e819fb1	0.25317147
3	0xbdba464f	-0.090954416
4	0xbe932a08	-0.28743005
5	0x3e8bac34	0.27279818
6	0xbe3107c5	-0.1728812
7	0xbdd3bedc	-0.10339138
8	0x3e4c92f0	0.19977927
9	0x3eb7e98c	0.3592037
10	0x3e5982f8	0.21241367
11	0x3c8d9cdc	0.01728671
12	0xbe9158fe	-0.28388208
13	0xbe1fd858	-0.15609872
14	0xbe946fb9	-0.28991488
15	0x3e631768	0.22176898
16	0xbd43246a	-0.04764215
17	0xbd5a9dfa	-0.053373314
18	0x3e5f5172	0.21808413
19	0x3e6900b1	0.2275417
20	0xbd20a964	-0.039224043
21	0x3c51e1ec	0.012810212
22	0xbe996957	-0.2996318
23	0xbe112be6	-0.14176902
24	0x3e9151ba	0.28382665
25	0xbe8212b9	-0.2540491
26	0xbdf74438	-0.120735586
27	0xbd19933e	-0.037493937
28	0x3e977e70	0.29588652
29	0xbe7a2509	-0.2442819
30	0x3ea56553	0.32303867
31	0xbd9b14c9	-0.07572324
32	0x3d5dfd40	0.054196596
33	0x3e96e113	0.29468593
34	0x3d143660	0.03618467
35	0xbe3f823b	-0.18702023
36	0xbe285393	-0.16438131
37	0xbdc92fc0	-0.09823561
38	0x3deff9b8	0.11717552
39	0xbd893494	-0.066994816
40	0xbd7c2d57	-0.061566677
41	0xbdee97a6	-0.116500184
42	0xbc9e1aea	-0.019299943
43	0xbe111976	-0.14169869
44	0xbd220c09	-0.03956226
45	0x3e0d2881	0.13784982
46	0x3e806d02	0.25083166
47	0x3cfeb24b	0.031090876
48	0xbea735fd	-0.32658377
49	0x3f117968	0.56825876
50	0xbdec1c9f	-0.115288965
51	0x3e8c50a8	0.27405286
52	0xbe0145ea	-0.12624326
53	0x3ed4dddb	0.41575512
54	0x3e285e3b	0.16442196
55	0x3e9b918d	0.30384484
56	0x3e3d20fc	0.18469614
57	0xbe9dda93	-0.3083082
58	0xbdd796fb	-0.10526844
59	0x3e7307be	0.23733422
60	0xbe6eaad9	-0.2330736
61	0xbea03b60	-0.312953
62	0xbd5f44bc	-0.05450891
63	0x3e8e565c	0.27800262
64	0x3db0b140	0.08627558
65	0x3e976d6d	0.29575673
66	0xbe8c1b08	-0.27364373
67	0xbdf75f77	-0.12078755
68	0x3e47b100	0.19501114
69	0x3d2f4d40	0.04279828
70	0xbe03970c	-0.12850589
71	0x3e75ef40	0.24017048
72	0xbdc72b70	-0.09725082
73	0xbec6c55a	-0.38822442
74	0x3e49656b	0.19667594
75	0x3e3d3ee9	0.1848103
76	0xbeb68d25	-0.3565456
77	0x3d608ce3	0.05482186
78	0x3e360b41	0.1777773
79	0x3e22b23d	0.15888305
80	0xbe6045c7	-0.21901618
81	0x3dc54afd	0.096334435
82	0xbeac24e2	-0.3362189
83	0x3e1c0594	0.15236503
84	0xbda4bf92	-0.08044352
85	0xbe6af61c	-0.22945446
86	0x3d088e3d	0.033338774
87	0xbdf0571f	-0.11735367
88	0xbdc088b0	-0.09401071
89	0x3df1bfba	0.11804147
90	0x3e180aa8	0.14847815
91	0x3b70fe93	0.0036772832
92	0xbe628578	-0.22121227
93	0xbe475afb	-0.194683
94	0x3c0f7ff0	0.00875853
95	0xbe22104b	-0.15826528
96	0x3edae96f	0.4275622
97	0x3e0adcb2	0.13560751
98	0xb96f762f	-0.00022836843
99	0x3e10e53f	0.1414995
100	0x3d8d8940	0.06910944
101	0x3c3e57bc	0.011617597
102	0xbe107d7a	-0.14110366
103	0xbe4b911d	-0.19879575
104	0x3d96a0d2	0.07354893
105	0x3c83831a	0.016053725
106	0xbe2ed9e0	-0.170753
107	0xbe92c71c	-0.28667533
108	0x3e576fe0	0.2103877
109	0x3eae3215	0.34022585
110	0xbcbf2acf	-0.023335842
111	0x3e3ee017	0.18640171
112	0xbea39302	-0.31948096
113	0xbea05941	-0.31318095
114	0xbe9c0143	-0.30469713
115	0x3e28ce0e	0.16484854
116	0xbd16b1a8	-0.03679052
117	0xbd3a6b98	-0.045512766
118	0xbda036a4	-0.07822922
119	0x3c3c7540	0.011502564
120	0xbe0baeff	-0.13640974
121	0x3e8e9fb1	0.2785621
122	0x3ea4bb6c	0.32174242
123	0xbe4d46db	-0.2004656
124	0xbe81f7ee	-0.25384468
125	0x3e028983	0.12747769
126	0x3d49dc1d	0.049282182
127	0xbdf48cb3	-0.11940899
128	0xbe0b9874	-0.13632375
129	0x3d9fe39d	0.07807086
130	0x3e553609	0.20821394
131	0xbd944040	-0.07238817
132	0xbec7c3de	-0.39016622
133	0x3e7adcf8	0.24498355
134	0xbe35e8af	-0.17764543
135	0xbeaff8a6	-0.3436939
136	0xbe308a39	-0.17240228
137	0xbeb4c37e	-0.353054
138	0xbe36f4e7	-0.1786686
139	0x3d75c754	0.060004547
140	0x3e3cfa9c	0.18454975
141	0x3e27ef91	0.16399981
142	0x3d69db04	0.057093635
143	0x3c57821c	0.013153579
144	0x3e58ebe9	0.21183743
145	0xbe631991	-0.22177722
146	0x3e16cc15	0.14726289
147	0xbd5e5917	-0.05428418
148	0x3d0d4f01	0.034499172
149	0x3e7643e3	0.24049334
150	0xbeb1d8b7	-0.34735653
151	0xbe1bf7a4	-0.15231186
152	0xbc059834	-0.008153964
153	0xbd8caba7	-0.068686776
154	0xbb3e828c	-0.0029069511
155	0xbebf211a	-0.37329942
156	0x3da62050	0.08111632
157	0xbec294ff	-0.380043
158	0x3e2a5d4f	0.16637157
159	0xbd97fe4a	-0.07421549
160	0xbeb7e726	-0.3591854
161	0xbdec74e9	-0.11545736
162	0xbc78994e	-0.015173269
163	0xbec69baa	-0.38790637
164	0x3dbc1c85	0.09185127
165	0x3df09ab9	0.11748261
166	0xbe059881	-0.13046457
167	0xbe605dab	-0.21910731
168	0x3d8eb834	0.06968728
169	0xbe48fae6	-0.1962696
170	0xbd94c31c	-0.07263777
171	0x3e07d1ad	0.13263579
172	0xbeb37459	-0.35049704
173	0xbe639b6c	-0.22227257
174	0xbe877a17	-0.26460335
175	0xbd9395dd	-0.072063185
176	0xbe1fdd92	-0.15611866
177	0x3e31bc20	0.1735692
178	0xbe968127	-0.2939541
179	0xbde543ca	-0.1119457
180	0x3dda35f5	0.10654823
181	0xbde1eb21	-0.110311754
182	0x3e2bca59	0.16776408
183	0xbe79f8d4	-0.24411327
184	0xbe5c88f9	-0.21536626
185	0x3e0edd54	0.13951617
186	0xbe0b431e	-0.13599822
187	0xbe4dd9ce	-0.20102617
188	0xbe474020	-0.19458055
189	0xbeb53ba9	-0.3539708
190	0xbea983fd	-0.33108512
191	0xbe562436	-0.20912251
192	0x3de4d07d	0.111725785
193	0xbedbbc29	-0.42916992
194	0x3d6c2272	0.057650037
195	0x3e757799	0.23971404
196	0xbe49b7f9	-0.19699086
197	0xbece8fbb	-0.40344033
198	0xbda6c109	-0.08142287
199	0x3e7fa727	0.24966107
200	0xbe0ad9a9	-0.13559593
201	0x3db453f4	0.08805075
202	0x3e17f731	0.1484039
203	0x3bda506b	0.0066624186
204	0xbd9498c8	-0.07255703
205	0x3eaeda41	0.3415089
206	0xbe8a3564	-0.2699386
207	0xbc293091	-0.010326521
208	0x3e090e84	0.13384444
209	0xbeda3c1d	-0.42623988
210	0x3e77a0f4	0.24182492
211	0xbd649b7f	-0.055812355
212	0xbdfad6cf	-0.12248003
213	0xbd965e83	-0.073422454
214	0xbea1a6d4	-0.31572592
215	0xbeadd2be	-0.33949846
216	0x3dac97eb	0.084274136
217	0x3e978453	0.29593143
218	0x3e8325df	0.2561483
219	0xbc9e4f6e	-0.019324984
220	0x3dcca453	0.0999228
221	0xbc6280ce	-0.013824655
222	0x3e2b779d	0.16744848
223	0x3d4fb90f	0.050713595
224	0xbdeeeddc	-0.11666462
225	0xbe276ae1	-0.16349365
226	0xbe793b72	-0.24339083
227	0xbea3769b	-0.31926426
228	0xbbd947c0	-0.0066308677
229	0x3e5ca09a	0.2154564
230	0xbe8ff06f	-0.28113124
231	0xbea0abe2	-0.31381136
232	0xbe56d143	-0.20978265
233	0xbeed8cfb	-0.46396622
234	0x3db34c7d	0.08754823
235	0xbea9dc2e	-0.33175796
236	0xbdf3548b	-0.1188136
237	0x3e2aae84	0.16668135
238	0x3e7d901d	0.24762006
239	0x3dd2a903	0.10286143
240	0x3e42fa4e	0.19040796
241	0xbe66e14c	-0.22546881
242	0xbe595efc	-0.2122764
243	0xbeb7a7b4	-0.35870135
244	0x3e8451c3	0.2584363
245	0xbf037a01	-0.5135804
246	0xbd9d9377	-0.07694142
247	0xbe0a39d7	-0.13498627
248	0x3e0805cf	0.13283466
249	0x3e9ca0ad	0.30591336
250	0x3e55860f	0.2085192
251	0x3e86fd28	0.26365018
252	0x3e1ca757	0.1529821
253	0x3ee2215e	0.44166082
254	0x3e7cf114	0.24701339
255	0x3e92f6a9	0.28703812

fc1.bias f4 [512]
0	0xbe914970	-0.2837634
1	0xbe859a37	-0.2609422
2	0xbd571080	-0.05250597
3	0xbd1ef3ca	-0.038806714
4	0xbe958c9b	-0.29208836
5	0xbdcc2be9	-0.09969313
6	0xbf114dde	-0.5675944
7	0x3edab295	0.42714372
8	0xbe8aa3fe	-0.2707824
9	0xbd37d040	-0.044876337
10	0x3d85458c	0.06507406
11	0xbd622562	-0.055211432
12	0xbe017bcc	-0.12644881
13	0x3c350ef5	0.011050929
14	0xbe541901	-0.20712663
15	0xbe880a17	-0.26570198
16	0xbdca6e52	-0.09884323
17	0x3ca5cdb5	0.02023969
18	0xbd9842ec	-0.07434639
19	0x3e4e5c4b	0.20152394
20	0x3ecc96ec	0.39958894
21	0x3e56da39	0.20981683
22	0x3e8c0471	0.2734714
23	0x3f0837e4	0.5321028
24	0x3ea6683c	0.325014
25	0xbe4ecfc9	-0.20196451
26	0x3e84bfe9	0.25927666
27	0xbed76b2b	-0.4207395
28	0xbe4134f5	-0.18867858
29	0x3dae20a3	0.08502319
30	0x3e10c175	0.14136298
31	0xbebaa12c	-0.3645109
32	0xbe192389	-0.14954962
33	0xbe58ae78	-0.21160305
34	0xbe5f05c5	-0.21779545
35	0xbc13b871	-0.009016142
36	0xbec02bf1	-0.37533525
37	0x3ec0c670	0.37651396
38	0xbe83f196	-0.25770253
39	0x3edf12f4	0.43569148
40	0xbda910eb	-0.0825518
41	0xbdc2ea10	-0.095173
42	0xbcfb1bf6	-0.030652981
43	0x3e465cde	0.19371364
44	0x3d9ed55c	0.07755539
45	0xbd417272	-0.047228284
46	0x3cdd4453	0.027010119
47	0x3ee28916	0.44245213
48	0xbf249a31	-0.6429778
49	0xbea2e68a	-0.31816512
50	0xbe94c424	-0.29055893
51	0xbd2ff87b	-0.04296158
52	0xbe4ba8dd	-0.19888635
53	0xbea23b2d	-0.31685773
54	0x3e0fbfea	0.14038053
55	0x3df4e70d	0.11958132
56	0xbe689751	-0.22713973
57	0xbe5ec88f	-0.21756195
58	0xbe496145	-0.19666012
59	0xbe1ac309	-0.15113463
60	0xbd9c8255	-0.07642046
61	0x3dd11c32	0.10210456
62	0x3e0728bc	0.13199133
63	0x3e830a31	0.25593713
64	0xbe15c32d	-0.14625235
65	0x3ee3ae92	0.44469124
66	0xbe07804e	-0.13232538
67	0xbdfbb7df	-0.1229093
68	0xbea72177	-0.3264272
69	0xbea36b16	-0.31917638
70	0xbd3a1a5d	-0.0454353
71	0xbd4d5a2f	-0.050134834
72	0x3e3aa0ad	0.18225355
73	0xbe1e699b	-0.15469973
74	0xbf315a70	-0.6927862
75	0x3d3e6b84	0.046489254
76	0xbdd359e9	-0.103198834
77	0xbdf9e4be	-0.12201832
78	0xbe0d0735	-0.1377228
79	0x3e2cac88	0.1686269
80	0xbe94f4b7	-0.29092953
81	0xbd65a050	-0.05606109
82	0xbe09ed09	-0.13469328
83	0xbd97b033	-0.07406654
84	0x3c9bf236	0.019036394
85	0xbe9ad0a4	-0.30237305
86	0x3e458812	0.19290188
87	0xbe983234	-0.29725802
88	0xbd87900a	-0.0661927
89	0xbe86c394	-0.2632109
90	0x3db9e339	0.090765424
91	0x3cc85575	0.024454812
92	0xbd76cbba	-0.060252883
93	0xbe7de09f	-0.24792717
94	0xbe71dbf9	-0.23619069
95	0x3dbf2397	0.0933296
96	0xbe974309	-0.2954333
97	0x3d4defb8	0.05027744
98	0x3e9616d3	0.29314288
99	0xbc2cb584	-0.010541324
100	0x3e80f161	0.25184157
101	0xbe8657d3	-0.2623888
102	0x3ec70cbc	0.38876903
103	0x3e781a40	0.24228764
104	0x3d8e26f7	0.06941026
105	0xbddbb190	-0.10727227
106	0xbc2addcd	-0.010428858
107	0x3e4c3689	0.19942679
108	0xbe95cb9b	-0.292569
109	0xbe79d55c	-0.24397796
110	0xbe300654	-0.17189914
111	0x3f0c1979	0.5472637
112	0xbbbec72e	-0.005822084
113	0x3c4b718c	0.012417208
114	0x3f1003ea	0.5625597
115	0xbdfd49f0	-0.12367618
116	0xbd2d09fe	-0.042245857
117	0xbe8712bc	-0.2638148
118	0xbe9c4fa0	-0.305295
119	0xbd6feb42	-0.05857397
120	0x3eaa43a7	0.3325474
121	0xbe553dde	-0.20824382
122	0xbde4e8f8	-0.11177248
123	0xbd816a7d	-0.06319139
124	0xbe6f3df7	-0.23363481
125	0x3d8e5b3b	0.069509946
126	0xbe9a82f3	-0.3017803
127	0xbe863a2a	-0.2621625
128	0xbe8541d3	-0.26026782
129	0x3cd20589	0.025637405
130	0xbea4f49d	-0.32217875
131	0xbe87d24c	-0.2652763
132	0x3ddf3ff0	0.10900867
133	0x3d5e3571	0.054250184
134	0x3a5c9978	0.00084152026
135	0xbe45fd89	-0.19334997
136	0xbe7e81b0	-0.2485416
137	0x3da1bd94	0.07897487
138	0xbc53740f	-0.0129060885
139	0xbba0974c	-0.0049008485
140	0x3f00ec22	0.5036031
141	0x3e40b054	0.18817264
142	0x3e5a6266	0.21326599
143	0xbe99e989	-0.30060986
144	0xbe20763d	-0.15670104
145	0x3ec3060b	0.38090548
146	0xbea7d2b4	-0.3277794
147	0xbe818ff3	-0.25305137
148	0xbeedfd9c	-0.4648255
149	0xbe603a0e	-0.21897146
150	0x3f234ec9	0.6379209
151	0xbe631665	-0.22176512
152	0xbe19fdc9	-0.15038218
153	0x3e0f42a9	0.13990273
154	0xbd5110a1	-0.05104125
155	0xbefeb30b	-0.49745974
156	0xbe7f4a79	-0.24930753
157	0x3d95c77e	0.07313441
158	0x3d8a715f	0.06759905
159	0xbc86aeb5	-0.016440729
160	0x3e9d1887	0.30682775
161	0x3ebf4ee2	0.3736487
162	0xbd21cecf	-0.03950387
163	0xba650adc	-0.0008737275
164	0xbe3a1682	-0.18172649
165	0xbe9a4a07	-0.30134603
166	0x3e187029	0.14886536
167	0xbe4a504a	-0.1975719
168	0xbe975d87	-0.29563543
169	0x3d946365	0.072455205
170	0xbde195c4	-0.11014894
171	0xbe2a2726	-0.16616496
172	0xbd4661cd	-0.048433114
173	0xbe869329	-0.2628415
174	0xbe57fd7c	-0.2109279
175	0x3c0d1322	0.008610519
176	0xbe346bac	-0.17619199
177	0xbeab3fce	-0.33447117
178	0xbe16bf1d	-0.14721341
179	0xbef2047a	-0.4726904
180	0xbea18ac5	-0.31551185
181	0xbddab79c	-0.10679552
182	0x3e157b7d	0.14597888
183	0xbd09b196	-0.033616625
184	0x3e5d97d7	0.21639954
185	0xbe065597	-0.13118587
186	0xbeee3966	-0.46528167
187	0xbe91e680	-0.2849617
188	0xbe9b6335	-0.30349126
189	0x3cc9a852	0.024616394
190	0xbe8dda80	-0.27705765
191	0x3c73f645	0.014890258
192	0xbe998b03	-0.2998887
193	0xbea3c8e8	-0.31989217
194	0xbec25168	-0.37952733
195	0x3dcdeccc	0.10054931
196	0x3d364411	0.044498507
197	0x3ba99632	0.0051753754
198	0xbd312168	-0.04324475
199	0xbeac8ce3	-0.33701238
200	0xbe62b762	-0.22140267
201	0x3e9fefae	0.3123755
202	0xbe6b3315	-0.22968705
203	0xbe89e08b	-0.26929125
204	0xbe6e6fa2	-0.23284772
205	0xbe39d41c	-0.1814732
206	0xbdcf1104	-0.10110667
207	0xbe4f4a82	-0.20243266
208	0x3d31d3ea	0.043414988
209	0xbddf10f8	-0.108919084
210	0x3f800eb3	1.0004486
211	0xbf270bc6	-0.6525234
212	0x3e768048	0.24072373
213	0xbe9e63c6	-0.30935496
214	0xbef2a40e	-0.4739079
215	0x3ce9e8b0	0.028553337
216	0x3df9560b	0.121746145
217	0xbeb6e924	-0.35724747
218	0xbdb2b3a8	-0.08725673
219	0x3f2da670	0.6783209
220	0x3ea5c9bf	0.32380483
221	0xbdfd9de8	-0.12383634
222	0x3dbff5bf	0.09373044
223	0x3dd36722	0.103224054
224	0xbcf59d51	-0.02998224
225	0xbe87d6e9	-0.2653115
226	0xbe376589	-0.17909826
227	0xbddac5c9	-0.10682256
228	0xbed75720	-0.4205866
229	0xbed7d490	-0.4215436
230	0x3db3fd4e	0.087885484
231	0x3d0f78e8	0.035027415
232	0xbe95ff44	-0.29296315
233	0xbe6d1811	-0.23153712
234	0xbeadc80e	-0.33941692
235	0x3d2ab8a6	0.04168
236	0xbe95f11c	-0.29285514
237	0xbdc29c4c	-0.095024675
238	0x3dbb0c5c	0.09133217
239	0xbe7df3fa	-0.24800101
240	0xbebd97bf	-0.37029836
241	0xbd016eeb	-0.03159992
242	0xbe0ec31a	-0.13941613
243	0xbead8d66	-0.3389694
244	0xbd860120	-0.06543183
245	0xbe3dcbeb	-0.1853482
246	0xbe9ff378	-0.3124044
247	0xbe67539b	-0.22590487
248	0xbe7681de	-0.24072978
249	0x39bc33e0	0.00035896804
250	0xbe807029	-0.2508557
251	0xbebb9d6d	-0.36643544
252	0x3d472f05	0.048628826
253	0x3ca9d860	0.020733058
254	0x3e2de6c0	0.16982555
255	0x3d4f03e6	0.050540827

fc2.weight f4 [256, 512]
0	0xbdf2d0a0	-0.11856198
1	0xbdc0a08f	-0.09405624
2	0xbc304182	-0.010757806
3	0x3d312c66	0.043255232
4	0xbd0c179f	-0.034202214
5	0x3c0a5d8e	0.008445157
6	0xbe385d4d	-0.18004341
7	0x3ddedb58	0.1088168
8	0xbcc2b9b4	-0.02377019
9	0xbd6d8ad6	-0.057993732
10	0x3d01c049	0.031677518
11	0xbc89edcf	-0.016837029
12	0xbcf3cc67	-0.029760553
13	0xbce2f0b7	-0.027702672
14	0x3c7da1a8	0.015480436
15	0x3ceceb5b	0.02892082
16	0xbb177282	-0.0023109023
17	0xbd18111c	-0.03712569
18	0x3cfb9aeb	0.03071352
19	0x3cf3782f	0.029720394
20	0x3cc4108c	0.023933671
21	0x3d4b892f	0.049691375
22	0xbd4ae38a	-0.049533404
23	0x3d5f3504	0.05449392
24	0x3d9d0c32	0.07668342
25	0x3cff4895	0.03116254
26	0xbd4c8226	-0.049928807
27	0xbe6376ef	-0.22213338
28	0x3d1d16db	0.038351875
29	0x3c78a2b3	0.015175509
30	0x3e093562	0.1339927
31	0x3d0a5740	0.033774614
32	0xbc8efa13	-0.017453229
33	0x3b8c797a	0.004286942
34	0x3d764d42	0.060132273
35	0x3d3737bf	0.044730898
36	0xbd972756	-0.073805496
37	0x3d3f7819	0.046745393
38	0xbcdd0d6a	-0.026983935
39	0xbabc1d24	-0.0014351946
40	0xbd076a35	-0.03306027
41	0xbcb5a50b	-0.022173425
42	0xbdcecc74	-0.1009759
43	0x3cadf663	0.02123565
44	0xbba489b8	-0.0050213
45	0xbd5a96d7	-0.05336651
46	0xbd294089	-0.04132131
47	0x3d923ef4	0.071409136
48	0xbe49a578	-0.19692028
49	0x3d2edfcb	0.042693894
50	0xbd301838	-0.042991847
51	0xbd3c0a2c	-0.04590814
52	0xbd1646b2	-0.036688514
53	0xbe3be29a	-0.1834816
54	0x3df897c2	0.121383205
55	0x3dff93c2	0.124793544
56	0x3c2bdce0	0.010489672
57	0x3cd1db66	0.025617313
58	0x3c9ba20a	0.018998165
59	0x3db969d2	0.09053387
60	0x3d1b7d3f	0.03796124
61	0x3b874841	0.0041284864
62	0x3c4e703d	0.012600002
63	0x3e306e02	0.17229465
64	0xbc13a110	-0.009010568
65	0xbcc94942	-0.024571065
66	0xbd0991f6	-0.033586465
67	0xbca25879	-0.019817578
68	0xbd19cca8	-0.03754869
69	0xbc7e4b09	-0.015520819
70	0xbc77c943	-0.015123668
71	0x3befcf72	0.0073184306
72	0x3c2630c4	0.010143463
73	0xbeab0579	-0.33402613
74	0xbc7cfca1	-0.015441091
75	0x3ccd9888	0.025097147
76	0xbd7bcb90	-0.06147343
77	0x3cb5783e	0.022152063
78	0x3d3e6fe3	0.046493422
79	0xbcb44163	-0.022003835
80	0xbd5d1f43	-0.05398489
81	0x3cbffb4e	0.023435261
82	0x3c3d535c	0.011555519
83	0xbc42cc3d	-0.0118895145
84	0x3d5f9cc7	0.054592874
85	0xbc426d32	-0.0118668545
86	0x3c7b6bb2	0.015345501
87	0xbca7d1b0	-0.020485729
88	0xbd48a064	-0.048981085
89	0xbd9937dd	-0.07481358
90	0x3d8d0c0b	0.06887063
91	0xbc92673e	-0.017871495
92	0xbc6461af	-0.013939305
93	0x3b910708	0.004425887
94	0x3e1c9bd8	0.15293825
95	0xbd200057	-0.039062824
96	0x3c5a35c8	0.0133184865
97	0xba41c500	-0.0007391721
98	0x3db051ef	0.086093776
99	0xbd180972	-0.037118383
100	0x3daff8e6	0.085923955
101	0x3c59b24f	0.013287141
102	0xbdec4e18	-0.11538333
103	0x3cefa9f0	0.029255837
104	0xbd9085fc	-0.070568055
105	0x3c8d67a3	0.017261332
106	0x3d20fd00	0.03930378
107	0x3e13d2b7	0.1443585
108	0x3cb0d1ba	0.02158438
109	0xbc63c017	-0.013900778
110	0x3d64165e	0.055685394
111	0x3df0a724	0.117506295
112	0x3bbe783f	0.0058126743
113	0xbe62766b	-0.22115485
114	0x3e0ca2de	0.13734004
115	0x3cc90349	0.0245377
116	0xbd0009a9	-0.031259213
117	0xbd69b4ae	-0.057057075
118	0xbcb1b302	-0.021691803
119	0xbe163803	-0.14669804
120	0x3de23d91	0.11046899
121	0xbd817e85	-0.0632296
122	0xbcae67fe	-0.021289822
123	0x3c6fb53c	0.014630612
124	0x3d1e461f	0.03864109
125	0xbd63da66	-0.055628203
126	0xbe410f1f	-0.18853424
127	0x3cdddaed	0.027081931
128	0xbe068905	-0.13138206
129	0xbcb5ed89	-0.022207992
130	0xbe24629e	-0.16053244
131	0xbdb65074	-0.08902064
132	0x3b56d282	0.003277928
133	0xbd12b54c	-0.03581743
134	0x3d1e4c3d	0.038646925
135	0x3c044f68	0.008075573
136	0x3cef445d	0.029207403
137	0x3d7b3b1f	0.06133568
138	0x3bc8b4a1	0.0061250483
139	0x3c8c06c5	0.017093072
140	0xbd98aafb	-0.07454487
141	0x3af8bc04	0.0018976931
142	0x3d13755a	0.036000587
143	0xbd139836	-0.03603383
144	0xbdf207ad	-0.1181787
145	0x3c43602a	0.011924783
146	0xbdcc5105	-0.09976391
147	0xbc958d09	-0.018255727
148	0xbe2b4138	-0.16724098
149	0xbd452a19	-0.04813585
150	0x3e0202d9	0.12696399
151	0xbda25082	-0.07925512
152	0x3b8346c0	0.004006237
153	0x3c8f2de2	0.017477933
154	0x3dbb46bd	0.09144352
155	0xbcdb2378	-0.026750311
156	0xbcf21b20	-0.02955395
157	0xbc842fdd	-0.016136104
158	0x3c3c9057	0.011509023
159	0xbbd2ff6f	-0.0064391415
160	0x3d87fd9c	0.06640169
161	0x3d55d7e1	0.05220783
162	0xbccfa416	-0.025346797
163	0x3c1f92ed	0.00973962
164	0xbc437420	-0.011929542
165	0x3d2ab81d	0.04167949
166	0x3d47ff1a	0.04882727
167	0xbaeab4d7	-0.0017906678
168	0xbe1fcb7f	-0.15604971
169	0xbd0fc426	-0.03509917
170	0x3c772994	0.015085597
171	0x3b5e5350	0.003392417
172	0xbcd1fd86	-0.025633585
173	0x3d193b67	0.037410166
174	0xbd055b2d	-0.032557655
175	0x3cb0f14a	0.02159943
176	0xbb3b56c6	-0.0028585657
177	0x3d0f7f8c	0.035033748
178	0xbd260c88	-0.040539294
179	0x3d84e57c	0.06489083
180	0xbdfd5595	-0.12369839
181	0xbbbca758	-0.0057572536
182	0x3dade40b	0.08490761
183	0xbd438df5	-0.047742803
184	0x3dbf235d	0.09332917
185	0xbd032090	-0.032013476
186	0xbd04efaf	-0.032455143
187	0xbcb4c533	-0.022066688
188	0xbe140698	-0.1445564
189	0xbbe75559	-0.007059735
190	0xbd1edd6e	-0.03878539
191	0xb9bb685e	-0.0003574518
192	0xbbced228	-0.0063116737
193	0xbe145e91	-0.14489199
194	0xbda01f19	-0.078184314
195	0x3d5dab97	0.05411872
196	0x3d2d856a	0.04236356
197	0xbd482f10	-0.048873007
198	0x3ba413f7	0.005007263
199	0x3cf00602	0.02929974
200	0xbd8e641c	-0.06952688
201	0x3dc0c6ca	0.09412916
202	0xbd25a51c	-0.040440664
203	0xbdc57826	-0.09642057
204	0x3cfd77aa	0.03094085
205	0x3c02c1b4	0.007980753
206	0xbdd5a864	-0.104325086
207	0xbd007642	-0.03136278
208	0xbd027713	-0.03185184
209	0xbc2d7d12	-0.010588901
210	0xbe37b49b	-0.1793999
211	0xbe3cb25d	-0.18427415
212	0xbd126ffb	-0.035751324
213	0x3c92a610	0.01790145
214	0xbda41808	-0.08012396
215	0xbd0d099a	-0.034432985
216	0x3de95110	0.113924146
217	0xbe045732	-0.12923887
218	0x3d47d9ea	0.048791803
219	0xbb978454	-0.004623929
220	0x3d9afdaa	0.07567914
221	0x3c46d6fc	0.012136217
222	0xbc5f5dd6	-0.013633212
223	0xbd7fcae7	-0.062449362
224	0xbd037274	-0.032091573
225	0x3cb7e57e	0.022448298
226	0xbb6e3550	-0.0036347695
227	0xbc9269ea	-0.01787277
228	0xbd4119b2	-0.047143646
229	0xbe796240	-0.24353886
230	0xbd834504	-0.06409648
231	0x3cd46acb	0.02592983
232	0xbe155dc2	-0.14586547
233	0xbcbfd1e4	-0.023415513
234	0x3a7ea7cc	0.0009714335
235	0x3c837683	0.016047722
236	0xbcb2712b	-0.021782478
237	0x3cb9e4a2	0.022692028
238	0x3bedd888	0.0072584786
239	0xbcabea65	-0.020985791
240	0xbd80a8ac	-0.062821716
241	0xbcd1cf79	-0.025611626
242	0xbd341a63	-0.043970477
243	0xbd145fd4	-0.0362242
244	0xbcf5cb0e	-0.03000405
245	0xbc4469db	-0.011988129
246	0x3cbc0a1a	0.022954036
247	0xbc86760c	-0.016413711
248	0xbd1543a1	-0.03644145
249	0xbbedc609	-0.0072562736
250	0x3d2da0bd	0.04238962
251	0xbdb0f1d9	-0.08639879
252	0x3caaf1a0	0.020867169
253	0x3c91efd8	0.017814562
254	0x3d0de9e1	0.034646872
255	0x3daf956e	0.08573423

fc2.bias f4 [256]
0	0xbe34e161	-0.176641
1	0xbd0af293	-0.033922743
2	0xbd4eccec	-0.050488397
3	0xbd13962c	-0.036031887
4	0xbd2de69d	-0.042456258
5	0x3d3c83b2	0.046024032
6	0xbd40230f	-0.046908434
7	0xbcef87f9	-0.029239642
8	0xbba853de	-0.005136951
9	0xbd7b2edd	-0.06132399
10	0xbda4a1ff	-0.08038711
11	0xbd7946f6	-0.06085869
12	0xbca907ef	-0.020633666
13	0xbdc5cc78	-0.0965814
14	0x3c5724ba	0.013131315
15	0xbdf75c9f	-0.12078213
16	0xbd529522	-0.051411755
17	0xbd5f18bb	-0.054466944
18	0xbd6a7477	-0.057239976
19	0xbd675ddf	-0.056486007
20	0xbdad0863	-0.08448865
21	0x3d0cd298	0.034380525
22	0xbc59df11	-0.013297812
23	0xbdb8c497	-0.090218715
24	0xbcfbdba6	-0.030744385
25	0xbd6baa3c	-0.057535395
26	0xbdc84a1a	-0.09779759
27	0xbab63162	-0.0013900215
28	0xbd39e6b7	-0.045386042
29	0xbf32ddd4	-0.6986973
30	0xbcd695d8	-0.026194498
31	0xbd3f748e	-0.046742015
32	0xbdce5de4	-0.10076502
33	0xbd82fd8f	-0.06396019
34	0xbd7a2a6d	-0.061075617
35	0xbd4bb2d0	-0.049731076
36	0xbd6451da	-0.055742122
37	0xbe1106da	-0.1416277
38	0xbdc015eb	-0.093791805
39	0x3e31d044	0.17364603
40	0xbd0d894d	-0.03455477
41	0xbde0350d	-0.10947619
42	0xbe95e1b3	-0.29273757
43	0xbd64a78e	-0.055823855
44	0xbda8cff8	-0.08242792
45	0xbda33dfb	-0.07970806
46	0xbda763c6	-0.08173327
47	0xbe34d8f9	-0.17660893
48	0x3b46957d	0.0030301504
49	0xbd7e7dc1	-0.062131647
50	0xbdeaf2b6	-0.11472075
51	0xbd963e0e	-0.07336055
52	0xbe227d2f	-0.15868066
53	0xbd84d542	-0.06485988
54	0xbe999d5b	-0.30002865
55	0xbdc3adfe	-0.09554671
56	0xbe1b19da	-0.1514658
57	0xbda003b7	-0.078132086
58	0xbdb15e83	-0.08660605
59	0xbe950226	-0.29103202
60	0xbdba57bf	-0.090987675
61	0x3b20b47f	0.0024521647
62	0xbcf85dbb	-0.030318132
63	0xbd039c96	-0.032131754
64	0xbc996c10	-0.018728286
65	0xbd9033d0	-0.070411325
66	0xbdac2a95	-0.084065594
67	0xbd3431c9	-0.04399279
68	0x3c6d2202	0.01447344
69	0xbd806f05	-0.06271175
70	0xbc803157	-0.015648527
71	0xbdc61cf5	-0.09673492
72	0xbdce83b2	-0.10083713
73	0xbc49b873	-0.0123120425
74	0xbd2d468d	-0.04230361
75	0xbd4f8732	-0.05066604
76	0xbc941cf6	-0.018080216
77	0xbd5c664b	-0.05380849
78	0xbd61f25b	-0.05516277
79	0xbd8a8dca	-0.06765325
80	0xbd6bcb39	-0.057566855
81	0xbc387dfb	-0.011260505
82	0xbc6535bb	-0.013989861
83	0x3d0bbb1f	0.034114
84	0xbe8024bc	-0.25028026
85	0xbd921ab7	-0.07134002
86	0xbd26133d	-0.04054569
87	0xbc4497a4	-0.011999045
88	0xbdb06751	-0.08613456
89	0xbdec04b5	-0.11524335
90	0xbd0def8c	-0.034652278
91	0xbdf18d09	-0.117944784
92	0xbc2bffc1	-0.010497988
93	0x3c8f8618	0.017519996
94	0xbd97f845	-0.074204005
95	0xbdd5fe11	-0.1044885
96	0xbd61fe04	-0.05517389
97	0xbcdbe4e8	-0.02684255
98	0xbdc073fc	-0.09397122
99	0xbe2657c9	-0.16244425
100	0xbe7097ea	-0.2349545
101	0xbd85d1f5	-0.06534187
102	0xbcc0e58c	-0.023546956
103	0x3ba35ddd	0.0049855546
104	0xbd80c2e7	-0.06287175
105	0xbdc80c70	-0.09767997
106	0xbd951dd3	-0.07281079
107	0xbd209b2c	-0.039210483
108	0xbeb3b9e5	-0.35102764
109	0xbc7fd6a6	-0.015615141
110	0xbc39fb0c	-0.011351358
111	0xbd8d4f18	-0.068998516
112	0xbe9f40ec	-0.3110422
113	0xbbc450bf	-0.005991071
114	0xbcdfd064	-0.027321048
115	0xbd829168	-0.0637539
116	0xbc5673b7	-0.013089112
117	0xbcedaa30	-0.029011816
118	0xbd764ad5	-0.06012996
119	0xbd11e2c8	-0.035616666
120	0x3d2bffff	0.041992184
121	0x3ad8aa2f	0.0016530211
122	0xbda15e0c	-0.07879266
123	0xbd6f053f	-0.058354612
124	0x3aacabb6	0.0013173732
125	0xbc118a25	-0.008883034
126	0xbd65795e	-0.056023948
127	0xbc432196	-0.011909863
128	0xbd169408	-0.036762267
129	0xbdae46ed	-0.08509622
130	0xbda53dbf	-0.08068418
131	0x3b3b0434	0.002853644
132	0xbd94b530	-0.07261121
133	0xbdbfd3a1	-0.09366537
134	0xbd113f1a	-0.03546057
135	0xbcc3134c	-0.023812912
136	0xbe1328f2	-0.14371088
137	0xbdcfdfcb	-0.10150107
138	0xbdace3cd	-0.08441887
139	0xbd89a33e	-0.06720589
140	0xbd79ac07	-0.060955074
141	0xbd70c589	-0.058782134
142	0xbcf45bdb	-0.029828956
143	0xbde31eff	-0.110898964
144	0xbd186360	-0.037204146
145	0xbdca149f	-0.098672144
146	0xbd681c88	-0.056667835
147	0xbd54a046	-0.05191066
148	0xbd681f7c	-0.05667065
149	0xbd2ec24a	-0.042665757
150	0x3db0565f	0.08610224
151	0xbd100f0b	-0.035170596
152	0xbcecce4c	-0.028906964
153	0xbd828a48	-0.06374031
154	0xbd685e98	-0.056730837
155	0xbdc79945	-0.09746031
156	0x3c99adbe	0.018759605
157	0xbd2a74ff	-0.041615482
158	0xbc8d3fd0	-0.017242342
159	0xbdad9d9d	-0.08477328
160	0xbd72df7c	-0.059295163
161	0xbcbc91b2	-0.023018692
162	0xbe6916b8	-0.22762573
163	0xbcd6ecd6	-0.026235979
164	0xbd7e2876	-0.062050305
165	0xbead6274	-0.33864176
166	0xbda4878b	-0.08033665
167	0xbcdd7c13	-0.027036702
168	0xbd0ac15d	-0.03387581
169	0xbcc3bfad	-0.02389511
170	0xbd8414aa	-0.06449254
171	0xbcec9ebe	-0.028884288
172	0xbd38a543	-0.04507948
173	0xbde1241d	-0.10993216
174	0xbd570a8d	-0.052500296
175	0xbd693b6c	-0.056941435
176	0xbd6b12d9	-0.05739102
177	0xbe1ba38a	-0.15199104
178	0xbc96b1fa	-0.018395413
179	0xbcb4d235	-0.02207289
180	0xbc9a2edf	-0.018821178
181	0xbdcf7709	-0.10130126
182	0xbda62b52	-0.081137314
183	0xbc31cf8a	-0.010852704
184	0xbc65ad0d	-0.014018309
185	0xbd2ad520	-0.041707158
186	0x3b948dde	0.0045335134
187	0xbc5d6152	-0.0135119725
188	0xbd239817	-0.039939966
189	0xbebd6cb6	-0.36997002
190	0xbcd71281	-0.02625394
191	0xbbc71248	-0.0060751773
192	0xbce5186c	-0.027965747
193	0xbd52ae52	-0.051435776
194	0x3e75699c	0.23966068
195	0xbd8de321	-0.06928087
196	0xbd9b4aa1	-0.07582594
197	0xbd7bc498	-0.061466783
198	0x3b1c3fb0	0.0023841672
199	0x3cd25dee	0.025679555
200	0xbd11a499	-0.035557363
201	0xbda152e3	-0.078771375
202	0xbd52aff4	-0.051437333
203	0xbd022844	-0.03177668
204	0xbd256110	-0.04037577
205	0xbb0e5304	-0.0021716962
206	0xbd54e748	-0.05197838
207	0xbd7e192d	-0.06203573
208	0xbd5c74a9	-0.053822193
209	0xbd0b44ea	-0.03400127
210	0xbc5793b4	-0.013157774
211	0xbdfc0f89	-0.123076506
212	0xbd9c961a	-0.07645817
213	0xbd7b39d3	-0.061334442
214	0xbdc9898b	-0.09840687
215	0xbc59221d	-0.013252762
216	0xbda4067f	-0.080090515
217	0xbd3f9765	-0.04677524
218	0xbd1cd097	-0.038284864
219	0xbd0a1729	-0.033713493
220	0x3d121ba0	0.035670877
221	0xbddd760e	-0.10813533
222	0xbdf77d51	-0.12084449
223	0xbd5bca9c	-0.05366002
224	0xbd452a84	-0.04813625
225	0xbd8b203f	-0.0679326
226	0xbd5ffd95	-0.054685194
227	0xbd85f490	-0.06540787
228	0xbe08e6c5	-0.13369282
229	0xbd761331	-0.060076896
230	0xbe7a6bfd	-0.24455257
231	0xbe102651	-0.14077117
232	0xbe057b34	-0.1303528
233	0xbd674eae	-0.05647152
234	0xbd059477	-0.03261229
235	0x3ec59236	0.38588113
236	0xbcfd8ae6	-0.030950021
237	0xbd588a84	-0.052866474
238	0xbdac7a79	-0.08421797
239	0xbd3c464f	-0.04596549
240	0xbe1cb6dc	-0.1530413
241	0xbccba507	-0.024858965
242	0xbdc1f2ca	-0.094701365
243	0xbe33e2dc	-0.17567009
244	0xbdd06f28	-0.10177451
245	0xbed23d5e	-0.41062444
246	0xbd70eb0f	-0.05881792
247	0xbd8180cb	-0.063233934
248	0xbd8e12ff	-0.06937217
249	0xbc71a878	-0.014749639
250	0xbd70b103	-0.05876256
251	0xbe9a2d5b	-0.30112728
252	0xbd53bac0	-0.05169177
253	0xbdfa6c26	-0.12227659
254	0xbcaa1a14	-0.020764388
255	0xbcbaece8	-0.022818044

fc3.weight f4 [128, 256]
0	0x3b52d976	0.0032173074
1	0xbd0fba94	-0.035090044
2	0xbcfcc6c8	-0.030856505
3	0x3cf7c14b	0.030243536
4	0x3b8eb060	0.0043545216
5	0x3d7145be	0.058904402
6	0x3d6992e9	0.05702487
7	0x3d4b5700	0.049643517
8	0xbc6333f1	-0.013867364
9	0xbd32c23e	-0.043642275
10	0xbd2ee945	-0.042702932
11	0xbd3bc790	-0.045844615
12	0xbd7c0842	-0.061531313
13	0x3c308dc6	0.010775989
14	0x3d2fb250	0.04289466
15	0x3d40c57a	0.04706333
16	0x3d15b6e7	0.036551382
17	0x3d793ddf	0.06085002
18	0xbc917661	-0.017756643
19	0xbd73b73c	-0.059500918
20	0x3bf8794c	0.007582819
21	0x3d16163a	0.03664229
22	0x3d70467f	0.05866098
23	0xbd6bb93b	-0.057549696
24	0xbd476b50	-0.048686326
25	0x3cda7625	0.026667664
26	0xbd11ef94	-0.03562887
27	0xbd3adc5f	-0.04562032
28	0xbd1f9532	-0.038960643
29	0xbde1faa8	-0.11034137
30	0xbc5a7bbb	-0.013335164
31	0xbd25a00b	-0.040435832
32	0xbbc3231c	-0.005955113
33	0xbd45229e	-0.048128717
34	0xbd1a26e7	-0.037634756
35	0xbbc574a4	-0.0060258675
36	0x3ca17a0d	0.019711519
37	0x3d8f0e53	0.06985154
38	0x3d1a4f1d	0.037673105
39	0x3d3ddb6a	0.046351828
40	0x3c81be16	0.01583771
41	0x3d73018b	0.059327643
42	0x3cd1530f	0.0255523
43	0xbd5c4af6	-0.053782426
44	0x3daaef8f	0.083464734
45	0x3cfd7b88	0.030942693
46	0x3d1efcca	0.038815297
47	0xbdd2247b	-0.10260864
48	0x3c0dac57	0.008647046
49	0xbcc55779	-0.024089562
50	0xbcd09a06	-0.02546407
51	0x3d4772e2	0.048693545
52	0xbc8e47d6	-0.017368238
53	0xbb8ef438	-0.0043626092
54	0xbd1e94a0	-0.03871596
55	0xbc4ca239	-0.012489849
56	0xbd35bb30	-0.04436797
57	0xbd0c6d76	-0.034284078
58	0xbce62009	-0.028091447
59	0x3c289ea5	0.01029173
60	0xbce7b962	-0.02828664
61	0xbcc8415d	-0.02444523
62	0xbd65bcb7	-0.056088176
63	0x3d2dd18c	0.042436168
64	0x3d08f925	0.033440728
65	0x3c1b6a20	0.009485751
66	0xbbff9441	-0.0077996557
67	0xbcbee9fc	-0.023304932
68	0xbcc8797c	-0.02447199
69	0xbcab5573	-0.020914769
70	0x3d4b3632	0.04961223
71	0xbcf4eee5	-0.02989907
72	0x3d56b2fc	0.052416787
73	0xbcff2d5d	-0.03114956
74	0xbb89a9d6	-0.004201154
75	0xbcdf98b8	-0.027294502
76	0x3d51ee52	0.05125267
77	0x3ca26907	0.019825472
78	0xbc1a54f8	-0.009419672
79	0xbd80510e	-0.0626546
80	0xbd09e930	-0.03366965
81	0x3d54a682	0.051916607
82	0xbd575b9f	-0.05257761
83	0xbdc9e6ed	-0.09858499
84	0xbda78f41	-0.081816204
85	0xbc64e797	-0.013971231
86	0x3d260d44	0.040539995
87	0xbcd66211	-0.026169809
88	0xbd162854	-0.036659554
89	0xbcf33348	-0.029687539
90	0xbd60dbf3	-0.05489726
91	0x3d5be914	0.053689077
92	0x3d67f589	0.056630645
93	0x3ca77113	0.02043966
94	0xbd63a917	-0.05558118
95	0x3d13d907	0.036095645
96	0xbd293166	-0.041306876
97	0xbc3d97d9	-0.011571848
98	0xbc6787fb	-0.014131541
99	0x3bb35980	0.0054733157
100	0xbd88b178	-0.066744745
101	0xbd96c969	-0.07362635
102	0xbcecc3eb	-0.028902015
103	0xbd611ac7	-0.054957177
104	0x3c37c43b	0.011216219
105	0xbd357bf0	-0.04430765
106	0xbcaeade0	-0.021323144
107	0xbcc1f147	-0.02367462
108	0x3da7fd10	0.08202565
109	0x3d644cf5	0.055737454
110	0xbd039b12	-0.03213031
111	0xbba117e2	-0.004916177
112	0x3d76b15c	0.060227737
113	0xbd382fa5	-0.044967312
114	0xbd2358f7	-0.039879765
115	0x3d8704f4	0.065927416
116	0x3cbe0b51	0.023198755
117	0xbd306945	-0.043069143
118	0xbd3834f1	-0.044972364
119	0xbccc531a	-0.02494197
120	0xbe041be0	-0.12901258
121	0xbb8cd89a	-0.004298282
122	0x3baa0935	0.005189086
123	0x3d2d9508	0.042378455
124	0xbcba7953	-0.02276293
125	0xbbd4bfd2	-0.0064925933
126	0xbd6f995b	-0.05849586
127	0x3d580fe7	0.05274954
128	0x3d02ab48	0.031901628
129	0x3cc482e7	0.0239882
130	0xbced5121	-0.02896935
131	0xbcdd73f6	-0.027032834
132	0xbd67e348	-0.056613237
133	0xbc936fb7	-0.017997606
134	0x3d0e85f0	0.0347957
135	0xb874a273	-5.8325426e-05
136	0xbce0644b	-0.027391573
137	0xbd313dfe	-0.04327201
138	0xbd5224cd	-0.051304627
139	0xbd0bc5f2	-0.034124322
140	0x3cc70573	0.02429459
141	0xbc1c0182	-0.009521844
142	0xbd6aca89	-0.05732206
143	0xbb80cfd0	-0.003931023
144	0x3cf8e2cd	0.030381585
145	0xbd497ccf	-0.049191292
146	0xbd0519e6	-0.0324954
147	0x3d694b03	0.056956302
148	0xbd5b8e8e	-0.053602748
149	0x3c2c1001	0.0105018625
150	0x3cfb729e	0.030694302
151	0x3d1372af	0.035998043
152	0x3bc7b417	0.0060944664
153	0xbd10a073	-0.035309266
154	0xbd6d06c9	-0.0578678
155	0x3d101b92	0.035182543
156	0xbd5cbe66	-0.053892516
157	0x3cc22154	0.023697533
158	0x3d128738	0.035773486
159	0xbb99c504	-0.0046926755
160	0xbd07af51	-0.03312618
161	0xbd9f0af3	-0.0776576
162	0xbd1d4721	-0.038397912
163	0xbd826e6b	-0.06368717
164	0x3d1829c3	0.037149202
165	0xbd924fa6	-0.07144098
166	0x3d748c4f	0.05970412
167	0xbbbf124a	-0.0058310376
168	0xbd6ff7a4	-0.058585778
169	0x3cf8d5af	0.03037533
170	0xbd1a6d77	-0.03770205
171	0x3cbd2596	0.023089211
172	0x3cb05189	0.021523254
173	0xbbfc2341	-0.0076946323
174	0xbd86c137	-0.065798216
175	0x3d2db6bc	0.042410597
176	0x3d283e5a	0.041075088
177	0x3cfac3dc	0.030610971
178	0x3d360330	0.044436634
179	0x3c9b4879	0.018955456
180	0x394a1a8a	0.00019274108
181	0x3d1b2f9c	0.0378872
182	0xbd58dcb8	-0.05294487
183	0x3c80fc17	0.015745206
184	0xbd4dbf7b	-0.050231438
185	0x3c26a91c	0.010172155
186	0xbd3d184e	-0.046165757
187	0x3d80ece8	0.06295186
188	0x3cabe40c	0.020982765
189	0x3dd1f29b	0.102513514
190	0x3d356d24	0.044293538
191	0xbd829fc1	-0.06378127
192	0x3d151c1c	0.03640376
193	0x3cdacbdb	0.026708534
194	0xbcfaca32	-0.030613992
195	0xbcd2f219	-0.025750207
196	0x3d16788d	0.03673606
197	0x3ba12aa1	0.004918412
198	0xbcf721bb	-0.030167451
199	0x3cc8efb1	0.024528356
200	0x3c066ec7	0.008205122
201	0x3bb41489	0.005495612
202	0x3d45c734	0.048285678
203	0xbd3be7d3	-0.04587538
204	0xbd064dab	-0.032788914
205	0xbd00ddf9	-0.03146169
206	0xbcaab666	-0.020838927
207	0x3c8ac0a1	0.016937556
208	0x3be71f59	0.0070532975
209	0x3c33d527	0.010976112
210	0x3d3656fd	0.044516552
211	0xbd394f94	-0.045241907
212	0x3d04fabd	0.032465685
213	0x3d19da5a	0.037561752
214	0xbd73335c	-0.059375152
215	0x3d056679	0.03256843
216	0xbd6783ed	-0.0565223
217	0x3d1ab4f6	0.037770234
218	0xbc9c77f4	-0.019100167
219	0x3d0bb9bf	0.03411269
220	0xbd4ad37b	-0.04951809
221	0x3cacfb49	0.021115916
222	0xbbd3a03f	-0.006458312
223	0x3d1cc266	0.03827133
224	0x3c9d2e92	0.019187246
225	0x3ca872f9	0.020562636
226	0x3d2a0586	0.041509174
227	0xbb3824fb	-0.0028098214
228	0x3d5fba7b	0.0546212
229	0x3c8082d7	0.01568739
230	0x3d99433f	0.07483529
231	0xbd1f2a69	-0.038858805
232	0xbd10f95a	-0.03539405
233	0x3c994bb9	0.018712865
234	0xbcda4fcf	-0.026649384
235	0xbb3b8750	-0.0028614588
236	0xbd02faa6	-0.03197732
237	0xbd4ca0ee	-0.049958162
238	0x3d568359	0.052371357
239	0x3d2d21ff	0.04226875
240	0xbd5fd1c4	-0.054643407
241	0xbc07e538	-0.008294396
242	0x3bbcda5c	0.005763335
243	0xbd55286d	-0.052040506
244	0xbcdcbbbc	-0.026944987
245	0x3ca83c9d	0.020536715
246	0x3d5ca140	0.053864717
247	0xbce51846	-0.027965676
248	0x3c5c407f	0.013443111
249	0x3d2330d6	0.039841495
250	0x3d951678	0.07279676
251	0xbc967573	-0.018366551
252	0x3d69c14f	0.05706912
253	0xbc2c5f2c	-0.010520738
254	0xbcfc52f8	-0.030801281
255	0xbd6fdd15	-0.05856045

fc3.bias f4 [128]
0	0xbe4c89fd	-0.19974513
1	0xbe32a583	-0.1744595
2	0xbd2fa1bf	-0.042878862
3	0xbde65631	-0.112469085
4	0x3db07e75	0.0861787
5	0xbdf2d537	-0.11857074
6	0xbd4d5323	-0.050128113
7	0xbc25a915	-0.010111113
8	0xbde10596	-0.109873936
9	0xbdc9db9a	-0.09856339
10	0xbe126159	-0.14294948
11	0xbe08be23	-0.13353781
12	0xbe08375c	-0.13302368
13	0xbb952d63	-0.0045525297
14	0xbddfe1d8	-0.10931748
15	0xbdcc7f22	-0.09985186
16	0xbd787596	-0.060659014
17	0xbd01460c	-0.031560943
18	0xbcffa54a	-0.031206746
19	0xbd7dd933	-0.061974715
20	0xbdcfcfbd	-0.10147045
21	0xbe1d5496	-0.15364298
22	0xbd809f8d	-0.06280432
23	0xbd54d7fd	-0.051963795
24	0xbdd655de	-0.104655966
25	0xbda32824	-0.079666406
26	0xbda99eaf	-0.082822196
27	0xbcc53f3d	-0.024078006
28	0x3d81dd82	0.063410774
29	0xbc80785a	-0.015682388
30	0xbc83c2c4	-0.016084082
31	0xbe1b6ec0	-0.15178967
32	0xbdfa91be	-0.12234829
33	0xbe0eb0d3	-0.1393464
34	0xbdb0e131	-0.08636702
35	0x3d917a72	0.07103433
36	0xbdddbafc	-0.1082668
37	0xbda4b7dd	-0.08042882
38	0xbdca7018	-0.098846614
39	0xbe389322	-0.18024877
40	0x3ce8c759	0.028415369
41	0xbe3c5c33	-0.18394546
42	0xbe16d851	-0.14730956
43	0xbcf12514	-0.029436626
44	0xbdd4a3c0	-0.10382795
45	0xbdf9ec02	-0.12203218
46	0xbda5e094	-0.080994755
47	0xbe8444e1	-0.258338
48	0xbebebc36	-0.3725297
49	0xbe0f0764	-0.13967663
50	0x3d22db09	0.03975967
51	0xbe272a4f	-0.16324733
52	0xbdc6accb	-0.097009264
53	0xbdc34190	-0.095339894
54	0xbe15a9ea	-0.14615598
55	0xbda27e4d	-0.07934246
56	0xbdad55c0	-0.08463621
57	0xbd3c9bc6	-0.046046995
58	0xbde0a054	-0.1096808
59	0xbc14e322	-0.009087356
60	0xbefba42f	-0.491487
61	0xbd930484	-0.07178596
62	0xbd34786d	-0.04406016
63	0xbd8ab4fe	-0.06772803
64	0xbe35c306	-0.17750177
65	0xbda2c99f	-0.079486124
66	0xbdef4a91	-0.11684144
67	0xbd1d97c9	-0.03847483
68	0xbd588b9e	-0.052867524
69	0xbe2be8f0	-0.16788077
70	0xbd591964	-0.05300273
71	0xbeecec94	-0.46274245
72	0xbe005e5e	-0.12535998
73	0xbdd2c816	-0.102920696
74	0xbd8247e8	-0.06361371
75	0xbdb85743	-0.09001019
76	0xbe0f5336	-0.13996586
77	0xbdfdf578	-0.12400335
78	0xbdfa4d68	-0.12221795
79	0xbeda516f	-0.42640254
80	0xbda86046	-0.08221488
81	0xbf0897ee	-0.53356826
82	0xbe5754c2	-0.21028426
83	0xbe91f4c1	-0.28507045
84	0xbe1c3055	-0.15252812
85	0xbce2f89d	-0.027706439
86	0xbddda32f	-0.108221404
87	0xbd429ff5	-0.04751583
88	0xbd339a80	-0.043848515
89	0xbe3ddb75	-0.18540747
90	0xbcb49bdd	-0.022046978
91	0xbea48c3c	-0.3213824
92	0xbdb0e75b	-0.086378776
93	0xbdbd7f8d	-0.09252844
94	0xbe8434f4	-0.2582165
95	0xbe043ec4	-0.12914568
96	0xbdbccfb4	-0.09219304
97	0xbe2e61e9	-0.17029537
98	0xbe167667	-0.14693604
99	0xbd849570	-0.064738154
100	0xbe0a99fc	-0.13535303
101	0x3d72291a	0.05912123
102	0xbdd67792	-0.10472025
103	0xbe33b510	-0.17549539
104	0xbcd3eb00	-0.025868893
105	0xbd104f4b	-0.03523187
106	0xbda60187	-0.0810576
107	0xbc9ca624	-0.01912219
108	0xbe1840be	-0.14868447
109	0xbe65a28d	-0.2242529
110	0xbd05b9cc	-0.032647893
111	0xbdcaebcf	-0.09908258
112	0xbe777360	-0.24165106
113	0xbdc40127	-0.09570532
114	0xbe396d4d	-0.18108101
115	0xbd182217	-0.037141886
116	0xbdd05627	-0.10172682
117	0xbd05fb2a	-0.03271023
118	0xbcf8eaf4	-0.030385472
119	0xbddd67ac	-0.108107895
120	0xbdd9b554	-0.10630289
121	0xbecdf593	-0.4022642
122	0xbdda0f56	-0.10647456
123	0xbdaf0ad8	-0.0854699
124	0xbc972e4e	-0.018454697
125	0x3cda8a5e	0.026677307
126	0xbe8e2b2a	-0.27767307
127	0xbd50cdba	-0.050977446

fc4.weight f4 [64, 128]
0	0x3d9f8038	0.07788128
1	0xbe59605e	-0.21228167
2	0xbd348e3f	-0.04408097
3	0xbcab2fbe	-0.020896789
4	0xbed57de3	-0.41697606
5	0xbdf65eed	-0.120298244
6	0xbde33407	-0.11093908
7	0xbd87a25c	-0.066227645
8	0xbcb5a645	-0.02217401
9	0x3d464bba	0.048412062
10	0xbca99b8d	-0.020704055
11	0x3c7ca47a	0.015420074
12	0xbccb54d0	-0.024820715
13	0x3d61db8e	0.055141024
14	0xbdc2514f	-0.09488165
15	0xbdd68f62	-0.10476567
16	0xbd2a9c7a	-0.041653134
17	0xbd6f4024	-0.05841078
18	0xbd4adef0	-0.049529016
19	0x3c771fc2	0.015083255
20	0x3c45f65a	0.012082661
21	0xbde4c093	-0.11169543
22	0xbd9a7df2	-0.075435534
23	0xbd6e747c	-0.058216557
24	0x3e31a7ba	0.17349139
25	0xbd4671ae	-0.048448257
26	0xbc08f5ad	-0.008359355
27	0xbcb6b1d3	-0.02230159
28	0xbd09c45d	-0.033634532
29	0xbd96f396	-0.07370679
30	0xbced77ae	-0.028987732
31	0xbde37e3c	-0.11108062
32	0xbdcb6df9	-0.09933085
33	0x3cb93ec8	0.022612944
34	0xbcc03e25	-0.023467133
35	0xbdc85211	-0.09781278
36	0xbe0a18ab	-0.13485973
37	0xbd22c466	-0.03973808
38	0xbd244052	-0.040100403
39	0xbd0eac36	-0.034832202
40	0xbe7b074a	-0.245145
41	0xbe378c57	-0.17924629
42	0x3d7217bd	0.05910467
43	0xbe00fae4	-0.12595707
44	0xbd95d407	-0.07315832
45	0x3c9854ff	0.018595217
46	0xbcf03620	-0.029322684
47	0x3ddf100e	0.10891734
48	0xbe2b8060	-0.1674819
49	0xbddde83e	-0.10835312
50	0xbe33ce90	-0.17559266
51	0xbdec050e	-0.115244016
52	0xbd3d8d73	-0.046277475
53	0x3b8b52a1	0.0042517935
54	0x3d515cda	0.05111394
55	0x3dcc6509	0.099802084
56	0xbdc26c8c	-0.0949336
57	0x3e1f510b	0.15558259
58	0xbdd50a16	-0.10402314
59	0xbd902ca6	-0.07039766
60	0x3e90ff26	0.28319663
61	0xbd0448f3	-0.032296132
62	0x3c5cea96	0.013483664
63	0xbd33d5f7	-0.043905225
64	0x3df23b70	0.11827743
65	0xbda1b180	-0.078951836
66	0xbda17daf	-0.078853
67	0xbb5437ec	-0.0032381965
68	0xbda0bbfe	-0.07848357
69	0xbccbf37c	-0.024896376
70	0xbd370076	-0.044678174
71	0x3da9a514	0.08283439
72	0xbe79c124	-0.24390084
73	0xbbf29142	-0.00740257
74	0xbe0e648c	-0.13905543
75	0xbd5060a0	-0.0508734
76	0xbd60c76a	-0.054877676
77	0x3dd8d3c5	0.10587267
78	0xbd9e34c3	-0.07724907
79	0xbe805a14	-0.25068724
80	0x3d443e19	0.047910783
81	0xbd5a7428	-0.05333343
82	0xbc8274ce	-0.015924837
83	0x3d29b5c8	0.041433126
84	0x3dd5c0f8	0.104371965
85	0x3d9d85cb	0.076915346
86	0xbdb9ffb3	-0.09081974
87	0xbe57370d	-0.21017094
88	0xbd87e85f	-0.06636118
89	0xbdbc00c7	-0.09179836
90	0x3cd93a26	0.026516985
91	0x3dc40db4	0.09572926
92	0xbd45ea11	-0.048318926
93	0x3d520046	0.051269792
94	0xbe38b8b9	-0.18039216
95	0xbd45c294	-0.048281267
96	0x3cff5b23	0.031171387
97	0x3d2e2ed4	0.042525128
98	0xbdfb1b7f	-0.12261104
99	0xbd0b1e3d	-0.033964384
100	0xbd86f4bd	-0.06589649
101	0xbe0203f5	-0.12696822
102	0x3cc17217	0.023613973
103	0x3bf5335c	0.007482929
104	0x3b8b63a1	0.00425382
105	0x3d3dcc18	0.046337217
106	0x3c1b34a1	0.009472997
107	0xbd300428	-0.042972714
108	0xbd93d960	-0.07219195
109	0xbe7bfd04	-0.24608237
110	0xbdb8ddbb	-0.09026667
111	0x3c96dfbe	0.018417235
112	0xbd52c0e3	-0.051453482
113	0xbda9d1fa	-0.08292003
114	0xbdd1b06e	-0.102387294
115	0xbd0b946d	-0.034077097
116	0xbc13daa0	-0.009024292
117	0xbe1eaa08	-0.1549455
118	0xbdba5315	-0.09097878
119	0xbb9daaf2	-0.004811638
120	0x3ca82eb3	0.02053008
121	0x3da52328	0.08063346
122	0xbd5769ea	-0.052591242
123	0x3c34cab8	0.01103466
124	0xbd6d96dc	-0.0580052
125	0xbd01ad73	-0.031659555
126	0xbdb7f3ff	-0.089820854
127	0xbdc99989	-0.09843738
128	0xbc657f40	-0.01400739
129	0xbdae7adb	-0.085195266
130	0x3da69ed2	0.08135761
131	0xbb4cfe11	-0.0031279365
132	0xbcf397f0	-0.029735535
133	0xbd94ef0f	-0.07272159
134	0x3d9f4b86	0.07778077
135	0xbd073b70	-0.03301567
136	0x3d92be4d	0.07165203
137	0x3d90399d	0.07042239
138	0x3d6336dd	0.055472244
139	0x3d0660c5	0.03280713
140	0xbdae5291	-0.08511842
141	0xbca22307	-0.019792093
142	0xbd0a50e6	-0.033768557
143	0xbd404065	-0.04693641
144	0x3de0d784	0.10978606
145	0xbc7bc593	-0.01536693
146	0xbd414e58	-0.047193855
147	0xbd2355ab	-0.03987662
148	0xbd787114	-0.060654715
149	0xbd519ef5	-0.051176984
150	0x3d7340cc	0.059387967
151	0xbd4f2a06	-0.050577186
152	0x3d1b7603	0.03795434
153	0xbcc3d737	-0.023906333
154	0x3cbf4de6	0.023352575
155	0x3dbde4da	0.092721656
156	0x3d3f5cce	0.046719365
157	0xbcd91b00	-0.026502132
158	0xbd79277a	-0.060828663
159	0x3d7f8319	0.062380884
160	0x3c9f2965	0.019428918
161	0xbd0cac89	-0.03434423
162	0xbdbd5d2f	-0.09246289
163	0xbdb51ba3	-0.08843162
164	0x3d4d5f46	0.050139688
165	0xbd1b4984	-0.037911907
166	0xbc6d5dac	-0.014487665
167	0xbc414846	-0.0117970165
168	0xbdbcfac6	-0.09227519
169	0xbd5312d0	-0.051531613
170	0xbd8b03c6	-0.06787829
171	0x3d7f36fe	0.062308304
172	0x3d6e48f9	0.05817506
173	0xbd91bb8c	-0.0711585
174	0x3d4fca56	0.050730072
175	0xbdd9a3bd	-0.10626934
176	0xbcfe1313	-0.031014955
177	0xbd5fcb49	-0.054637227
178	0x3a6bd34d	0.0008996025
179	0xbe076bc6	-0.13224706
180	0xbcdbff98	-0.026855275
181	0x3d51c6b8	0.051214904
182	0x3ccbb50f	0.024866609
183	0xbc974665	-0.018466184
184	0xbccaf11c	-0.024773173
185	0xbd70e23e	-0.05880951
186	0x3da71ff6	0.08160393
187	0x3dad6832	0.08467139
188	0x3c103196	0.008800885
189	0x3d2ceb30	0.04221648
190	0xba8dd9c0	-0.0010822341
191	0xbd4a1e70	-0.049345434
192	0xbdb40350	-0.08789694
193	0xbc9ea796	-0.01936702
194	0x3d3789df	0.04480922
195	0x3d4a1d34	0.049344257
196	0xbc9485f9	-0.01813029
197	0x3d80f512	0.062967435
198	0xbd0d3220	-0.03447163
199	0xbb990cdc	-0.0046707224
200	0xbd9eef93	-0.07760539
201	0xbd268b56	-0.040660225
202	0x3bcfd288	0.006342236
203	0x3d00a373	0.031405877
204	0xbd6936dd	-0.056937087
205	0xbdb3cba5	-0.087790765
206	0x3d3150ba	0.043289877
207	0x3cfebcba	0.031095851
208	0x3d0c887f	0.03430986
209	0x3cf2057a	0.029543627
210	0xbd0b4104	-0.03399755
211	0x3dbc4c27	0.091942124
212	0xbd14a9a1	-0.036294583
213	0xbd9b5ae8	-0.07585698
214	0x3d046762	0.032325156
215	0x3d8210b3	0.063508414
216	0x3c4a06ec	0.012330752
217	0xbc53eaa8	-0.012934364
218	0x3ca03669	0.019557195
219	0xbd97e240	-0.07416201
220	0xbd80ee8e	-0.06295501
221	0xbcbcff34	-0.02307091
222	0xbd02d1d8	-0.031938404
223	0x3b81875e	0.0039529046
224	0x3d3e579c	0.04647027
225	0x3c759216	0.014988443
226	0xbdb710a5	-0.089387216
227	0xbd9ce117	-0.0766012
228	0x3d720884	0.059090152
229	0xbd4d7fca	-0.050170697
230	0xbd321252	-0.043474503
231	0xbd141fe2	-0.03616322
232	0xbd0b1694	-0.03395708
233	0x3cb8c216	0.022553485
234	0xbd00b099	-0.031418417
235	0xbc306b12	-0.010767715
236	0xbda66f47	-0.08126693
237	0xbd962e52	-0.07333054
238	0x3d93b107	0.072115
239	0x3d718351	0.058963124
240	0x3d0c81a7	0.034303334
241	0xbd6a4b07	-0.057200458
242	0xbd32b95c	-0.043633804
243	0xbd24a65d	-0.04019772
244	0x3d80b1b0	0.06283891
245	0xbd278ade	-0.04090392
246	0xbcd2c2a4	-0.025727578
247	0xbd8c7652	-0.06858505
248	0xbd96f405	-0.07370762
249	0xbce2a94e	-0.027668621
250	0x3d392ff7	0.04521176
251	0xbd142d90	-0.036176264
252	0xbc33c6b6	-0.010972669
253	0xbc914ad1	-0.01773587
254	0xbd992451	-0.0747763
255	0xbca15014	-0.019691505

fc4.bias f4 [64]
0	0xbead9dde	-0.33909506
1	0xbd858c9b	-0.06520959
2	0xbd93a15a	-0.0720851
3	0xbee008ea	-0.437568
4	0xbe16307e	-0.14666936
5	0xbda6f3c4	-0.08151963
6	0xbe20b451	-0.15693785
7	0xbdedad18	-0.11605281
8	0xbe3b0fb2	-0.18267706
9	0xbe12ca13	-0.14334898
10	0xbf222b2d	-0.6334713
11	0xbe0eb35b	-0.13935606
12	0xbefd397b	-0.49457917
13	0xbe708c63	-0.23491053
14	0xbe532724	-0.206204
15	0xbd5bbfdf	-0.05364978
16	0xbe70ef1f	-0.23528717
17	0xbdfb817f	-0.12280559
18	0xbd0e5307	-0.03474715
19	0xbddd307c	-0.10800263
20	0xbded4710	-0.1158582
21	0xbdefc3ce	-0.11707269
22	0xbedd3e7e	-0.4321174
23	0xbde73892	-0.11290087
24	0xbd207112	-0.039170332
25	0xbeae059c	-0.33988655
26	0xbe32afc4	-0.17449862
27	0xbe29cad7	-0.16581284
28	0xbe8c5ae1	-0.27413085
29	0xbe27c73a	-0.16384593
30	0xbdf5fbb8	-0.12010902
31	0xbe647632	-0.22310713
32	0xbefa986a	-0.48944408
33	0xbe968a2e	-0.29402298
34	0xbddf9a4f	-0.10918104
35	0xbd6ed6e6	-0.058310412
36	0xbd9f780c	-0.07786569
37	0xbe130155	-0.14355977
38	0xbe5fe21d	-0.21863599
39	0xbe88cbcc	-0.26717985
40	0xbe930c76	-0.28720444
41	0xbddbb58c	-0.10727987
42	0xbd91baa1	-0.07115675
43	0xbd69dc63	-0.057094943
44	0xbe4dbffa	-0.20092764
45	0xbe5a6a0d	-0.21329518
46	0xbec43970	-0.3832507
47	0xbe483170	-0.19550109
48	0xbea05a9a	-0.31319124
49	0xbe91a1fc	-0.28443897
50	0xbe847476	-0.25870103
51	0xbebbc205	-0.36671463
52	0xbdf82e04	-0.12118152
53	0xbe0607c6	-0.13088903
54	0xbe1f9595	-0.15584405
55	0xbd8293d7	-0.063758545
56	0x3dbccd80	0.092188835
57	0xbe137db3	-0.14403419
58	0xbea7f40c	-0.3280338
59	0xbcef43f6	-0.029207211
60	0xbed71049	-0.42004612
61	0xbe062280	-0.13099098
62	0xbe070219	-0.13184394
63	0xbec79c90	-0.38986635

fc5.weight f4 [1, 64]
0	0x3ebe6938	0.3718965
1	0xbe656929	-0.22403397
2	0x3e1c29c9	0.15250315
3	0xbf01871d	-0.5059679
4	0x3cdad986	0.026715051
5	0xbe84d646	-0.25944728
6	0x3e17d4a7	0.14827214
7	0xbead36be	-0.33830827
8	0xbdf0c678	-0.11756605
9	0x3cb45b73	0.022016263
10	0xbe34e563	-0.17665629
11	0x3d40bff6	0.04705807
12	0x3e8d4700	0.2759323
13	0x3d04124b	0.032244008
14	0x3db3ad5b	0.08773299
15	0xbbfd4d08	-0.00773013
16	0x3de140df	0.10998701
17	0xbe218801	-0.15774538
18	0x3eb42d9e	0.35191053
19	0xbdd7ebe5	-0.1054304
20	0xbb878612	-0.0041358555
21	0x3f0fb664	0.5613768
22	0x3dd35939	0.10319752
23	0x3aea5cd0	0.0017880443
24	0xbdefdba3	-0.11711814
25	0xbe270f96	-0.1631454
26	0x3cfec685	0.03110052
27	0x3e4ba0ca	0.19885555
28	0x3e8f64b6	0.28006524
29	0x3e06bc9b	0.13157885
30	0xbe680490	-0.2265799
31	0x3b8d4e0c	0.0043122824
32	0xbf1b249e	-0.6060275
33	0xbd111a37	-0.03542539
34	0x3bd507fc	0.006501196
35	0xbd012298	-0.03152713
36	0xbbd70810	-0.0065622404
37	0x3f11123d	0.56668454
38	0x3cf97126	0.030449461
39	0x3d0e221e	0.034700505
40	0xbe8300ec	-0.2558664
41	0x3d10ecd0	0.035382092
42	0x3d384115	0.044983942
43	0xbce7291f	-0.02821785
44	0xbcea4b92	-0.028600488
45	0xbe7a20cc	-0.24426574
46	0xbdbb8150	-0.09155524
47	0xbaf2f8c0	-0.0018537268
48	0x3dfe0a82	0.12404348
49	0x3ee59500	0.4484024
50	0xbc4eb08a	-0.012615332
51	0xbcd3eafb	-0.025868883
52	0x3dc2a90b	0.09504899
53	0x3c37ba51	0.011213855
54	0xbdb29b40	-0.08721018
55	0xbbb45467	-0.0055032256
56	0xbdadcbcc	-0.08486137
57	0xbcb2490a	-0.021763343
58	0xbc331238	-0.010929637
59	0x3da6dfb0	0.08148134
60	0x3d199c0c	0.037502334
61	0x3d4c9d43	0.049954664
62	0x3d918f21	0.07107378
63	0x3edac4c5	0.42728248
