best_model.pth (torch, 712235 bytes, 10 tensors)

fc1.weight f4 [512, 8]
-0.06684476 0.14619827 -0.2544641 -0.27388424 -0.03695461 0.26607504 0.21166006 0.2053754
0.07372421 0.070884325 0.16728975 -0.3062342 -0.25806424 -0.3366586 -0.12889695 -0.3905107
-0.32798392 -0.32354057 -0.26735798 -0.16672155 -0.17563722 -0.043272913 0.34048328 0.16840765
0.29355776 0.12339675 -0.40537876 0.043148547 -0.12646371 0.24621423 -0.3178962 0.024519885
-0.30468234 -0.4005142 -0.17059065 -0.11253559 -0.3456518 0.24987963 -0.07353834 0.14280717
-0.11697559 -0.34416643 -0.2790631 -0.19006503 -0.06392196 -0.1665851 0.10657334 -0.31994537
0.042218436 -0.14927314 -0.22106561 -0.10598547 -0.31979477 0.19310322 -0.35276267 -0.040357586
0.0041373842 -0.23515496 0.10594561 0.12802914 -0.16840559 -0.3290142 0.3007909 0.23066844
-0.2923409 0.18239745 -0.13726954 0.25579914 0.03394103 0.12057704 -0.11724684 -0.046963394
0.013664391 0.11649794 -0.13515915 0.120502606 -0.16525346 -0.19889584 0.094692804 0.18376549
-0.021925434 -0.26656184 0.03380401 0.2940321 -0.20360805 0.0093241595 -0.18953593 -0.16625759
-0.2760306 -0.22813265 -0.03438437 0.31454936 0.06717401 0.018214123 -0.053717583 -0.018006168
-0.19540776 -0.30343884 -0.05275288 0.048700273 -0.1776024 -0.014962333 0.07355014 -0.3155559
-0.4147379 0.4145605 0.12299848 0.016738715 -0.33208877 0.27694818 -0.035409726 0.17407529
-0.10323115 -0.10474858 -0.012856998 0.11385445 -0.18473357 0.17857783 0.012208642 -0.34529877
0.26319492 -0.17198117 0.2684578 -0.20158044 -0.18812172 -0.1740847 -0.03649343 -0.2940435
-0.052521337 -0.052374367 0.010688422 0.0080189705 -0.11756518 0.055125695 0.32280427 0.045043282
0.21841927 0.30289403 -0.32344645 -0.034409493 0.06234621 0.34240735 0.199912 -0.04904726
0.26568574 0.190157 -0.06773578 -0.2810539 0.06266627 -0.12601125 -0.020714995 -0.09230456
0.07101611 0.0791995 0.0046111676 0.07070394 0.22833967 0.33970624 -0.32593665 -0.0037065914
0.15355675 -0.22331466 -0.043318033 -0.25259033 0.11056067 -0.29523656 0.036762856 0.10481973
-0.13920741 -0.3072866 -0.33676174 -0.15098585 0.1205354 0.0039520264 -0.08963883 0.1814917
0.010715872 -0.08783868 -0.30341423 0.32099143 -0.16968518 -0.32239863 -0.1102559 0.0140096545
-0.37776896 0.2458097 0.029132696 -0.32863364 0.0256784 -0.09065799 -0.33183318 -0.45228213
-0.24380903 0.34353712 -0.22220334 -0.03521741 -0.02078234 -0.08327942 0.25140855 0.17752373
-0.011148645 -0.2424381 -0.21698254 -0.22174637 0.14157163 0.021082982 0.33289528 -0.03127956
-0.018663079 -0.005533112 0.33390474 0.1174256 0.13620871 -0.23128764 -0.29050878 0.102105476
-0.06338818 0.03675746 0.053850215 0.19718614 0.115472786 0.25532377 0.26345798 0.008996147
-0.23881859 0.045167275 -0.31559238 -0.08718858 -0.07371357 0.2929619 0.021883883 0.27533165
-0.052571114 -0.40555623 0.18958768 -0.09090099 0.23308048 -0.145153 0.1777516 0.257618
-0.1261618 0.19053178 0.038978823 -0.015143349 0.2226113 -0.24644186 0.050451446 0.285413
-0.31289992 -0.23594135 -0.1049204 0.111177385 0.26661572 0.15848413 -0.061106384 -0.072530836
00000000: e8e5 88bd 00b5 153e 1e49 82be 8e3a 8cbe
00000010: b85d 17bd fd3a 883e 6abd 583e ee4d 523e
00000020: b8fc 963d cd2b 913d 014e 2b3e bbca 9cbe
00000030: ff20 84be 845e acbe 90fd 03be 05f1 c7be
00000040: 82ed a7be 1ca7 a5be 25e3 88be 0eb9 2abe
00000050: 3eda 33be f03e 31bd d353 ae3e 0e73 2c3e
00000060: 344d 963e 6fb7 fc3d ce8d cfbe 88bc 303d
00000070: b47f 01be 951f 7c3e 4ac3 a2be eddd c83c
00000080: 53ff 9bbe 3210 cdbe 51af 2ebe 0f79 e6bd
00000090: 46f9 b0be 72e0 7f3e 459b 96bd 0b3c 123e
000000a0: e690 efbd 9536 b0be 5ce1 8ebe 68a0 42be
000000b0: 84e9 82bd 4995 2abe 2043 da3d e1cf a3be
000000c0: 3ded 2c3d 0fdb 18be 065f 62be e90e d9bd
000000d0: 24bc a3be dabc 453e 4f9d b4be ff4d 25bd
000000e0: e592 873b 76cc 70be 03fa d83d 121a 033e
000000f0: 8472 2cbe 8d74 a8be 4401 9a3e 5934 6c3e
00000100: b5ad 95be 66c6 3a3e 6390 0cbe 1bf8 823e
00000110: c005 0b3d 18f1 f63d 1c1f f0bd b05c 40bd
00000120: 9ce0 5f3c 7996 ee3d 2967 0abe 12ca f63d
00000130: 3438 29be 5aab 4bbe 4dee c13d 052d 3c3e
00000140: f89c b3bc cb7a 88be 1376 0a3d 608b 963e
00000150: a17e 50be 5cc4 183c b515 42be 6e3f 2abe
00000160: e253 8dbe 9b9b 69be a0d6 0cbd 9d0c a13e
00000170: 8792 893d c935 953c f806 5cbd ac81 93bc
00000180: f918 48be 565c 9bbe 6713 58bd f079 473d
00000190: 67dd 35be 9324 75bc 75a1 963d 8b90 a1be
000001a0: 8758 d4be 4641 d43e a1e6 fb3d a11f 893c
000001b0: 8a07 aabe 27cc 8d3e ca09 11bd cb40 323e
000001c0: da6a d3bd 6c86 d6bd 28a6 52bc 862c e93d
000001d0: cc2a 3dbe 1bdd 363e c206 483c 00cb b0be
000001e0: 7cc1 863e d51b 30be 4d73 893e 1a6b 4ebe
000001f0: fba2 40be 4243 32be 237a 15bd df8c 96be
00000200: 9d20 57bd 8186 56bd 7e1e 2f3c 0062 033c
00000210: 03c6 f0bd 7bcb 613d 9a46 a53e 4e7f 383d
00000220: 4da9 5f3e ed14 9b3e c69a a5be f8f0 0cbd
00000230: bd5e 7f3d 0450 af3e bbb5 4c3e c8e5 48bd
00000240: f607 883e 84b8 423e 0eb9 8abd 4ce6 8fbe
00000250: 2c57 803d 1809 01be 7eb2 a9bc 2c0a bdbd
00000260: e570 913d 5933 a23d 4719 973b 3acd 903d
00000270: e0d1 693e faed ad3e 2be1 a6be 49ea 72bb
00000280: fb3d 1d3e 99ac 64be 406e 31bd 8553 81be
00000290: a26d e23d 3f29 97be a694 163d baab d63d
000002a0: 638c 0ebe ab54 9dbe 096c acbe 099c 1abe
000002b0: 44db f63d 0080 813b 9094 b7bd f6d8 393e
000002c0: a091 2f3c c4e4 b3bd 1c59 9bbe fd58 a43e
000002d0: f4c1 2dbe 6f11 a5be d8cd e1bd c088 653c
000002e0: ef6a c1be 8ab5 7b3e b1a7 ee3c ab42 a8be
000002f0: 825b d23c e5aa b9bd 0ae6 a9be 8691 e7be
00000300: 13a9 79be 19e4 af3e 4689 63be 2240 10bd
00000310: ba3f aabc 678e aabd 9fb8 803e c8c8 353e
00000320: cea8 36bc b141 78be ac30 5ebe 7b11 63be
00000330: 27f8 103e 38b6 ac3c 4071 aa3e ff1e 00bd
00000340: 50e3 98bc 1c4f b5bb 90f5 aa3e d57c f03d
00000350: 4c7a 0b3e abd6 6cbe 91bd 94be ad1c d13d
00000360: aad1 81bd fe8e 163d 0b92 5c3d 2aeb 493e
00000370: ff7c ec3d ccb9 823e f7e3 863e 9364 133c
00000380: dc8c 74be 5201 393d 5395 a1be ed8f b2bd
00000390: 24f7 96bd 1aff 953e d445 b33c 45f8 8c3e
000003a0: cf54 57bd 11a5 cfbe 4623 423e 4c2a babd
000003b0: a6ac 6e3e fda2 14be 8404 363e 82e6 833e
000003c0: 8f30 01be c31a 433e 42a8 1f3d cf1b 78bc
000003d0: 37f4 633e 415b 7cbe 2da6 4e3d a721 923e
000003e0: 6b34 a0be 9c9a 71be 82e0 d6bd f8b0 e33d
000003f0: db81 883e aa49 223e b04a 7abd 0c8b 94bd

fc1.bias f4 [512]
-0.32704833 0.1149691 -0.2901063 0.124620736 0.30692992 0.1618956 0.2835454 0.09566308
-0.2594416 0.086902454 -0.0025828541 0.017088119 0.29247582 -0.23950396 -0.046881955 0.14693008
-0.22104533 -0.15818606 0.08802441 -0.2939137 0.08074886 -0.057053477 -0.18717787 0.11003479
0.09733692 0.036473975 -0.318165 -0.14773539 0.13001728 0.17736788 0.095272765 -0.21266744
0.022241592 -0.17097919 -0.03765791 0.18200591 0.116353765 0.18463874 -0.15285084 0.19760367
0.21368887 -0.31382403 -0.09985739 -0.032589618 0.044039614 0.2652576 0.037377894 -0.30650988
-0.008461631 -0.17340533 -0.21693057 0.088373855 -0.2745667 0.1098949 -0.2758646 0.1680428
-0.23072445 0.053901244 -0.18923008 -0.31706315 0.23049156 -0.3680006 -0.033331435 0.08569048
0.0830551 -0.16282266 -0.18399246 0.0632474 -0.067663595 -0.057015225 0.10418855 -0.000637406
-0.16498888 -0.24548297 -0.31285176 -0.29322317 0.22441852 -0.06162581 -0.27650496 0.029011568
0.21612316 -0.2893896 0.035112187 -0.031342354 0.10953406 0.08727451 -0.17044716 -0.18351534
-0.18321082 -0.32624948 0.07906198 -0.21354939 0.15058818 0.10838092 -0.04976979 0.22521248
-0.22747695 -0.120725445 -0.21747752 -0.118126824 0.101766646 0.02535516 -0.02147677 -0.14936729
0.1646325 -0.028571628 0.123482324 -0.1558267 0.11772094 -0.019443491 0.39016366 -0.1639133
0.04850202 0.17928769 0.108277455 -0.14642364 -0.37134475 -0.030895358 0.14334293 -0.2036784
-0.36180416 0.20693487 -0.072430775 -0.26785284 -0.24122499 -0.2062131 0.07874763 0.04469598
-0.0964843 -0.24736784 -0.37351906 -0.31240305 -0.1445746 -0.11313908 0.0928821 -0.32023188
-0.23725355 -0.032531917 -0.06549299 0.08265557 -0.09860849 0.10887235 -0.09229957 0.09575292
0.37004906 -0.15550683 -0.24960302 0.0005507978 0.08611581 -0.22253612 -0.042227387 -0.18541521
0.37904158 -0.24116178 -0.091267124 -0.2903786 -0.025587788 0.0077869594 -0.32314375 -0.009678905
0.08896633 -0.2679067 -0.26860368 -0.22317898 0.17965472 -0.05777627 -0.024141682 0.27234587
-0.29701132 -0.33910903 0.14359777 0.22991854 0.25157818 -0.12744638 0.35225508 -0.31306195
0.048679776 -0.35042515 0.063926436 0.074818194 -0.13630903 0.14291373 -0.052743766 -0.15676722
0.11950965 -0.10601031 -0.06848646 -0.1864213 0.10510156 -0.072011255 -0.33866096 -0.18763658
-0.24395877 -0.1362896 -0.19149852 0.03868265 -0.082832344 -0.0005042851 0.081504725 -0.015083154
-0.27164617 0.22821912 -0.08323577 0.3582466 -0.32576224 0.2153677 0.07499283 -0.09581597
-0.2017544 -0.16938642 -0.025296602 -0.05276108 0.05974438 -0.033335097 -0.17374903 -0.047524735
-0.043278515 0.40086535 -0.35178688 0.20139413 -0.31465426 0.20089719 -0.17336142 0.08594244
-0.3138061 0.17592049 -0.16491948 0.23387326 -0.15407552 0.08576758 -0.15125091 -0.16208
-0.22748873 -0.15078646 -0.02468778 0.044531267 -0.17617711 0.24291708 -0.039667353 0.3835135
0.13206486 -0.21917437 0.04049296 0.07642622 -0.07313179 0.14742053 0.15071663 -0.14911336
-0.09017882 -0.26796585 0.15246227 0.018539201 0.070841335 -0.17177689 -0.11413307 -0.18741827
00000000: e172 a7be eb74 eb3d d088 94be 2839 ff3d
00000010: eb25 9d3e f6c7 253e dd2c 913e 01eb c33d
00000020: 88d5 84be eaf9 b13d 1a45 29bb 62fc 8b3c
00000030: 64bf 953e 8740 75be 4b07 40bd d774 163e
00000040: b559 62be 87fb 21be 2446 b43d db7b 96be
00000050: a95f a53d e8b0 69bd 8eab 3fbe ec59 e13d
00000060: 9458 c73d bc65 153d 86e6 a2be f247 17be
00000070: 4023 053e ed9f 353e 5e1e c33d 7ec5 59be
00000080: 0034 b63c 2b15 2fbe 2e3f 1abd c25f 3a3e
00000090: e24a ee3d f011 3d3e ee84 1cbe 9e58 4a3e
000000a0: 41d1 5a3e 8bad a0be 0882 ccbd b17c 05bd
000000b0: e262 343d d8cf 873e 9019 193d ddee 9cbe
000000c0: a7a2 0abc 2b91 31be 0c23 5ebe 5afd b43d
000000d0: 0294 8cbe 9410 e13d 203e 8dbe 6913 2c3e
000000e0: 0843 6cbe 8dc7 5c3d 88c5 41be 1a56 a2be
000000f0: fb05 6c3e 936a bcbe 8b86 08bd 7e7e af3d
00000100: cb18 aa3d fcba 26be 8568 3cbe da87 813d
00000110: 3693 8abd cc88 69bd ce60 d53d 9817 27ba
00000120: d8f2 28be e35f 7bbe 1b2e a0be 5921 96be
00000130: f8cd 653e 586b 7cbd 0f92 8dbe aba9 ed3c
00000140: 644f 5d3e e02a 94be ccd1 0f3d d760 00bd
00000150: 6553 e03d fabc b23d b389 2ebe 72eb 3bbe
00000160: 9e9b 3bbe 2c0a a7be 3feb a13d b1ac 5abe
00000170: ca33 1a3e d1f6 dd3d 68db 4bbd 1a9e 663e
00000180: b8ef 68be e73e f7bd 6db2 5ebe 7aec f1bd
00000190: 086b d03d a0b5 cf3c 0df0 afbc bdf3 18be
000001a0: 6c95 283e 0c0f eabc 4de4 fc3d 0991 1fbe
000001b0: ad17 f13d f547 9fbc 88c3 c73e e3d8 27be
000001c0: 0eaa 463d 3197 373e 92c0 dd3d 14f0 15be
000001d0: e620 bebe 4318 fdbc 7dc8 123e 1291 50be
000001e0: 653e b9be bce6 533e 9656 94bd 0224 89be
000001f0: af03 77be 8729 53be 7046 a13d 2213 373d
00000200: 9099 c5bd ff4d 7dbe e43d bfbe 4bf3 9fbe
00000210: 5d0b 14be 76b5 e7bd f838 be3d 6ff5 a3be
00000220: 98f2 72be 3040 05bd 3021 86bd 5347 a93d
00000230: 3ff3 c9bd 77f8 de3d 8f07 bdbd 1b1a c43d
00000240: 1277 bd3e 2f3d 1fbe ef97 7fbe 6a63 103a
00000250: 7c5d b03d 82e0 63be a0f6 2cbd 7cdd 3dbe
00000260: bd11 c23e 1df3 76be 42ea babd 81ac 94be
00000270: 7b9d d1bc c029 ff3b 1973 a5be 4594 1ebc
00000280: fb33 b63d 112b 89be 6c86 89be 0889 64be
00000290: 68f7 373e cfa6 6cbd c7c4 c5bc eb70 8b3e
000002a0: de11 98be b39f adbe 4b0b 133e c46f 6b3e
000002b0: dbce 803e 4e81 02be c75a b43e a849 a0be
000002c0: 7264 473d ed6a b3be ddeb 823d 483a 993d
000002d0: 9894 0bbe fa57 123e d909 58bd 9687 20be
000002e0: 7ac1 f43d ef1b d9bd a142 8cbd 3ae5 3ebe
000002f0: 7d3f d73d a37a 93bd f864 adbe ce23 40be
00000300: 54d0 79be 808f 0bbe 3018 44be b371 1e3d
00000310: 01a4 a9bd 0032 04ba f3eb a63d 551f 77bc
00000320: 3515 8bbe 46b2 693e 8477 aabd 196c b73e
00000330: 4fca a6be 5a89 5c3e d795 993d 2a3b c4bd
00000340: b598 4ebe a273 2dbe d23a cfbc 011c 58bd
00000350: 86b6 743d 628a 08bd 44eb 31be 4ca9 42bd
00000360: d044 31bd 393e cd3e 691d b4be 433a 4e3e
00000370: 5d1a a1be feb7 4d3e a885 31be 9702 b03d
00000380: 31ab a0be 8024 343e a7e0 28be 797c 6f3e
00000390: f9c5 1dbe eaa6 af3d 85e1 1abe 4df8 25be
000003a0: cef2 68be c467 1abe 073e cabc 6b66 363d
000003b0: c667 34be 41bf 783e 3c7a 22bd e25b c43e
000003c0: 033c 073e 3f6f 60be f2db 253d 5a85 9c3d
000003d0: 1fc6 95bd 68f5 163e 7655 1a3e 2cb1 18be
000003e0: acaf b8bd d232 89be 121f 1c3e 86df 973c
000003f0: 4315 913d 48e6 2fbe 99be e9bd 93ea 3fbe

fc2.weight f4 [256, 512]
0.02585962 -0.0045997016 0.02944522 0.020234082 -0.024830068 0.040991426 0.007198503 0.040876113
-0.0020178594 0.030467011 0.021904295 -0.041781683 -0.02537838 0.034930438 -0.031423204 -0.020910094
0.014665141 0.023830121 0.012368291 -0.018522695 0.02418571 0.03847267 0.0120945275 0.056759167
0.02024531 0.0138997 0.026229937 -0.042060267 -0.035978455 0.019782562 -0.047470484 -0.01720604
0.023199946 -0.035706066 0.03244 -0.030811043 -0.028166523 -0.033132926 -0.024090176 0.02302565
0.040689867 0.031674106 0.0014964694 0.025454625 -0.03556647 0.038023766 -0.036711134 0.028437572
0.04302391 0.0299352 -0.02843985 -0.0093560675 -0.011109445 -0.0045707882 -0.0029920526 -0.02565754
-0.03175733 0.0089764735 -0.016101183 -0.04505138 0.0150367515 0.0047193863 0.01690548 0.033588547
0.0028125148 0.025668008 0.011365964 -0.016197184 0.024974171 -0.002499025 -0.027046528 0.012489371
-0.021445347 -0.03944837 0.03929851 -0.04676803 -0.028142815 -0.04711211 0.02421761 0.010228847
0.026371343 0.041777838 0.017553603 0.002718391 -0.029335912 0.007198238 -0.024092777 0.02360129
0.026786996 -0.010938387 -0.02841596 -0.006168738 0.017913569 0.03091096 -0.028498411 0.03960255
-0.012984947 0.017447613 0.0035691904 -0.026673844 0.031380117 -0.032755528 -0.006954018 -0.008298229
-0.03634182 0.007230301 0.00920015 -0.015136854 -0.023187736 -0.029764052 0.015876645 0.0021556714
-0.0059046536 0.0013287293 0.037697893 0.0014034119 -0.0007812153 -0.015965024 -0.038947742 0.016274456
-0.031024396 0.03745978 0.01406135 -0.020148126 0.022111671 -0.03312909 0.01936413 0.030067572
-0.04179121 0.02979604 0.016319519 -0.0036621764 -0.040658306 -0.0029698748 0.0032030754 -0.016795684
0.02456564 -0.0037880018 -0.028894315 0.01891648 -0.02076929 0.02346346 0.014392155 -0.014305199
0.031479467 0.021174071 0.04031552 0.01812123 0.013822384 0.028757967 -0.03441053 -0.026426164
-0.036706746 0.009449229 0.0073679695 0.021622296 0.0066062603 -0.025676772 -0.0068974346 -0.025948517
-0.037563298 0.0066476483 0.017805893 -0.04102206 -0.0062948354 -0.002168384 0.010146575 0.0449703
-0.003333822 -0.028744867 0.030730912 0.023086332 -0.012362563 -0.0048545264 0.049415532 0.04208977
0.013094947 -0.00973675 0.023105584 -0.0023852326 -0.040789012 0.03087882 -0.04501195 -0.03160882
0.057476327 -0.015827691 0.007979866 0.042814087 -0.00965768 -0.041676577 0.0034085996 -0.012010788
-0.021461833 -0.029755805 -0.026968086 0.044337653 -0.038350448 -0.041367758 0.023548152 0.012377887
-0.014477259 -0.0107553825 0.04160413 0.033036802 -0.034461625 0.026625134 -0.0006834428 -0.047450863
-0.04370134 0.0014663307 -0.015616537 0.040875718 -0.02320706 0.034160964 -0.04863751 -0.019805692
-0.008869781 -0.019655507 0.03279117 -0.017410805 -0.035126604 0.054470446 -0.012532566 -0.005796833
-0.00809624 0.023792073 -0.03865969 -0.011438809 -0.024017734 0.014621361 -0.049099907 -0.016754879
-0.046179462 0.011509173 -0.026675463 0.00025221132 0.018859249 0.06253552 -0.025300033 -0.020067846
-0.040444512 -0.014939291 0.04303405 -0.011415943 -0.022632513 -0.01156911 0.048779663 -0.022184625
0.024734963 -0.0069939904 0.038046267 0.010410899 -0.024808384 0.010261837 -0.020186463 0.043562505
00000000: 8ed7 d33c 18b9 96bb 1a37 f13c f2c1 a53c
00000010: 6d68 cbbc a0e6 273d 6be1 eb3b b66d 273d
00000020: 103e 04bb f495 f93c a370 b33c 4523 2bbd
00000030: 52e6 cfbc 3813 0f3d 9eb5 00bd a54b abbc
00000040: 0f46 703c 6337 c33c 5fa4 4a3c e8bc 97bc
00000050: 1c21 c63c 8595 1d3d 2028 463c 4d7c 683d
00000060: 7ed9 a53c 91bb 633c 2ae0 d63c 6347 2cbd
00000070: 255e 13bd 0a0f a23c 6970 42bd aef3 8cbc
00000080: d00d be3c 8640 12bd cedf 043d 7167 fcbc
00000090: 7bbd e6bc 64b6 07bd c358 c5bc 4aa0 bc3c
000000a0: 6baa 263d b5bc 013d 2e25 c43a 3886 d03c
000000b0: 26ae 11bd cfbe 1b3d 6a5e 16bd e9f5 e83c
000000c0: d739 303d aa3a f53c b0fa e8bc 314a 19bc
000000d0: 6404 36bc 8dc6 95bb 5016 44bb c32f d2bc
000000e0: f913 02bd 0f12 133c a1e6 83bc cc87 38bd
000000f0: b55c 763c 15a5 9a3b 5c7d 8a3c 2594 093d
00000100: 2b52 383b b745 d23c 4f38 3a3c f5af 84bc
00000110: a296 cc3c afc6 23bb ae90 ddbc 38a0 4c3c
00000120: 27ae afbc 9d94 21bd 79f7 203d d58f 3fbd
00000130: c38b e6bc a1f8 40bd 0264 c63c e596 273c
00000140: b708 d83c 3d1f 2b3d 93cc 8f3c 0827 323b
00000150: de51 f0bc 32df eb3b 375e c5bc 7e57 c13c
00000160: 6770 db3c ec36 33bc 96c8 e8bc 2023 cabb
00000170: 7abf 923c fb38 fd3c 8075 e9bc 4936 223d
00000180: d1be 54bc 4cee 8e3c 14e9 693b 1b83 dabc
00000190: 7088 003d a92a 06bd 88de e3bb 4cf5 07bc
000001a0: 29db 14bd 29ec ec3b 3abc 163c 9100 78bc
000001b0: 35f4 bdbc bed3 f3bc bd0f 823c 2a46 0d3b
000001c0: d37b c1bb c228 ae3a 1b69 1a3d b0f2 b73a
000001d0: 79ca 4cba 15c9 82bc ab87 1fbd 0252 853c
000001e0: e026 febc 6d6f 193d 9461 663c af0d a5bc
000001f0: 8923 b53c 5eb2 07bd 86a1 9e3c 4550 f63c
00000200: 432d 2bbd d316 f43c 83b0 853c 2001 70bb
00000210: 5389 26bd 3ba2 42bb b0ea 513b 1a97 89bc
00000220: e23d c93c 2040 78bb c5b3 ecbc bcf6 9a3c
00000230: 5c24 aabc 7136 c03c 13cd 6b3c 5a60 6abc
00000240: 9df0 003d 3f75 ad3c e321 253d f972 943c
00000250: 4877 623c d495 eb3c 0ef2 0cbd af7b d8bc
00000260: d059 16bd f0d0 1a3c 026f f13b 3e21 b13c
00000270: 5479 d83b 1858 d2bc e003 e2bb fc91 d4bc
00000280: f9db 19bd 84d4 d93b aadd 913c bf06 28bd
00000290: e844 cebb 721b 0ebb d23d 263c c732 383d
000002a0: 407c 5abb 5b7a ebbc 65bf fb3c 8c1f bd3c
000002b0: 598c 4abc b812 9fbb f167 4a3d 5366 2c3d
000002c0: 308c 563c e486 1fbc ec47 bd3c 9051 1cbb
000002d0: 6112 27bd 94f5 fc3c 735e 38bd 4078 01bd
000002e0: 4c6c 6b3d 13a9 81bc fcbd 023c d35d 2f3d
000002f0: 3f3b 1ebc 0fb5 2abd d062 5f3b e5c8 44bc
00000300: bad0 afbc 72c2 f3bc 2dec dcbc 669b 353d
00000310: 5c15 1dbd 3d71 29bd 0ee8 c03c 9fcc 4a3c
00000320: 0632 6dbc 5837 30bc 1869 2a3d 9951 073d
00000330: a227 0dbd f41c da3c 1229 33ba d65b 42bd
00000340: 2d00 33bd e531 c03a 81dc 7fbc 4c6d 273d
00000350: bb1c bebc 5eec 0b3d 2038 47bd 8c3f a2bc
00000360: 8f52 11bc 9604 a1bc 0950 063d 1ba1 8ebc
00000370: eae0 0fbd 671c 5f3d 6455 4dbc 5cf3 bdbb
00000380: 18a6 04bc 98e7 c23c a059 1ebd d869 3bbc
00000390: d7c0 c4bc 6f8e 6f3c fc1c 49bd 8741 89bc
000003a0: ad26 3dbd f890 3c3c 8086 dabc 3b3b 8439
000003b0: b67e 9a3c 9f12 803d 0442 cfbc 5365 a4bc
000003c0: 25a9 25bd eec3 74bc 7944 303d ef09 3bbc
000003d0: d267 b9bc 5d8c 3dbc 2fcd 473d 88bc b5bc
000003e0: faa0 ca3c d82d e5bb 67d6 1b3d 7a92 2a3c
000003f0: f43a cbbc 4421 283c 155e a5bc 996e 323d

fc2.bias f4 [256]
0.021234442 -0.041446093 0.010559926 -0.00029118935 -0.001428616 -0.037898496 0.011470056 -0.04255834
-0.041117035 -0.051634803 0.06461546 0.011142262 -0.0045466577 -0.044602066 -0.046531413 0.06652825
-0.023474671 -0.085624665 -0.025974862 -0.07143948 -0.10732458 -0.009850351 -0.04364229 -0.015531073
-0.0586828 -0.008126375 -0.010093975 -0.00028475607 -0.04426131 0.01216306 -0.057004914 -0.036699317
-0.012830478 -0.036388595 -0.0008611381 -0.06300333 0.001025009 -0.019687813 0.002282054 -0.024749352
-0.009037152 -0.05075017 -0.04407921 -0.046297397 -0.018448498 0.108511195 -0.024789004 -0.035266344
-0.011522604 0.0003287061 -0.0022427044 -0.10865548 -0.0045836433 -0.046941835 0.109644 -0.0044505564
-0.012471565 0.031906836 0.009294975 -0.013883259 -0.024176229 0.013404217 -0.023129672 -0.0074116555
-0.048001025 -0.009136364 -0.010830259 -0.037570514 0.06582849 -0.04701061 -0.02311965 -0.0313879
-0.033438027 -0.05193841 0.0016336353 -0.053829517 -0.03854866 0.0237956 0.01452538 -0.036476314
-0.04998506 0.016581576 -0.05066548 0.0151992105 0.089759886 -0.0101091 -0.022353861 -0.047926955
-0.0015838708 -0.06252316 -0.033447526 0.010416808 -0.10841096 0.116880774 -0.027659275 0.090573736
0.058192596 -0.045986213 -0.047993466 -0.044635296 -0.010266887 -0.20644973 -0.005381478 0.0035773837
-0.051942408 -0.0043572094 -0.010776111 -0.027597362 -0.042417295 -0.008907008 0.010807287 -0.02018338
-0.03489297 -0.029931135 -0.035654984 -0.01688855 -0.012254104 -0.1119816 0.124909475 0.03743855
-0.015717065 0.03313273 -0.013149018 -0.054770034 0.003492632 -0.0019346126 -0.0007444036 -0.024448387
0.01939751 -0.11444615 -0.035580456 0.007717386 0.009920883 0.03473109 -0.049859393 -0.05842234
-0.036172234 0.025687817 -0.019205062 -0.010944587 0.05663084 0.017973876 -0.0031761848 0.007187911
-0.025932318 0.032361403 0.0053801257 -0.030267373 0.007608811 -0.04937083 -0.062150404 0.022047551
-0.04237716 -0.0014029274 -0.025967706 -0.03426319 -0.026971508 -0.013617488 0.04057394 -0.084308974
0.0015181279 -0.024317848 -0.013148503 -0.06681606 -0.043597054 -0.00849121 -0.04648904 -0.13117526
-0.04625945 -0.019333672 -0.033590663 -0.045078456 0.040600408 0.022542829 -0.0035315007 0.030483166
-0.014942959 -0.012264511 0.031464934 -0.096826926 -0.051923465 -0.04068426 0.029865358 -0.0017107937
0.034519445 0.0048712725 -0.026666254 -0.002803803 -0.013385274 -0.047783203 -0.018794103 -0.05193019
-0.0065322523 -0.04617694 -0.13727883 -0.028188081 0.00336845 0.022854257 0.039347693 -0.016764067
-0.005078924 -0.000874901 -0.010168651 0.060453083 0.052612204 0.0572725 -0.011883093 0.0033834812
0.06493855 -0.041151226 0.0054465337 -0.026152821 -0.016925048 -0.0312751 -0.06916684 0.04404162
-0.0053810575 -0.041401587 -0.0747431 -0.00804476 -0.05666893 0.02355637 -0.018500471 0.01766536
-0.043972794 -0.05841856 0.010823918 0.023145774 -0.006794786 -0.011657884 -0.0082338005 -0.052167777
-0.047530867 -0.023093862 -0.053555373 -0.00061223994 0.006697772 -0.056726452 0.0049608983 0.03932212
-0.07157254 0.001157917 -0.02907049 0.03655698 0.0058343825 -0.019302607 0.0015940743 -0.026766365
-0.0018061884 -0.036156256 0.043827828 0.031254947 0.010056412 -0.0001064518 -0.031469017 0.01237877
00000000: daf3 ad3c 61c3 29bd 8a03 2d3c c6aa 98b9
00000010: 6640 bbba 743b 1bbd e7ec 3b3c a751 2ebd
00000020: 566a 28bd 047f 53bd 1c55 843d 098e 363c
00000030: 21fc 94bb a8b0 36bd b997 3ebd f73f 883d
00000040: f44d c0bc fc5b afbd 3cc9 d4bc dd4e 92bd
00000050: fdcc dbbd 5e63 21bc 42c2 32bd 0b76 7ebc
00000060: 605d 70bd 7d24 05bc 3361 25bc 504b 95b9
00000070: 594b 35bd 9247 473c fc7d 69bd 0652 16bd
00000080: ed36 52bc 350c 15bd 00be 61ba e407 81bd
00000090: 9859 863a 5648 a1bc 838e 153b 27bf cabc
000000a0: 9010 14bc 69df 4fbd 678c 34bd 57a2 3dbd
000000b0: 4e21 97bc 1e3b de3d 4f12 cbbc 7173 10bd
000000c0: 4ec9 3cbc 3056 ac39 56fa 12bb c486 debd
000000d0: 6332 96bb 1546 40bd 098d e03d f9d5 91bb
000000e0: 8955 4cbc beb0 023d f349 183c 9c76 63bc
000000f0: 3a0d c6bc 5c9d 5b3c 707a bdbc 79dd f2bb
00000100: b99c 44bd b0b0 15bc 6671 31bc 8ae3 19bd
00000110: 16d1 863d 338e 40bd 6c65 bdbc 9990 00bd
00000120: 50f6 08bd 5fbd 54bd b41f d63a 577c 5cbd
00000130: 33e5 1dbd fdee c23c dcfb 6d3c 3068 15bd
00000140: 22bd 4cbd 16d6 873c 9b86 4fbd 1c06 793c
00000150: 08d4 b73d a3a0 25bc 721f b7bc 0e4f 44bd
00000160: e399 cfba 240c 80bd 4600 09bd 42ab 2a3c
00000170: 9106 debd 305f ef3d b495 e2bc b97e b93d
00000180: 5c5b 6e3d 0a5c 3cbd cc94 44bd 80d3 36bd
00000190: 7236 28bc 8f67 53be 1c57 b0bb 8a72 6a3b
000001a0: 90c1 54bd ecc6 8ebb 498e 30bc dd13 e2bc
000001b0: c2bd 2dbd b3ee 11bc 0c11 313c 9e57 a5bc
000001c0: eeeb 0ebd 2432 f5bc f60a 12bd db59 8abc
000001d0: 70c5 48bc 9c56 e5bd 8ad0 ff3d 2a59 193d
000001e0: 13c1 80bc 2fb6 073d fb6e 57bc 8b56 60bd
000001f0: a4e4 643b d492 fdba 1424 43ba fc47 c8bc
00000200: 87e7 9e3c be62 eabd d0bc 11bd 20e2 fc3b
00000210: 338b 223c 3042 0e3d 5d39 4cbd 434c 6fbd
00000220: 5629 14bd 426f d23c ef53 9dbc ed50 33bc
00000230: bdf5 673d f33d 933c 8a27 50bb 9188 eb3b
00000240: 0370 d4bc 648d 043d c44b b03b 48f3 f7bc
00000250: 5553 f93b 1139 4abd 6c91 7ebd 119d b43c
00000260: ac93 2dbd 6fe2 b7ba 3aba d4bc 8f57 0cbd
00000270: 5af3 dcbc e21b 5fbc dc30 263d 2faa acbd
00000280: ebfb c63a 3936 c7bc d26c 57bc dcd6 88bd
00000290: d392 32bd b71e 0bbc 4b6b 3ebd cf52 06be
000002a0: 8d7a 3dbd a661 9ebc 5d96 09bd 30a4 38bd
000002b0: 9d4c 263d bdab b83c c070 67bb d5b7 f93c
000002c0: 50d3 74bc 16f1 48bc 60e1 003d 324d c6bd
000002d0: b3ad 54bd 8aa4 26bd 32a8 f43c b63c e0ba
000002e0: 4364 0d3d 329f 9f3b 3073 dabc 02c0 37bb
000002f0: e94d 5bbc 52b8 43bd 17f6 99bc c0b4 54bd
00000300: 810c d6bb 0824 3dbd d292 0cbe b1ea e6bc
00000310: 37c1 5c3b da38 bb3c 0c2b 213d cc54 89bc
00000320: 1a6d a6bb 9d59 65ba 6a9a 26bc a79d 773d
00000330: e57f 573d 9296 6a3d 4eb1 42bc 65bd 5d3b
00000340: 81fe 843d 308e 28bd d678 b23b 713e d6bc
00000350: 66a6 8abc 521a 00bd 58a7 8dbd fc64 343d
00000360: 9553 b0bb b694 29bd e912 99bd 2bce 03bc
00000370: ae1d 68bd 4af9 c03c 4d8e 97bc f2b6 903c
00000380: d11c 34bd 4d48 6fbd cd56 313c 359c bd3c
00000390: cca6 debb b600 3fbc 10e7 06bc e1ad 55bd
000003a0: baaf 42bd 572f bdbc e15c 5bbd ba7e 20ba
000003b0: fc78 db3b ff59 68bd 088f a23b 3b10 213d
000003c0: a094 92bd 3fc5 973a 3c25 eebc c6bc 153d
000003d0: 592e bf3b 8020 9ebc 42f0 d03a 2345 dbbc
000003e0: a0bd ecba 9518 14bd cf84 333d 3005 003d
000003f0: a6c3 243c e03e dfb8 a8e5 00bd 53d0 4a3c

fc3.weight f4 [128, 256]
-0.022803148 0.029888084 0.004490592 -0.034600873 -0.048474196 0.020870853 0.042302933 0.024591845
0.050747607 -0.032971457 -0.065377094 -0.032198302 -0.022560235 -0.0474494 0.035624783 0.015080439
-0.018606247 0.012867151 -0.033610314 -0.016858505 0.043406703 0.01720688 0.00049589836 0.04138589
0.033545543 0.027691629 -0.049868874 -0.011599986 0.041125488 0.05250181 0.045305226 -0.045001585
0.024510091 0.07286996 -0.06025125 0.038001772 0.026360722 -0.052799504 0.024228966 -0.006709046
0.049865935 -0.05638709 0.031609017 -0.017621558 0.029689008 0.038474787 0.02553711 -0.006683215
-0.041288227 -0.04022793 0.047431123 -0.0040601147 0.0066217543 -0.020239364 0.008562542 -0.011490337
0.046704315 -0.024263859 -0.061817404 -0.04855271 -0.024556613 0.0145195015 -0.001585112 0.046366207
-0.000943001 -0.0025502632 0.04652072 -0.002403017 0.04904362 -0.049049955 0.04023052 -0.05020953
0.0036048517 -0.039970633 0.053346682 -0.01740708 -0.020241132 -0.039368212 0.030103065 -0.031210426
-0.004526372 0.014273359 -0.046922676 -0.027061475 -0.054416597 -0.057814114 -0.062505856 0.03937167
0.03790258 -0.010342486 0.03473475 0.010684571 -0.015176772 0.039125774 -0.0280215 -0.010415819
0.0010424115 -0.03463495 0.046162784 -0.051570583 0.016395312 -0.044699956 0.05554454 -0.014816918
-0.04337742 0.01748986 0.013304989 -0.01639249 -0.0152317 0.054145437 0.047787603 -0.0007611449
-0.04284566 0.040190633 0.028641718 0.024762131 0.008784801 0.057792302 -0.06266393 0.0030779715
0.01573995 -0.046872705 -0.05041678 0.06521313 -0.00016095476 0.0103444755 0.02845418 0.029231187
-0.056111418 -0.022560224 -0.033418417 0.004048407 -0.012981024 -0.0200646 0.03383643 -0.010244882
0.01996807 0.054721862 -0.012136434 -0.055075694 -0.06161459 -0.033325884 -0.04882696 -0.05330444
-0.01148197 0.055297446 -0.012378763 0.044155303 0.040637467 0.028117588 0.00047537015 0.017788114
0.0049694884 0.018813128 0.034790937 -0.033935644 -0.038579926 0.02670817 0.059198767 0.012482313
0.019760864 0.032478593 0.018469071 -0.05235965 0.05247005 0.05137992 0.006161762 -0.04484508
0.052992135 0.03683868 0.019193837 -0.044745833 0.046744548 -0.030459158 -0.057269182 -0.030236447
-0.012900681 0.042220853 -0.063759506 0.016543651 -0.015059239 0.03733074 0.06422792 -0.006917903
-0.00021827326 -0.05059578 -0.06206527 0.008247308 -0.03892049 -0.030248312 -0.0412368 -0.049151786
0.005113245 0.054556783 -0.052996736 -0.0026735028 0.016181996 0.052551873 0.026651135 -0.0039410256
0.004788355 0.017633874 0.021347903 -0.031075846 -0.050248053 -0.015652273 0.046280045 -0.04727111
0.020655895 0.022338277 -0.014012981 0.009822656 -0.009800138 -0.014227349 -0.043093186 -0.04815458
-0.005387149 -0.047801007 -0.046041735 0.02755273 -0.015359404 -0.022935929 0.0067246063 -0.026049826
0.03139993 0.05046905 0.043862615 0.033846743 -0.007265342 -0.010903955 -0.012810776 0.0045608557
-0.027098099 0.004879928 -0.029905891 0.028159913 0.0355559 -0.05020447 -0.04337319 -0.018520962
0.021393698 0.049602836 -0.032455906 0.02241662 -0.0037422536 0.006792516 -0.03927469 -0.050414503
0.03134658 -0.0027086255 -0.054680943 -0.008820526 0.027512155 0.012378314 -0.010403256 -0.051896658
00000000: abcd babc dbd7 f43c d125 933b a5b9 0dbd
00000010: e18c 46bd 5af9 aa3c d745 2d3d d674 c93c
00000020: b9dc 4f3d 140d 07bd 6de4 85bd 5ee2 03bd
00000030: 3ed0 b8bc 4d5a 42bd 4beb 113d f213 773c
00000040: 216c 98bc bed0 523c f8aa 09bd d91a 8abc
00000050: 3acb 313d 71f5 8c3c 2dff 013a 4084 293d
00000060: 0d67 093d 8ed9 e23c 4e43 4cbd de0d 3ebc
00000070: 3373 283d 230c 573d f991 393d 9553 38bd
00000080: 63c9 c83c d83c 953d 04ca 76bd bfa7 1b3d
00000090: 71f2 d73c 4b44 58bd d37b c63c 8fd7 dbbb
000000a0: 3940 4c3d 26f6 66bd 7578 013d 165b 90bc
000000b0: 5d36 f33c bd97 1d3d 3433 d13c dffe dabb
000000c0: d81d 29bd 0bc6 24bd 2347 423d b60a 85bb
000000d0: 4dfb d83b 06cd a5bc e749 0c3c f741 3cbc
000000e0: 064d 3f3d 00c5 c6bc 3f34 7dbd 35df 46bd
000000f0: f32a c9bc 34e3 6d3c 88c3 cfba 7eea 3d3d
00000100: ba33 77ba 5122 27bb 838c 3e3d ef7b 1dbb
00000110: f6e1 483d 9be8 48bd c2c8 243d 82a8 4dbd
00000120: 603f 6c3b 3fb8 23bd 0d82 5a3d 4b99 8ebc
00000130: bbd0 a5bc 9040 21bd b49a f63c 02ad ffbc
00000140: f651 94bb cfda 693c fe31 40bd 07b0 ddbc
00000150: f0e3 5ebd 7ece 6cbd 1203 80bd 3044 213d
00000160: bc3f 1b3d 8873 29bc 0646 0e3d 570e 2f3c
00000170: ffa7 78bc 5942 203d 588d e5bc 1ca7 2abc
00000180: 87a1 883a 61dd 0dbd 3015 3d3d ad3b 53bd
00000190: 764f 863c 4d17 37bd ac82 633d a9c2 72bc
000001a0: 86ac 31bd e546 8f3c 2bfd 593c 8b49 86bc
000001b0: 618e 79bc 9bc7 5d3d efbc 433d 9287 47ba
000001c0: ee7e 2fbd ef9e 243d 09a2 ea3c f4d9 ca3c
000001d0: 20ee 0f3c 9fb7 6c3d f255 80bd cbb7 493b
000001e0: 11f1 803c 98fd 3fbd d381 4ebd 768e 853d
000001f0: f7c5 28b9 e07b 293c be18 e93c 3e76 ef3c
00000200: 16d5 65bd 38d0 b8bc c0e1 08bd 80a8 843b
00000210: 5cae 54bc 845e a4bc 1298 0a3d 26da 27bc
00000220: 1494 a33c 0824 603d e5d7 46bc 0d97 61bd
00000230: 955f 7cbd b980 08bd c7fe 47bd c255 5abd
00000240: df1e 3cbc 937f 623d 4cd0 4abc 31dc 343d
00000250: 7973 263d db56 e63c 1a3b f939 61b8 913c
00000260: 17d7 a23b fd1d 9a3c f180 0e3d 1a00 0bbd
00000270: fc05 1ebd 18cb da3c 687a 723d 9e82 4c3c
00000280: 89e1 a13c 4608 053d 734c 973c 1377 56bd
00000290: d6ea 563d c073 523d 9be8 c93b 79af 37bd
000002a0: 480e 593d 28e4 163d 653c 9d3c 6847 37bd
000002b0: 3677 3f3d 7c85 f9bc 1793 6abd 6db2 f7bc
000002c0: 615d 53bc c6ef 2c3d 5894 82bd 8d86 873c
000002d0: 07bb 76bc 1ee8 183d ed89 833d 94af e2bb
000002e0: 48e0 64b9 853d 4fbd 2738 7ebd b81f 073c
000002f0: 176b 1fbd 4fcb f7bc ebe7 28bd 6253 49bd
00000300: 028d a73b ef76 5f3d 1b13 59bd ef35 2fbb
00000310: 1b90 843c a240 573d 7b53 da3c b823 81bb
00000320: a2e7 9c3b ea74 903c cce1 ae3c c692 febc
00000330: e7d0 4dbd 3239 80bc 2590 3d3d 5a9f 41bd
00000340: 8d36 a93c c3fe b63c b496 65bc 35ef 203c
00000350: c290 20bc d419 69bc 7b82 30bd bd3d 45bd
00000360: ae86 b0bb fdca 43bd 4296 3cbd 43b6 e13c
00000370: 02a6 7bbc 21e4 bbbc 165a dc3b 7266 d5bc
00000380: 379d 003d a2b8 4e3d 49a9 333d e2a2 0a3d
00000390: 1b12 eebb 81a6 32bc 4ae4 51bc 3b73 953b
000003a0: d5fc ddbc cee7 9f3b 33fd f4bc 9eaf e63c
000003b0: 10a3 113d 34a3 4dbd 16a8 31bd 46b9 97bc
000003c0: d641 af3c 582c 4b3d 7cf0 04bd 0fa3 b73c
000003d0: 9940 75bb c193 de3b 7fde 20bd 707f 4ebd
000003e0: 4565 003d 3283 31bb 20f9 5fbd f883 10bc
000003f0: 2c61 e13c 69ce 4a3c 6b72 2abc 9791 54bd

fc3.bias f4 [128]
-0.067694955 -0.034455314 0.04620549 -0.006437012 0.040306855 0.10264477 -0.024224447 -0.067111455
0.030178567 -0.0010837036 0.0182536 0.008471023 0.009117468 -0.06355161 -0.040005576 -0.031481266
0.008515133 -0.052449267 -0.03254888 -0.06883609 0.12484234 -0.04940031 0.010564371 0.016512718
0.08483941 -0.062394597 0.05597985 0.07606765 -0.03876597 0.06922084 0.06739244 -0.06524505
-0.07325235 -0.16202818 -0.06705035 0.06372132 -0.033856418 -0.0011791534 -0.023499783 -0.05733012
-0.11481273 0.034774415 0.0260252 -0.029921796 -0.044535566 -0.06734049 -0.109546766 0.02599584
-0.028649697 -0.03876944 -0.029582402 -0.037199743 0.06933876 -0.05746427 -0.10602525 -0.026125444
-0.07793473 -0.079996236 0.010214625 0.012585936 -0.10473672 -0.063021906 -0.09887774 -0.092606395
0.0020792445 -0.07224853 0.07885791 -0.1148363 -0.09688517 0.07951869 -0.032657344 -0.03798771
-0.031407066 -0.022644259 -0.049292646 -0.008496128 -0.015215212 0.029470256 -0.062081378 -0.06988872
-0.049249496 -0.02113275 -0.06859554 -0.077374116 -0.0669029 0.14867817 -0.019498147 -0.09554904
-0.08815815 0.08005799 0.042231265 0.026845802 0.11461725 -0.085579075 0.07046701 0.06766492
0.034502704 -0.023638822 0.01668572 -0.07647601 -0.084211715 0.08416999 -0.002516961 -0.0037002703
0.012496898 -0.045485523 0.012491584 -0.045423508 -0.028948914 0.015036144 -0.09644167 -0.14454986
-0.08867301 0.032514956 -0.0036537005 -0.08128137 -0.04473224 0.11507792 -0.02211778 -0.026789606
-0.073636144 0.042833585 -0.074873365 0.027239956 0.020566989 -0.050820895 -0.060508057 -0.04069354
00000000: a7a3 8abd 0421 0dbd f841 3d3d 92ed d2bb
00000010: cd18 253d 6c37 d23d 5972 c6bc bb71 89bd
00000020: 0b39 f73c 0f0b 8eba 9388 953c 0cca 0a3c
00000030: 6f61 153c 5927 82bd e3dc 23bd 80f2 00bd
00000040: 0e83 0b3c 0bd5 56bd f951 05bd f0f9 8cbd
00000050: 57ad ff3d fb57 4abd 2f16 2d3c ae45 873c
00000060: 49c0 ad3d 7a91 7fbd 214b 653d 5bc9 9b3d
00000070: 11c9 1ebd a8c3 8d3d 0c05 8a3d 329f 85bd
00000080: 5405 96bd b7ea 25be b251 89bd 5380 823d
00000090: 07ad 0abd d38d 9aba 9e82 c0bc fdd2 6abd
000000a0: f022 ebbd 9e6f 0e3d cd32 d53c 8e1e f5bc
000000b0: ed6a 36bd d0e9 89bd 0e5a e0bd 3af5 d43c
000000c0: c5b2 eabc b4cc 1ebd cb56 f2bc c25e 18bd
000000d0: 7b01 8e3d a85f 6bbd c423 d9bd 0705 d6bc
000000e0: 3e9c 9fbd 11d5 a3bd 3e5b 273c 3e35 4e3c
000000f0: 3580 d6bd a111 81bd 6a80 cabd 6ca8 bdbd
00000100: ef43 083b 0af7 93bd 4280 a13d 4b2f ebbd
00000110: bb6b c6bd b2da a23d b5c3 05bd 0099 1bbd
00000120: b2a4 00bd 7480 b9bc 16e7 49bd 5833 0bbc
00000130: 3949 79bc 9b6b f13c 0b49 7ebd d121 8fbd
00000140: d7b9 49bd 971e adbc d27b 8cbd 5276 9ebd
00000150: 6304 89bd 173f 183e 94ba 9fbc 37af c3bd
00000160: 438c b4bd 72f5 a33d b1fa 2c3d baeb db3c
00000170: 73bc ea3d 1544 afbd 0251 903d e893 8a3d
00000180: b552 0d3d 34a6 c1bc 7eb0 883c 749f 9cbd
00000190: 3177 acbd 5161 ac3d 99f3 24bb 3c80 72bb
000001a0: cabf 4c3c 074f 3abd 80a9 4c3c 000e 3abd
000001b0: 4626 edbc 295a 763c 3683 c5bd e104 14be
000001c0: 329a b5bd 672e 053d ec72 6fbb d976 a6bd
000001d0: 2739 37bd f9ad eb3d 5930 b5bc e075 dbbc
000001e0: 8cce 96bd 4572 2f3d 3557 99bd 5426 df3c
000001f0: 1a7c a83c 9229 50bd 4cd7 77bd 45ae 26bd

fc4.weight f4 [64, 128]
-0.07381866 -0.08330607 0.07566153 0.06594791 0.083654925 -0.076050565 -0.052054033 -0.05916474
0.041183397 -0.08255853 0.02734388 -0.022416698 0.07705967 -0.043695178 -0.07603838 0.039787605
-0.061032686 -0.05301922 0.079289325 0.06342685 0.001608257 -0.06628723 0.057705607 0.06462689
0.0100804055 0.043346632 -0.033786424 0.0010839887 -0.02790272 0.057599667 -0.076921865 0.041136995
-0.0015866368 0.01817378 -0.03410859 -0.027356956 -0.0052371304 0.016807152 0.05568262 0.04621262
0.06997328 -0.035179317 -0.052365277 -0.0733614 -0.072055034 -0.08607341 -0.037851576 0.030440021
-0.055732418 0.017500525 -0.052749038 -0.048133153 0.06056841 0.050958034 -0.08110559 0.0813184
0.022642594 -0.018332915 0.08563117 0.004934254 0.08029374 0.07483765 0.07044888 -0.04744621
0.08559723 0.05243887 -0.052046258 -0.05435572 0.07922416 -0.0037017437 -0.0038856391 -0.070318
0.070666105 -0.07552019 0.00052181946 -0.038061827 -0.03042124 -0.013621697 -0.08107933 -0.049874265
0.064926006 -0.08651082 -0.053505298 -0.036376283 -0.07763032 -0.001692269 0.049783826 0.008754887
-0.039046578 0.0038676541 0.015888987 -0.038639523 0.0142903775 0.0155656785 0.08866882 -0.039359678
0.055597685 0.0038362048 -0.06260097 -0.05152524 0.061464235 -0.0863622 0.065850616 -0.004550814
0.0010332859 0.08534033 -0.02023541 0.03735594 0.055796847 -0.081362076 0.048609324 0.07326667
-0.06288607 0.031858724 -0.043888908 0.07976917 0.057098117 -0.08225768 -0.009008814 -0.040082622
-0.037920512 0.0047543473 -0.0002693976 0.00978358 0.05813322 -0.010590706 -0.061551534 -0.057186007
-0.058230255 -0.015650012 -0.03258406 -0.0031590648 -0.025427723 0.15154219 0.0066102254 -0.034920983
0.06334841 0.061714493 -0.06390062 0.00963976 0.06531052 0.029330097 -0.055325147 0.006563835
-0.020806639 -0.0071252743 -0.009977075 -0.041157372 0.005046679 -0.02927759 0.013602719 -0.075668335
-0.112530604 0.0820996 -0.032473676 0.005995733 0.027218744 0.08794165 -0.10643115 -0.03813569
-0.021269176 -0.082013875 -0.0095573 0.055531807 -0.07510346 -0.04346645 0.033208743 -0.06390831
0.015345975 -0.058839504 -0.022572123 -0.043918245 -0.009506859 -0.056707416 -0.009303916 -0.05603807
-0.06703549 -0.018186398 0.015494 -0.07967501 -0.0118176555 -0.027394434 0.0046459846 -0.032802835
0.042991683 -0.0500522 0.06534003 -0.04255168 -0.023482384 -0.015836231 -0.07770127 0.038756214
0.077586345 -0.024046129 0.051947463 -0.047053687 -0.03659468 -0.0016711637 0.059736088 -0.04278837
0.0646142 0.031996224 -0.02244595 -0.04384335 -0.003400294 -0.0012382146 -0.0748778 -0.012264272
0.011353448 -0.04441282 0.0044138846 -0.078535095 -0.049080767 0.089293845 -0.03762378 -0.034650665
-0.09224293 0.031628456 -0.014329756 0.0781261 0.16095056 0.064193845 0.12790924 0.11327266
-0.03042196 -0.06752616 -0.08193219 -0.06814716 -0.046895534 0.016885724 0.084926255 -0.04661485
-0.005710679 0.06270659 -0.08501786 -0.009996536 0.032670572 -0.04038575 -0.007494471 -0.02472573
-0.0068109594 0.012536736 0.011448771 -0.04743385 -0.009933838 0.11291331 -0.009650166 -0.020055842
-0.020698458 -0.037563235 0.019574855 -0.051306516 -0.0071935384 0.047625795 -0.08820118 0.021658992
00000000: 3d2e 97bd 5f9c aabd 6ff4 9a3d b30f 873d
00000010: 4653 ab3d 66c0 9bbd 9c36 55bd ba56 72bd
00000020: ecaf 283d 7214 a9bd 4600 e03c 39a3 b7bc
00000030: 76d1 9d3d b7f9 32bd 03ba 9bbd 54f8 223d
00000040: 69fd 79bd ae2a 59bd 7162 a23d f0e5 813d
00000050: 26cc d23a 99c1 87bd b75c 6c3d 1a5b 843d
00000060: 4928 253c 3d8c 313d a263 0abd a014 8e3a
00000070: 3f94 e4bc a1ed 6b3d 3689 9dbd 447f 283d
00000080: b2f6 cfba 2ee1 943c 73b5 0bbd b21b e0bc
00000090: 3c9c abbb 27af 893c 7513 643d 7249 3d3d
000000a0: 274e 8f3d 3018 10bd f97c 56bd 803e 96bd
000000b0: 9791 93bd 4247 b0bd 410a 1bbd 5a5d f93c
000000c0: ad47 64bd 435d 8f3c 600f 58bd 4527 45bd
000000d0: 9516 783d 5fb9 503d b01a a6bd 438a a63d
000000e0: f67c b93c e92e 96bc 655f af3d 86af a13b
000000f0: 0b71 a43d 7b44 993d 8147 903d f556 42bd
00000100: 9a4d af3d 24ca 563d 752e 55bd 1aa4 5ebd
00000110: 4740 a23d f498 72bb 35a6 7ebb e202 90bd
00000120: 64b9 903d 54aa 9abd b6ca 083a b8e6 1bbd
00000130: f735 f9bc 8a2d 5fbc eb0c a6bd f548 4cbd
00000140: edf7 843d 962c b1bd 5f28 5bbd 4cff 14bd
00000150: a5fc 9ebd 20cf ddba 20ea 4b3d a870 0f3c
00000160: 4eef 1fbd 7878 7d3b 9f29 823c 7a44 1ebd
00000170: 3022 6a3c 3007 7f3c 0098 b53d 9d37 21bd
00000180: 66ba 633d d668 7b3b f034 80bd 210c 53bd
00000190: ecc1 7b3d aade b0bd b0dc 863d ff1e 95bb
000001a0: 526f 873a e9c6 ae3d bbc4 a5bc 8b02 193d
000001b0: 3c8b 643d 29a1 a6bd 921a 473d d60c 963d
000001c0: 69ca 80bd 4b7e 023d dbc4 33bd 055e a33d
000001d0: b7df 693d b776 a8bd b499 13bc ad2d 24bd
000001e0: 8a52 1bbd 5bca 9b3b ef3d 8db9 4f4b 203c
000001f0: 191d 6e3d a484 2dbc 761d 7cbd e03b 6abd
00000200: d982 6ebd 7434 80bc dd76 05bd 5008 4fbb
00000210: cd4d d0bc e02d 1b3e 979a d83b 4e09 0fbd
00000220: d0bc 813d 56c8 7c3d 54de 82bd 15f0 1d3c
00000230: 86c1 853d ac45 f03c 9f9c 62bd 7015 d73b
00000240: af72 aabc 227b e9bb e376 23bc a294 28bd
00000250: 9d5e a53b 8ed7 efbc f0dd 5e3c 00f8 9abd
00000260: 7276 e6bd d623 a83d 1e03 05bd db77 c43b
00000270: d8f9 de3c c01a b43d 93f8 d9bd 2b34 1cbd
00000280: b23c aebc e4f6 a7bd 3996 1cbc 5275 633d
00000290: d8cf 99bd e009 32bd e405 083d 5ce2 82bd
000002a0: af6d 7b3c b101 71bd 2ce9 b8bc 9ee3 33bd
000002b0: a8c2 1bbc 0946 68bd 746f 18bc 2d88 65bd
000002c0: e749 89bd a4fb 94bc 8cda 7d3c a72c a3bd
000002d0: d79e 41bc 4b6a e0bc 583d 983b 445c 06bd
000002e0: 0c18 303d 8903 4dbd fed0 853d ac4a 2ebd
000002f0: 215e c0bc fcba 81bc d821 9fbd d6be 1e3d
00000300: 97e5 9e3d 63fc c4bc ddc6 543d 5ebb 40bd
00000310: 4ee4 15bd f30a dbba d4ad 743d dc42 2fbd
00000320: 7354 843d 790e 033d 92e0 b7bc 1695 33bd
00000330: 78d7 5ebb 964b a2ba 8859 99bd 16f0 48bc
00000340: d003 3a3c 38ea 35bd 59a2 903b 02d7 a0bd
00000350: ea08 49bd b1df b63d 651b 1abd dbed 0dbd
00000360: dce9 bcbd d78c 013d 5ac7 6abc 9400 a03d
00000370: 39d0 243e 1078 833d a4fa 023e 7ffb e73d
00000380: 7937 f9bc 284b 8abd 10cc a7bd bd90 8bbd
00000390: 8815 40bd ee53 8a3c d1ed ad3d 37ef 3ebd
000003a0: a620 bbbb 506c 803d d81d aebd 83c8 23bc
000003b0: 94d1 053d 876b 25bd 2e94 f5bb 9d8d cabc
000003c0: 782e dfbb e266 4d3c a093 3b3c ff49 42bd
000003d0: 89c1 22bc 183f e73d bb1b 1ebc 264c a4bc
000003e0: d08f a9bc e8db 19bd 725b a03c c826 52bd
000003f0: c6b7 ebbb 4413 433d d2a2 b4bd 336e b13c

fc4.bias f4 [64]
-0.08603599 0.19040811 0.20433448 -0.03196451 0.24003461 -0.13156936 0.096165285 0.17591779
-0.115100235 -0.021246213 0.07191267 -0.11851488 -0.082158715 -0.121685706 -0.12768555 0.21296264
0.10942005 0.10432192 0.13434832 -0.09512184 0.004690431 -0.06923962 -0.033236198 0.17444244
0.18741196 -0.0009790541 0.0016949079 0.17747274 -0.14952476 0.117650546 -0.0785491 -0.020064987
-0.020084491 0.049164668 -0.13219768 0.075845286 -0.14318834 -0.030151043 -0.090601005 -0.07141827
-0.014517234 0.18752559 -0.076180205 0.020307675 0.04869658 0.0042372644 -0.08805444 -0.10239048
-0.08552597 0.013261139 -0.06062993 0.053832423 -0.09843728 -0.10296179 -0.036658525 -0.087627724
-0.08161947 -0.04649604 0.010278243 -0.030745331 -0.007385896 -0.033441868 -0.053597406 -0.06518753
00000000: a333 b0bd 58fa 423e 0f3d 513e 38ed 02bd
00000010: a2cb 753e 1eba 06be 4ef2 c43d cb23 343e
00000020: acb9 ebbd 8a0c aebc f346 933d eeb7 f2bd
00000030: d442 a8bd 5b36 f9bd 00c0 02be e112 5a3e
00000040: 9f17 e03d bba6 d53d 9b92 093e 3dcf c2bd
00000050: 30b2 993b 80cd 8dbd ae22 08bd 0aa1 323e
00000060: ece8 3f3e 9b53 80ba ac27 de3a 6abb 353e
00000070: 051d 19be c5f2 f03d 5ade a0bd 545f a4bc
00000080: 3b88 a4bc e460 493d d45e 07be c654 9b3d
00000090: f79f 12be 52ff f6bc 058d b9bd be43 92bd
000000a0: b1d9 6dbc b506 403e 5e04 9cbd 485c a63c
000000b0: 1176 473d c0d8 8a3b e355 b4bd 1ab2 d1bd
000000c0: 3d28 afbd 4045 593c 1757 78bd 637f 5c3d
000000d0: 7c99 c9bd a2dd d2bd 4027 16bd 2a76 b3bd
000000e0: 1c28 a7bd a272 3ebd 1366 283c a2dd fbbc
000000f0: 6305 f2bb 57fa 08bd f488 5bbd 0a81 85bd

fc5.weight f4 [2, 64]
0.03655764 0.13374 0.110872865 0.044601783 0.25942913 0.035630155 0.008016217 0.21962003
-0.13016352 -0.040627223 0.2203638 -0.14623554 0.0827812 -0.062342197 -0.09037235 0.29856113
0.21222958 0.31305388 0.22676444 0.009987443 -0.042816777 -0.13466784 0.032105334 0.18019432
0.27269748 0.11759766 -0.07577982 0.20530497 -0.030261979 0.2341497 -0.053919952 0.0043697082
0.02090422 -0.05981501 -0.07152418 0.12806247 -0.018588958 0.018485265 -0.088713326 0.0022031423
-0.0008035798 0.21146911 -0.033328775 0.033792175 0.22470947 -0.06528104 0.0011049897 -0.061256465
0.07503817 -0.015783552 -0.00094253285 0.07856256 -0.04134515 0.03781647 0.056702875 -0.0004155659
-0.06376988 -0.1407396 -0.0130332485 -0.095929615 -0.16442077 -0.09058861 -0.042124756 -0.06278997
0.04163576 -0.20460764 -0.17551388 0.10891743 -0.054061614 -0.08313372 -0.17415601 -0.04693072
0.04055123 0.054286603 -0.09960871 -0.014822006 0.056338426 0.057645958 0.015143879 -0.08496357
-0.22665532 -0.29672948 -0.14949347 0.0888943 0.0009204685 0.17437835 0.09392439 -0.16522251
-0.15317357 -0.30705774 0.12308701 -0.21985538 0.06571149 -0.19575788 0.11954689 0.047205053
0.08809698 -0.112429105 0.06439382 -0.14272016 0.14623411 0.066716 0.02834458 0.055761583
0.122157514 -0.0982466 0.10550742 0.10177428 -0.2684425 0.021577649 0.05920659 0.06861912
0.0003442273 0.1346893 -0.09272859 -0.06611947 0.01334505 0.12289994 -0.0050620665 0.04314139
0.08232571 -0.050348267 0.15759549 0.080299325 0.08805485 0.019137822 0.08644944 -0.109334536
00000000: 77bd 153d 23f3 083e 5011 e33d 5cb0 363d
00000010: e5d3 843e edf0 113d 7356 033c 13e4 603e
00000020: 9649 05be bb68 26bd 0ca7 613e c5be 15be
00000030: 3189 a93d 885a 7fbd 2315 b9bd 01dd 983e
00000040: b652 593e 9948 a03e f034 683e 5fa2 233c
00000050: a560 2fbd 5ee6 09be e280 033d dc84 383e
00000060: 019f 8b3e 0bd7 f03d 7332 9bbd 773b 523e
00000070: f8e7 f7bc f0c4 6f3e 2bdb 5cbd c52f 8f3b
00000080: 543f ab3c 9500 75bd 457b 92bd cf22 033e
00000090: df47 98bc 696e 973c 55af b5bd 9862 103b
000000a0: 54a7 52ba 5c8b 583e c183 08bd aa69 0a3d
000000b0: 3d1a 663e 11b2 85bd 4dd5 903a 0fe8 7abd
000000c0: 9dad 993d 824c 81bc 4f14 77ba 68e5 a03d
000000d0: 8859 29bd 71e5 1a3d 4641 683d 50e0 d9b9
000000e0: c899 82bd 0b1e 10be 6889 55bc bf76 c4bd
000000f0: eb5d 28be 8586 b9bd 028b 2cbd 0798 80bd
00000100: 428a 2a3d aa84 51be e9b9 33be 1a10 df3d
00000110: b66f 5dbd 0342 aabd f455 32be 6d3a 40bd
00000120: 0c19 263d a15b 5e3d a7ff cbbd 00d8 72bc
00000130: 1fc3 663d 2b1e 6c3d 081e 783c 6101 aebd
00000140: 5518 68be edec 97be d114 19be 370e b63d
00000150: 984b 713a 3d90 323e 6e5b c03d 1730 29be
00000160: 88d9 1cbe ac36 9dbe 0b15 fc3d c521 61be
00000170: bf93 863d c174 48be 00d5 f43d 165a 413d
00000180: 306c b43d 3b41 e6bd e8e0 833d 3c25 12be
00000190: 65be 153e 66a2 883d e532 e83c 4266 643d
000001a0: b82d fa3d 8335 c9bd 4614 d83d 096f d03d
000001b0: 4c71 89be 9cc3 b03c 9c82 723d 2e88 8c3d
000001c0: 6879 b439 feeb 093e 7de8 bdbd a569 87bd
000001d0: 32a5 5a3c f7b2 fb3d b1df a5bb 07b5 303d
000001e0: 629a a83d fc39 4ebd b660 213e f973 a43d
000001f0: 1a56 b43d ecc6 9c3c 670c b13d c9ea dfbd

fc5.bias f4 [2]
0.066112265 -0.021075409
00000000: de65 873d 56a6 acbc
