best_model.pth (torch, 711979 bytes, 9 tensors)

fc1.weight f4 [512, 8]
000000 74 78 a8 be 50 73 97 3e d9 4a ab 3e 83 1f a9 3d
       -0.32904398 0.29580164 0.33455542 0.082579635
000010 55 9f 01 bd b9 24 cd bd 7d 94 99 bd 1a 4d a0 be
       -0.03164609 -0.1001677 -0.07499025 -0.31308824
000020 7a 72 5e bd 5d 67 55 3e 50 9e f2 bd 21 fa b6 bc
       -0.054308392 0.20840211 -0.11846602 -0.022336068
000030 fb d3 ac be 88 bc 8b be 56 20 aa be 1f e7 ac bd
       -0.33755478 -0.27292275 -0.33227795 -0.0844252
000040 4f b2 2e be 94 d4 56 be 33 66 bc 3d 1f fb 3e be
       -0.17060207 -0.2097953 0.091991805 -0.18650483
000050 a0 8f ee bc af f3 b7 bd 92 35 07 be 9f e7 9f be
       -0.02912122 -0.08982026 -0.13204029 -0.312314
000060 25 16 a3 3e 80 31 9b be a4 e8 eb bd ae db 5e 3e
       0.31852832 -0.30311203 -0.11518982 0.21763489
000070 16 10 32 3e d8 4d ba 3d c3 a8 81 3e d5 ed 95 be
       0.17388949 0.09096879 0.25324067 -0.29283014
000080 2a a4 41 3e dc 73 a8 bd 04 81 9d be 3a 39 87 3e
       0.1891028 -0.082252234 -0.30762494 0.26410848
000090 43 5d 95 3e 84 2e c0 be c1 2c fe 3c 8b 30 78 3e
       0.29172716 -0.3753549 0.0310272 0.24237268
0000a0 c0 7e 26 bc 40 88 8a 3d a0 ca f0 bc aa 91 61 be
       -0.0101620555 0.06764269 -0.029393494 -0.22028223
0000b0 a8 15 32 3d bb c9 2b be d2 61 71 3e 34 43 bf bd
       0.043477684 -0.16776173 0.23572472 -0.0933899
0000c0 7a ab 1c be 0b 38 42 be ff a2 57 bd d4 82 62 3e
       -0.15299788 -0.18966691 -0.05264568 0.2212022
0000d0 a9 1f 76 3e 22 5d b4 3e 5e 68 98 bd fd 9b 8f be
       0.24035515 0.35227305 -0.074417815 -0.28048697
0000e0 e8 14 58 3e e3 df 81 bc b6 02 0f bd 5b dc 50 be
       0.21101725 -0.015853828 -0.034914695 -0.20396559
0000f0 05 ab 40 3d ab ae 4c be 70 7a 6c be e5 6b 06 be
       0.047038097 -0.19988506 -0.23093581 -0.13127096
000100 3e 73 44 be 4b 7f 81 be d3 ff b2 3d 4c a8 ad 3c
       -0.19184586 -0.2529243 0.08740201 0.021198414
000110 c0 d7 b9 3d ad f0 89 3e a6 31 3b 3e ac 70 83 3e
       0.09074354 0.26941434 0.18280658 0.256719
000120 d1 57 27 bd ab e0 96 be e5 38 56 be a0 24 97 be
       -0.040855233 -0.29468283 -0.20920141 -0.2952013
000130 f2 c0 91 be 29 cf db 3d fb ee 03 3c 7b 70 bf 3d
       -0.28467518 0.10732872 0.008052583 0.09347626
000140 60 28 14 3d b8 b6 c2 3d 2f ff 16 be d9 18 5f be
       0.036171317 0.09507507 -0.14745782 -0.21786822
000150 f3 34 a8 3e 73 cf a8 be f8 60 79 be ea 07 86 be
       0.32852897 -0.3297077 -0.24353397 -0.26177913
000160 39 d5 99 3e 10 60 ca 3c e9 1b 56 be fe ba a5 be
       0.30045488 0.02470401 -0.20909084 -0.32369226
000170 60 c0 bb bc 00 b2 c5 3c 30 3f d5 bd ea fd b1 be
       -0.02291888 0.024132729 -0.10412443 -0.34764034
000180 1d 4b 9a be 9b 5d b0 3b 85 09 75 be 1b fe 95 3e
       -0.30135432 0.0053822524 -0.23929413 0.2929543
000190 67 46 20 be 0b 3f 8e bb be ff a5 be 60 48 41 3e
       -0.15651856 -0.0043410114 -0.32421678 0.18875265
0001a0 66 d6 5a bd 36 f3 aa 3d 39 02 8f 3e 49 45 98 be
       -0.053427123 0.0834717 0.27931383 -0.2974036
0001b0 74 a6 47 3e 13 58 5e 3d 28 d0 29 be d0 b8 05 bd
       0.1949709 0.054283213 -0.16583312 -0.032646954
0001c0 ee 84 a3 bd 28 f4 d9 3d 50 72 70 3d 07 24 12 be
       -0.07984339 0.10642272 0.058702767 -0.14271556
0001d0 b6 7c a3 be c0 fe 4d bd 18 4a 6e bd 7b 92 72 3e
       -0.31931084 -0.050291777 -0.05817613 0.2368869
0001e0 48 17 a5 3e 72 e4 25 3e c1 2e 24 3e 05 73 ba 3c
       0.32244325 0.16200426 0.1603346 0.022759924
0001f0 d1 88 3d 3e b9 b8 a9 bc 2e 67 c7 3d e1 a5 85 3e
       0.18509223 -0.020717965 0.09736477 0.26103118
000200 29 58 7f be c2 e6 a2 3e 75 00 a9 3e 97 53 fc 3d
       -0.24935974 0.3181668 0.3300816 0.12320631
000210 0b af ae bd fe de 0e be 3b 58 7c 3e b9 56 a3 3d
       -0.085294805 -0.13952252 0.24643032 0.079755254
000220 7d 4d 18 bd 04 3f 48 be a6 c6 9d 3e cc 0c 2f be
       -0.037183274 -0.19555289 0.3081562 -0.17094725
000230 fe 10 16 3d ec 94 28 be d0 8b 50 3e 45 81 a3 3e
       0.0366373 -0.16463059 0.20365834 0.31934562
000240 a9 ea 54 bd 2d 68 3a 3e da f5 a3 3d 38 de 5d 3e
       -0.051981602 0.18203802 0.08005877 0.21666801
000250 0c fb 5b 3d c0 a6 82 be 8a 0f 60 be b0 fb 79 3d
       0.053706214 -0.25517845 -0.21880928 0.061031044
000260 c3 12 21 3c a4 07 99 be 67 4e 23 be 87 fb 5d 3b
       0.009831133 -0.29888642 -0.15947877 0.0033871846
000270 7b ef d3 3d 56 0c 0d 3e 67 a0 60 bd b1 9f a6 3e
       0.10348412 0.13774237 -0.05484047 0.3254371
000280 ff 58 f1 3c 38 5b da 3d 70 7a 21 3e d4 58 88 be
       0.029461382 0.1066193 0.15769362 -0.2663027
000290 e7 4b 7f bd ed 93 1d bc be 23 bb bd 55 c9 75 be
       -0.062328245 -0.009617788 -0.09137677 -0.24002583
0002a0 fc de f8 3d ae 71 91 be f2 1d a3 be f8 f1 36 bd
       0.12151906 -0.28407043 -0.31858784 -0.044664353
0002b0 44 73 0b 3e 80 59 ad be ef 84 b3 3e a2 d0 93 be
       0.13618189 -0.33857346 0.35062358 -0.28870112
0002c0 a3 3e 49 be 3a ce a7 3d 16 29 59 be 4c 7e 74 3e
       -0.196528 0.081936315 -0.2120708 0.23876303
0002d0 58 71 1b 3e 45 64 93 3d 64 fd af 3e 9e ed 45 3e
       0.15179956 0.07196859 0.3437301 0.19328925
0002e0 46 ef 93 be ae f6 a5 bb 5f c8 9e 3e 05 1d 94 3e
       -0.2889349 -0.005064807 0.31012246 0.2892839
0002f0 c3 b0 fb bd 98 75 a7 bc ca b5 36 be 7e 32 5a be
       -0.12289574 -0.020441815 -0.17842785 -0.21308324
000300 f6 d2 17 3d 5e 5c 8e 3e dc f0 71 be df 6a 31 3e
       0.037066422 0.27804846 -0.23627037 0.17325924
000310 b4 3e 87 3e d8 9a 90 3e e1 fb 06 bd 57 f3 d6 bd
       0.26415026 0.28243136 -0.032955054 -0.10495632
000320 c1 bb 32 be 8f 0a be 3e 5b 62 b2 3d 37 8c 93 3e
       -0.17454435 0.3711743 0.08710166 0.28817913
000330 46 10 9a 3d 37 6c 7f bd 45 c0 b9 3e ae 79 b0 3e
       0.07522635 -0.06235906 0.36279503 0.34467834
000340 6f 54 64 3e cb b6 5c be ae 36 18 3e bc 69 85 3e
       0.22297834 -0.21554105 0.14864609 0.2605723
000350 ee 6b a0 3d d6 ea 9c bd 3d ce 92 3e 6e 99 21 be
       0.07833086 -0.07661979 0.28672972 -0.15781185
000360 73 d6 47 3e 70 13 17 be 2d 8e e0 bc fe dd bf 3d
       0.195154 -0.14753509 -0.027411545 0.093685135
000370 02 f6 28 be 7f ac 1b be 06 21 7a 3e ff 38 9d 3e
       -0.16500095 -0.15202521 0.2442666 0.30707547
000380 14 37 77 be 6f a7 89 3d 52 92 95 3e d7 66 6a be
       -0.24142104 0.067213885 0.29213196 -0.22890793
000390 1d 5d c2 bd 52 d2 c7 3d 0b e2 b3 3c 43 ea 10 3e
       -0.09490416 0.09756912 0.021958372 0.14151864
0003a0 4c 05 8b 3d dd 1f 93 be b7 81 9a 3e 6e 81 52 be
       0.0678812 -0.28735247 0.3017709 -0.20557186
0003b0 e1 7f fd 3d 0b 56 a7 be 02 60 75 be aa 23 a3 be
       0.123779066 -0.32682833 -0.23962405 -0.31863147
0003c0 13 68 82 be e4 af ae be 97 9f 90 be 80 84 16 3b
       -0.25470027 -0.3411857 -0.28246757 0.002296716
0003d0 ca 67 39 3e a6 50 92 be ae ac 4c be b0 51 83 be
       0.18105999 -0.28577155 -0.19987747 -0.2564826
0003e0 81 94 67 3e 43 6c 74 be 96 9e 4c be 1a ed a5 3e
       0.22615243 -0.23869424 -0.1998237 0.32407457
0003f0 47 86 a7 3e 05 f0 07 3e b9 53 41 3e 8d 92 85 3d
       0.32719633 0.13275154 0.18879594 0.06522093

fc1.bias f4 [512]
000000 aa 06 a4 bd 1e e1 2a 3e a4 96 98 3e 69 e5 9c be
       -0.080090836 0.16687438 0.2980243 -0.30643776
000010 27 65 0d 3e e1 74 7d be b6 b5 52 be 4a 61 d5 3d
       0.13808118 -0.24751617 -0.2057713 0.10418947
000020 6e 47 e1 bd ba f8 b9 3e 2c 29 cd bd 22 de 72 be
       -0.10999952 0.36322576 -0.100176185 -0.2371755
000030 61 e8 21 3e 1d fe 62 be ad 36 24 be 2a 60 46 3e
       0.15811302 -0.22167249 -0.16036482 0.19372621
000040 08 ce a4 3e ed 2d 90 3e c4 d7 27 3e 0b 2a c7 3c
       0.3218844 0.2816004 0.16390902 0.02431204
000050 e9 02 79 3e 60 d3 a3 bc 52 27 94 be a1 bb 43 3e
       0.24317516 -0.019998252 -0.2893625 0.19114543
000060 b5 85 2f be e4 9a 94 be c0 64 8b 3d aa 0b 94 3e
       -0.17140849 -0.29024422 0.06806326 0.2891515
000070 81 0a 69 3e 26 11 5e bd a0 02 b7 3d c5 45 0f 3e
       0.22757913 -0.054215573 0.089360476 0.13991459
000080 95 ad 0c be f0 72 a6 be 56 25 94 be 28 45 45 3e
       -0.13738091 -0.32509565 -0.28934735 0.19264662
000090 9c 8c 4f be 92 76 a7 be 2d 18 93 be c9 7f 11 3e
       -0.20268482 -0.3270765 -0.28729382 0.14208902
0000a0 22 61 9f be 36 19 58 3d 17 cc fe bd e2 a1 41 bd
       -0.31128794 0.052758418 -0.12441271 -0.047273524
0000b0 0a 83 36 be a0 da 35 3c de 29 42 3e a9 5e 4c be
       -0.17823425 0.011099488 0.18961284 -0.19957985
0000c0 95 71 9e 3e 35 b6 9d be 77 9d ff bc 83 58 9b 3e
       0.3094603 -0.30803075 -0.031203015 0.30340967
0000d0 a3 3d 82 be f6 18 8b 3e 7f 9b a4 be 33 2f 8b 3d
       -0.2543765 0.2716748 -0.32149884 0.06796112
0000e0 26 3b b3 3e 57 9f af be f0 ae 45 bc 7d b1 6d be
       0.35006064 -0.34301254 -0.012065634 -0.23212238
0000f0 65 ca d0 bd b6 ae a3 3e 89 4f 9e be c6 80 1f 3e
       -0.10194854 0.3196923 -0.30920056 0.15576467
000100 cf 3a 42 bc 36 09 1a be 30 31 8e be 33 2d 49 bd
       -0.011854841 -0.15042576 -0.27771902 -0.04911537
000110 28 e2 d4 3c e6 30 64 be 55 dc e2 3d 5f f1 cb 3d
       0.025986746 -0.22284278 0.11077181 0.09958147
000120 07 b8 53 3e 1f 39 9d 3e ed 00 8d be 20 cd cb 3d
       0.2067567 0.30707642 -0.2753977 0.09951234
000130 05 72 05 3e 17 6f 9a 3e ec 97 a2 3d 14 0a 76 be
       0.13031776 0.3016288 0.07939133 -0.24027282
000140 04 46 60 be 50 0a a3 3c 87 e5 8d be da 0d e9 3d
       -0.21901709 0.019902378 -0.27714178 0.11379595
000150 d4 3e 16 bd 1c 98 5e be 74 0f 68 3e 93 21 d9 bd
       -0.03668101 -0.21737713 0.22662145 -0.10602107
000160 92 c2 fe 3d 10 a6 df 3d 06 90 7f be e4 56 9d bc
       0.12439455 0.10920346 -0.24957284 -0.019206472
000170 ec 8b 9d be 49 f3 9b 3d 74 b2 80 3e 57 33 a8 3e
       -0.30770814 0.07614762 0.2513615 0.3285167
000180 ee 62 ab be 0b 40 36 3e 26 fe b4 be 11 61 4f 3e
       -0.33473915 0.17797868 -0.3535015 0.20251872
000190 42 44 b5 3e 83 22 87 be 93 c3 a7 3e 81 4b a0 3e
       0.3540364 -0.26393518 0.327664 0.31307605
0001a0 e5 cd 8e be 3e f2 07 be 81 1f 89 be 4b c8 37 3e
       -0.2789146 -0.13276002 -0.26781848 0.179475
0001b0 fa f6 e8 bd 33 e5 44 be f6 15 4d 3e 75 62 2a 3e
       -0.11375232 -0.19228058 0.20027909 0.16639121
0001c0 12 1f da bd 9a a6 c5 3e 4f 96 4c 3e 5b 74 23 3e
       -0.106504574 0.3860367 0.19979213 0.15962355
0001d0 e0 fc 6a 3c 88 63 c0 3d 4c 31 f9 3d 05 e6 4b be
       0.014342517 0.09393984 0.12167606 -0.19911964
0001e0 98 50 15 be 37 ac 7d be 98 c6 a5 3e e2 4a 42 3e
       -0.14581525 -0.24772726 0.32378078 0.18973878
0001f0 c6 b3 3f be 1f 2e 56 3e 24 8b 9e bd f0 60 1a 3e
       -0.18720922 0.20916031 -0.07741383 0.15076041
000200 aa 37 85 3e fe 67 1e 3e 3c c9 4e 3e 5a a5 0f 3e
       0.2601903 0.15469357 0.20193952 0.1402792
000210 f6 6f 79 3e 85 03 51 be 38 11 4b 3d 33 65 7f 3e
       0.24359116 -0.20411499 0.049576968 0.24940948
000220 7f a7 03 be 8f ed 65 3e 10 63 1d 3d 5d 53 a5 3e
       -0.12856863 0.22453903 0.03842455 0.32290164
000230 95 e3 bb 3d 21 e0 a9 3e 8d a1 b5 bc cc e9 a1 bc
       0.09174267 0.3317881 -0.02217176 -0.019764803
000240 f9 bf 5b 3e 07 90 c5 3d 0d 4b 4b 3e e0 17 9a bd
       0.2145995 0.09646612 0.19852848 -0.07524085
000250 98 23 ab 3e ad 72 8b be e5 3a ad 3d b2 be 50 3e
       0.33425593 -0.27235928 0.08458499 0.20385244
000260 1e 56 1a 3e 68 99 7f be b8 22 6b bc 1e a1 75 be
       0.15071914 -0.24960864 -0.014351539 -0.23987243
000270 0b 55 44 bd 3b 4e 82 be 32 e5 24 bd 27 fb c7 bd
       -0.047932666 -0.2545031 -0.04025764 -0.097647004
000280 1e d6 2f 3d 2c 19 a5 bd e7 ae 50 bd 49 c2 60 be
       0.042928807 -0.08061442 -0.05094805 -0.21949114
000290 92 8c 92 3e 7d f4 84 3d df 0e a6 be 89 de a3 3e
       0.28622872 0.06491945 -0.3243322 0.32005718
0002a0 32 da b1 be 6c fb a5 3e e4 44 96 be b4 7b 13 bb
       -0.34736782 0.32418382 -0.29349434 -0.0022504153
0002b0 4b 16 b0 3e 22 7b 2d 3d dc c3 4f 3e f2 e4 91 3e
       0.34392008 0.042353757 0.20289558 0.28494984
0002c0 6d dc e0 3d d4 ee 95 3e bf 44 29 3e ed b4 ff bd
       0.10979543 0.29283774 0.16530131 -0.12485681
0002d0 71 2d 1c be f5 7e 4e 3e 3c 3d 9a bd 6b cb 0f be
       -0.1525171 0.20165618 -0.07531211 -0.14042442
0002e0 c6 56 69 3e 82 6a 39 3e 88 9d 27 be e7 ae 7b 3d
       0.22787008 0.18107036 -0.16368687 0.061446097
0002f0 00 60 31 3e 51 0d 8f 3e 0b 2e 09 3e 44 a8 7b be
       0.17321777 0.27939847 0.1339647 -0.24575907
000300 4f 66 8d be 4c 27 4a 3e 0c 08 dc bc 51 c8 99 be
       -0.27617118 0.19741553 -0.026859306 -0.30035642
000310 29 ae 9f 3e d2 b1 2b be 3f c8 91 3d 24 c1 3b bd
       0.3118756 -0.16767052 0.07118272 -0.04583849
000320 d5 c5 5c bc 14 80 2b 3e 0e 34 9b bd a0 a7 34 bd
       -0.013474901 0.16748077 -0.07578288 -0.044105172
000330 b7 db 79 3e 25 52 38 3e 8b 2b 20 3e 55 33 cf bd
       0.24400221 0.18000086 0.1564161 -0.10117213
000340 4a 85 1d be bb d5 85 3e 6a d7 72 be 9f 41 21 3e
       -0.15382877 0.26139626 -0.23714986 0.15747689
000350 74 af 67 bd 26 63 c9 bd d4 1b 19 be 58 d5 de 3d
       -0.05656381 -0.09833364 -0.14952022 0.10880536
000360 5f 84 53 3e 8d bf b1 ba 22 a9 a2 be 57 85 b2 be
       0.20655964 -0.0013561115 -0.31769663 -0.34867355
000370 a9 9c 41 be ee 22 b9 3d 26 e4 62 be e7 ac 06 be
       -0.18907417 0.090398654 -0.22157344 -0.13151895
000380 5e 54 4a be d1 5c 6d be 07 65 bf 3e 09 5c a3 be
       -0.19758746 -0.23179938 0.37381765 -0.31906155
000390 b0 44 e1 bc 02 0b a1 3e a0 cc 33 bc 3c 55 83 bd
       -0.027498573 0.3145371 -0.010974079 -0.064127415
0003a0 00 d4 5f bd 96 d5 b5 3d bf 3d 1c bd 1e 63 31 3c
       -0.05464554 0.08878629 -0.038144823 0.010826854
0003b0 4e 51 1a 3d f4 8e 65 3d fd c5 ef 3d 29 b5 75 3d
       0.037675194 0.056044534 0.11707685 0.05998722
0003c0 c3 ec ab be 8a 72 c0 bc bb d1 22 be 04 7e 9a be
       -0.33579072 -0.023492116 -0.15900318 -0.30174267
0003d0 7b d0 e7 3d fd 15 5a be a0 bc 29 bd 0f ec 8e be
       0.11319061 -0.2129745 -0.041439652 -0.27914473
0003e0 d2 68 2d 3e ce 6d e6 bd a8 2f 5b 3e 41 a8 89 3e
       0.16934517 -0.11251412 0.21404898 0.2688618
0003f0 68 70 f9 bd cd 7f dc 3c 1a 41 99 3e ff 45 22 3e
       -0.12179643 0.026916409 0.2993248 0.15847014

fc2.weight f4 [256, 512]
000000 9e c1 c0 3c cc bc 12 bd 65 c4 4c 3d af 48 2c bd
       0.023529824 -0.035824582 0.049991984 -0.042061504
000010 64 b2 13 3d 00 44 f8 3b 29 72 07 bd c6 2c 3a 3d
       0.0360588 0.0075764656 -0.033067856 0.045452856
000020 2c 5b 28 bd 73 48 80 3d 3d 6c 1b 3d 66 15 f4 bc
       -0.041102573 0.062638186 0.03794502 -0.02979536
000030 31 26 98 3c e3 82 7a bc 56 78 e4 bc b6 1c 00 3c
       0.018572899 -0.015289995 -0.027889412 0.007819345
000040 6f 97 0f bd c2 1b aa bc c8 36 6e 3c 68 34 ab bc
       -0.035056528 -0.02076519 0.014539428 -0.020899013
000050 41 9d 4a 3d 94 25 88 3c 26 9c cd bc 2d 6d 9b 3c
       0.049466375 0.016619481 -0.025098871 0.018972958
000060 d9 d5 a1 3c 23 9a 88 3b 94 e8 36 3c 8f 8a e8 3c
       0.01975529 0.004168765 0.011163849 0.028386382
000070 0b ec b9 bc 9f 27 18 3d 79 47 32 bd 73 f4 e5 bc
       -0.022695562 0.03714716 -0.043525193 -0.028070664
000080 4e bc 90 bc 42 bd a1 3c 92 3c 8d 3c 9e 28 e7 bc
       -0.017667916 0.019743565 0.017240796 -0.02821761
000090 a6 da 2b 3d a3 cc 54 3c 9d 36 22 3c e2 a1 33 3b
       0.041956566 0.012988242 0.009900716 0.0027409722
0000a0 26 4e 0a bd 74 ba bf 3c c5 4f 1b bc 3f 79 88 bb
       -0.033765934 0.023404337 -0.009479468 -0.0041648443
0000b0 0e ba a1 3c ea f4 26 bd 9b b3 6c 3c 0b 44 95 3c
       0.019742038 -0.040760912 0.014447118 0.018220922
0000c0 fe e8 8f bc a8 0a 83 bb 54 26 37 3d eb 38 0d 3d
       -0.017567154 -0.003999073 0.044714287 0.03447811
0000d0 36 8f 25 bd b4 5d 5a 3d f4 0d 55 3c 1b b8 09 3d
       -0.04041978 0.05331202 0.013003815 0.033622842
0000e0 f7 f9 ab 3c 36 1e c3 3c 48 5f 6c 3c 42 3e 9b 3c
       0.020993216 0.023818117 0.014427014 0.018950585
0000f0 fa 86 00 bd f6 ce 17 bc 92 f7 9e bc 74 f5 fd 3c
       -0.031378724 -0.009265652 -0.01940516 0.03100083
000100 89 c7 05 3d 1a 7b a4 bc 03 23 90 bc 7b 65 28 3d
       0.032660995 -0.02007823 -0.01759482 0.041112404
000110 b9 b9 ff ba eb 3c b8 3c 99 08 58 bc 5c 4e 3a 3d
       -0.0019510306 0.022489985 -0.013185644 0.045484886
000120 70 14 ea bc 9b 01 9f 3a e8 04 6f bc a9 8c 27 3d
       -0.028574198 0.0012131216 -0.014588572 0.04090563
000130 b3 0f 46 3b 61 9c 60 bc 45 85 e0 bb e2 5c c0 bc
       0.003022176 -0.013709159 -0.0068518245 -0.02348179
000140 d6 19 15 bd 59 68 67 3c 0f 6e 81 ba 6c 4a 94 3c
       -0.036401592 0.0141239995 -0.0009874719 0.018101893
000150 2e 4f fa ba 25 f0 13 3d cb 14 6b 3d f3 ff ea bb
       -0.0019097084 0.03611769 0.057392877 -0.007171625
000160 57 ec 0a bc 37 b0 ed 3c c2 9b 4c bd 42 97 73 3c
       -0.008479199 0.02901469 -0.04995323 0.014867606
000170 ef 05 af bc e0 f1 04 bc af 21 f3 bc b1 c3 8b 3c
       -0.021365134 -0.008114308 -0.029679148 0.017061086
000180 82 86 21 3d 85 2e 30 3d 90 42 d7 bb f7 65 b8 bc
       0.039434917 0.043013114 -0.006569214 -0.022509558
000190 f1 5d aa bb a8 c7 2d bd 78 10 52 3b 25 5e 18 3d
       -0.005199187 -0.042426735 0.0032053273 0.03719916
0001a0 3d 1a 1d bd 01 03 bf bb aa 61 40 3d a8 f7 34 3c
       -0.0383551 -0.0058292155 0.04696814 0.011045374
0001b0 47 80 05 3d 0a 1f eb bc 09 32 b1 3c 99 bc db 3b
       0.032593038 -0.028701324 0.021630304 0.006705832
0001c0 0a 2b 60 bc 9d ef 9a 3c c9 15 e4 bb a8 41 08 3c
       -0.013682136 0.018913085 -0.006960605 0.008316435
0001d0 59 5f 8b bc 6c 66 65 bc c9 f7 d4 3c f6 b2 4c 3c
       -0.017013239 -0.01400147 0.02599706 0.0124938395
0001e0 62 24 1c 3d 1b f0 9e bc 10 93 ab ba 10 30 83 3c
       0.038120635 -0.0194016 -0.0013090093 0.016014129
0001f0 5e cf 2d bd 83 06 1b 3d ba c1 b3 3c 6d 3f b6 3c
       -0.04243409 0.037848007 0.021942962 0.02224704
000200 bc 34 86 ba 12 a5 99 bc 3e 32 7b 3c 6d d2 00 bb
       -0.0010239105 -0.01875547 0.015331803 -0.0019656674
000210 e4 91 fe bc a7 17 30 bd 26 f8 70 bc c2 75 27 3d
       -0.031075425 -0.042991307 -0.014707601 0.040883787
000220 1f 5a 54 bc c9 6d 87 bc 32 56 a8 3b e6 9f b3 3c
       -0.01296094 -0.016531842 0.0051372284 0.021926831
000230 60 54 38 3d e6 4e 8d 3a d5 77 a1 bc 05 41 2c 3c
       0.04500234 0.001078096 -0.01971046 0.010513549
000240 de 7a 23 bd 68 ee 0e 3d c9 d4 a4 3b 29 b5 33 bc
       -0.039912097 0.03489533 0.005030249 -0.010968485
000250 85 aa d2 bc 72 0d 15 3d 27 14 16 3b 5d 90 b1 3c
       -0.025716076 0.036389776 0.0022900195 0.021675283
000260 f1 1c c3 bc 7c 3d 37 bc e1 30 dd bc df 78 33 3a
       -0.023817511 -0.011184093 -0.027000846 0.00068463193
000270 43 35 3e 3d e1 fc a8 3c 03 9e 6f bb c7 98 20 bd
       0.046437513 0.020628395 -0.0036562688 -0.0392082
000280 79 6e d8 3b ad a3 49 3d d1 34 bc bc f4 35 20 3c
       0.0066049662 0.04922836 -0.022974404 0.009778488
000290 99 cd 84 3c 6c 95 34 3d b0 94 2a 3c 23 79 fd bc
       0.016211318 0.044087812 0.010411426 -0.030941552
0002a0 48 82 c7 bb 92 e5 43 3d 42 77 ca 3c 67 a8 82 ba
       -0.006088529 0.047826357 0.02471507 -0.0009968401
0002b0 a1 92 6c 3d 80 f5 13 3d aa a8 9c 3c 84 76 98 3a
       0.057757024 0.0361228 0.019123394 0.0011632
0002c0 8e f9 08 bd 8a 61 56 3d 9e cb 2c 3d 18 b2 18 3b
       -0.03344112 0.052339114 0.042186372 0.0023299512
0002d0 91 14 14 3d 1f dc 36 bc 6b 82 17 bd b2 c2 07 bd
       0.036152426 -0.011160879 -0.03698961 -0.03314466
0002e0 5a 85 73 3d b8 76 83 3c ac e4 49 bc 28 a1 30 3d
       0.059453346 0.01604782 -0.012322586 0.04312244
0002f0 96 18 c1 bc 31 49 77 3d b0 f2 a9 bc 5b 13 34 3d
       -0.023571294 0.060372535 -0.020745605 0.04396377
000300 90 6f 85 bb 5c 5b 9f bc d7 50 34 3b c5 cb a7 bc
       -0.004072137 -0.019452743 0.0027514005 -0.020482907
000310 43 cc 63 3d 0a d5 95 bc 1d 26 19 bc 20 4c 8d 3b
       0.05561472 -0.018290062 -0.009347466 0.0043120533
000320 b6 0f 92 bc d6 4e 86 bb cc 2d 77 bc ad f7 40 3d
       -0.017829757 -0.0040987534 -0.015086602 0.047111202
000330 5d f3 b3 bb 17 bb 5f 3c 16 fb 73 3c cb b3 d8 3b
       -0.0054916576 0.013655446 0.0148914065 0.00661323
000340 78 f2 af 3c 8b 31 1e bd d0 a2 14 bb 96 b7 ae bb
       0.021477923 -0.038621467 -0.0022680052 -0.0053319437
000350 49 68 13 bd 6b 94 17 3d a6 6d 39 3c 84 13 e0 bc
       -0.035988126 0.037006777 0.011317646 -0.027353056
000360 e2 a6 b5 3c 96 6e 4d 3a 18 8d 98 bc 40 42 7f 3a
       0.022174302 0.0007836608 -0.018621966 0.000973735
000370 2b 5e 06 3d 08 52 75 bc 40 c1 09 ba f9 5c 04 bd
       0.03280465 -0.014973171 -0.0005254932 -0.032315228
000380 0b 18 03 3d cb cc 79 3c 13 60 83 3d d0 de 22 bd
       0.03200535 0.01524658 0.06414809 -0.03976327
000390 b6 0a f6 3c 86 79 3d 3d c1 42 e4 bc b6 b1 a4 3c
       0.030034404 0.046258472 -0.027863862 0.02010427
0003a0 7b 5b 09 3d 3a 67 16 bd ad ce 4b bd 2e c0 30 3d
       0.03353451 -0.03671954 -0.04975765 0.043152027
0003b0 b4 12 26 bc c3 9c d6 bc b2 86 b0 3c c3 38 03 bd
       -0.010136295 -0.026197797 0.021548603 -0.032036554
0003c0 80 9f a8 3a dc e0 18 bd f7 9e 22 3d 58 da 0f bc
       0.0012864918 -0.037323818 0.039702382 -0.008780085
0003d0 97 e3 9d 3c 89 b3 12 3c a5 c5 ac bc ef 7a 83 bc
       0.019273562 0.008953937 -0.021090338 -0.01604983
0003e0 1b aa 31 3d 40 ef 7a 3b 21 b5 de bc 3c 39 7f 3c
       0.043375116 0.0038289577 -0.027185978 0.015577611
0003f0 e6 40 c9 3c c0 ba d4 3c a9 68 32 3d 88 06 fa bc
       0.024567079 0.025967956 0.043556843 -0.030520692

fc2.bias f4 [256]
000000 dd 50 75 bc e4 b3 f7 3c dc 81 17 bd 22 7f 69 bc
       -0.014972893 0.030237146 -0.036989078 -0.014251502
000010 b5 f0 fc bc 7e 3a 3f 3c f8 b0 ab bc 61 40 e3 3c
       -0.030876497 0.0116716605 -0.020958409 0.02774066
000020 35 03 ee 3c 0f cf 2e bb 40 8f 18 3c 2f 3a c2 3c
       0.029054264 -0.002667371 0.009311497 0.023709385
000030 ac 4f bb ba 8b 15 0a bd 88 2f 98 3c 2a fb 02 3a
       -0.0014290712 -0.03371195 0.018577352 0.0004996533
000040 7d bb 95 bc 3c 2d 35 bb 57 58 c5 bc be 37 17 3d
       -0.018277878 -0.002764537 -0.024089975 0.036918394
000050 39 53 90 bc 3f 58 83 3b 73 c3 11 bd 1b f5 81 bc
       -0.017617809 0.0040083225 -0.035586786 -0.015863946
000060 91 bc b2 3c 7b dc df 3c c4 e9 dc bc 26 dc f9 3b
       0.021818431 0.027326813 -0.026966937 0.0076251207
000070 49 58 c3 3c cd 0c a1 bc 5a ba 16 3d b7 2a 05 bd
       0.023845809 -0.019659424 0.036798812 -0.03251144
000080 29 9d 05 3c 6d b6 1d 3d 0e a1 09 3d b0 4d be bc
       0.008155146 0.038504053 0.03360086 -0.023230404
000090 f5 84 82 3c 57 cb 2c 3d 34 4e 9c bb 80 49 7f 3c
       0.01593254 0.042186107 -0.0047700647 0.015581489
0000a0 38 e3 05 3d 44 46 a4 bc 85 b9 e5 3c b5 b4 49 bd
       0.032687396 -0.020053037 0.028042564 -0.0492446
0000b0 a0 8a 91 3a 81 2e 10 bd 23 f6 36 bc 79 f9 e3 3c
       0.0011103936 -0.0352006 -0.011167082 0.027828919
0000c0 01 bd 90 bc dc 19 32 bd b7 e7 0a bd c9 4f 1a 3d
       -0.01766825 -0.043481693 -0.033912387 0.037673745
0000d0 a5 b0 01 3c 89 1f c0 3c df 59 1b bd f7 9e 5c 3c
       0.0079156505 0.023452537 -0.037927505 0.013465635
0000e0 a3 01 5c 3d 4e 1e a0 3b 7b 48 81 3c c3 a2 47 bb
       0.0537125 0.004886425 0.015781632 -0.0030462004
0000f0 2c 24 db 3c f8 49 e1 bc 07 92 31 bb 46 b8 21 3d
       0.026750647 -0.027501091 -0.0027095096 0.039482377
000100 ce 87 8b 3c 56 27 dc 3c 49 de fc 3a c9 68 f2 3c
       0.01703253 0.026874226 0.001929232 0.029590981
000110 83 7c eb bb 74 26 e5 3c bb 26 14 3d 68 1d ca bb
       -0.007186474 0.027972437 0.03616975 -0.0061680563
000120 ad 2d 72 3c 73 69 b2 3c 21 33 25 bd 1b d5 47 bb
       0.014781398 0.021778798 -0.040331963 -0.003049201
000130 55 66 37 bc a0 36 e3 bc d2 b9 26 3d a5 c1 10 3d
       -0.011193831 -0.027736008 0.040704556 0.035340924
000140 b8 61 52 ba d0 94 ef 3c c1 66 df bc e2 8d d4 39
       -0.00080254255 0.029245764 -0.027270677 0.00040541502
000150 0e 5b 29 bb 3b a9 79 bc 6a 63 c7 bc a7 29 2e bd
       -0.0025841626 -0.015238102 -0.024339397 -0.04252019
000160 ea 41 aa 3c e4 77 29 3d e3 a3 ab 3c 8e 7a 2a 3d
       0.020783383 0.041374102 0.02095217 0.041620784
000170 bd cd 1d bd 5f cc 12 3d d8 f4 c8 3c 9d 8e 86 bc
       -0.038526285 0.035839435 0.024530813 -0.016425425
000180 b9 c0 d4 bb fd 68 33 bc 60 c8 50 bb e3 2e 2d bc
       -0.006492701 -0.010950324 -0.0031857714 -0.010570261
000190 15 87 ad 3c 64 3b 30 bd 4f 3f 69 3c 73 22 32 3c
       0.021182576 -0.04302539 0.014236285 0.010872471
0001a0 17 80 e9 bb 05 c3 3d bb c0 50 12 bc 3f de 86 bc
       -0.007125865 -0.0028955352 -0.008930385 -0.016463397
0001b0 51 a8 9a bc 4c f7 1c 3c dd 9b 52 3b 48 61 9a bc
       -0.018879088 0.009580445 0.0032136359 -0.018845215
0001c0 be e1 aa 3c be 2a 62 bc c9 71 94 3c 5f 75 7c 3c
       0.020859595 -0.013804136 0.018120663 0.015408843
0001d0 78 2a fb bc 35 af c6 3c bf 49 2e 3c 43 9e a4 3c
       -0.0306599 0.024253467 0.0106377 0.020094996
0001e0 78 51 24 3c 21 4c db bc bc 87 06 3c 68 f2 1e 3d
       0.010029189 -0.0267697 0.0082110725 0.038805395
0001f0 88 50 32 bc 48 80 18 3d 74 5d 96 bc 66 e5 14 bc
       -0.010883458 0.037231714 -0.018355109 -0.009087896
000200 24 1b d8 3b 2c 73 0e 3c 2f 55 0d bd 3c a6 d9 3b
       0.0065950323 0.008694451 -0.034505066 0.006642131
000210 69 3b d1 3c ff 4f ae 3c 34 c0 1a bd 2a 9e bb bc
       0.025541024 0.02127838 -0.037780955 -0.022902567
000220 36 68 f5 3c 0d 8a d2 3a a1 d8 18 bc 45 00 e5 bc
       0.029956918 0.0016062871 -0.009328992 -0.02795423
000230 0b 99 f5 3b 2e 56 3b 3d 3a ba cc 3c 52 b1 89 3c
       0.007495051 0.045736484 0.024991143 0.016808186
000240 8e b3 88 bc 28 1f 83 bc b8 46 93 3c fe 4d 12 bc
       -0.01668718 -0.016006067 0.017978057 -0.008929728
000250 01 0c 40 3d 5c 46 b8 bc 8a 85 0a bd 94 ea 9e 3a
       0.046886448 -0.022494487 -0.03381876 0.0012124353
000260 c5 c0 cd 3c 7b 1a 20 bd 98 f8 c6 ba ab 0d 91 3a
       0.025116334 -0.039087754 -0.0015180288 0.0011066695
000270 1a c8 01 3d 0f f4 4d 3c 4c 04 07 3c aa 80 5d bd
       0.031684972 0.012570395 0.008240771 -0.05407778
000280 a2 d4 13 3d 80 4e b2 ba 1a 36 3b bd 88 d5 39 3b
       0.036091454 -0.0013603717 -0.045705892 0.0028356034
000290 95 e7 a7 3b 56 fa 38 3d 69 87 9b bc ea c9 22 bd
       0.0051240423 0.045160614 -0.018985467 -0.03974334
0002a0 2e 80 2b bc a8 4c cb 3c 06 49 a1 bc a0 82 e1 bc
       -0.010467572 0.024816826 -0.01968814 -0.027528107
0002b0 a5 39 5d 3c 7f 77 ca bc 87 b6 2d bd 4d 67 1b 3d
       0.013502513 -0.024715183 -0.0424104 0.037940312
0002c0 cf 76 44 bd bd 95 f3 3c 1c a4 d3 3c e1 e5 7e bc
       -0.047964867 0.029734487 0.02583509 -0.015557737
0002d0 23 56 1c bb 4e f3 f0 bc e3 bf 8d bc 84 63 c0 3c
       -0.0023855052 -0.029412892 -0.017303413 0.023484953
0002e0 a0 f4 81 3c 15 85 15 bd f1 dc b5 bc ca bf ef bc
       0.015863717 -0.03650387 -0.02220008 -0.029266257
0002f0 ee c0 d9 3a ee 3d 82 3c 68 82 f7 3c 6a 49 1d 3d
       0.0016613284 0.015898671 0.03021355 0.03840009
000300 62 fb bf 3c 7b d6 5a 3c 50 0a 9a 3b 69 2a c6 3b
       0.023435298 0.0133568 0.0047009364 0.006047536
000310 51 08 09 bc 5d 09 8d 3c f9 b3 29 bd 29 ef ca bc
       -0.008363799 0.017216379 -0.0414314 -0.024772244
000320 2a ae fd 3b 5f bf d1 bc 9c 81 5b 3c 01 ed c0 3c
       0.0077417092 -0.025603948 0.0133976005 0.023550512
000330 61 02 42 bd 84 4b 51 bd 34 02 ff bc 40 3a ca 3c
       -0.04736555 -0.051097408 -0.03112898 0.024685979
000340 bc 08 05 3d a9 32 a9 bc 6e 8e f3 3c 0c 0e 4e 3c
       0.032479033 -0.02065404 0.029731002 0.012576591
000350 f2 ef 08 3d 77 2e a8 3c 20 57 28 3c 6b 4b 8e 3c
       0.033431955 0.020529969 0.0102746785 0.017369946
000360 2d e3 74 bb ae f3 0d bc 95 99 07 bd cd 21 75 bc
       -0.0037366853 -0.008664055 -0.03310545 -0.014961672
000370 3e 2b 0d 3d f1 b5 0d bd bd dd 35 3c 1c 9f 87 3b
       0.034465067 -0.03459734 0.01110023 0.0041388404
000380 a0 d7 b7 3c d0 22 b7 3c c4 82 41 bd 70 59 1f 3d
       0.022441685 0.022355467 -0.04724385 0.038903654
000390 bb de 76 bb 9d 5f 8e bc d7 80 c9 bc 66 63 7c bb
       -0.0037669379 -0.017379576 -0.024597568 -0.0038511395
0003a0 4f 59 2d 3d 20 89 17 bc 24 c7 c6 3c ab 72 45 bc
       0.0423215 -0.009249002 0.02426488 -0.012051265
0003b0 22 cc 11 ba 1a e8 ea bc 6b 29 10 3d ad b9 49 3d
       -0.0005561729 -0.028675128 0.03519575 0.04924934
0003c0 95 25 e9 3c b7 50 9a 3c 89 b9 f0 3b 5d 3a c2 b9
       0.028460303 0.018837316 0.0073463363 -0.00037046048
0003d0 92 39 de 3c ef 12 29 3d 45 a6 8b bc c0 ff 1e 3c
       0.027127061 0.041277822 -0.017047057 0.00970453
0003e0 97 fb 2d 3d 54 2a 97 3b 34 23 26 bd 3b 98 22 3c
       0.042476263 0.0046132 -0.040560916 0.00992399
0003f0 6e ce 50 bc ad 86 fd bc c5 48 13 bd de c4 34 bc
       -0.012744529 -0.030948007 -0.03595807 -0.011033265

fc3.weight f4 [128, 256]
000000 14 1e 56 3d d3 c6 61 bd aa 2d 26 bd 87 ce 71 bd
       0.05227478 -0.055121254 -0.040570892 -0.05903485
000010 58 3e 30 3c b2 10 2e 3d 52 4a 67 bb c3 1b 16 bd
       0.010757051 0.04249639 -0.00352921 -0.03664757
000020 d1 db fe bc 2d d0 bf bb 9e 69 70 bd b5 34 66 3c
       -0.031110676 -0.005853674 -0.058694474 0.014050652
000030 63 aa 9b 3c 73 b2 d0 bc 6f f8 62 bc 0c ff 3d bd
       0.019002145 -0.025475716 -0.0138531765 -0.04638581
000040 6b 44 28 bd bd bc 04 bd bb 8d e1 bc d6 c7 81 3c
       -0.041080873 -0.032406557 -0.027533403 0.01584236
000050 be d3 0f 3d 56 57 39 bd d8 4a 62 3d a1 54 79 3d
       0.035114042 -0.045249306 0.055247158 0.060871724
000060 e6 ed 40 bc 3d 48 f6 3c ee 54 59 bd 95 11 15 3d
       -0.011775469 0.030063743 -0.05305951 0.03639372
000070 95 3b 25 3d 79 b1 f7 3c 51 68 e4 bc 52 3d 2d bd
       0.040340025 0.030235993 -0.027881773 -0.042294808
000080 52 8e 97 bc 18 cb e8 3c ba e0 01 3d b8 7d ed bb
       -0.01850048 0.028417155 0.031708457 -0.007247653
000090 27 b0 45 3c d4 5f a0 bc 55 ff 13 bd 54 df b5 3c
       0.012065924 -0.019576944 -0.036132175 0.022201218
0000a0 1f f4 dc 3c 6a 1d d6 3c 97 b8 cc 3b a0 9b 64 bc
       0.026971875 0.026137073 0.0062475908 -0.0139531195
0000b0 57 e9 84 bd 8e 35 37 3d 4c 97 52 bd 7b 57 5d 3d
       -0.064898185 0.044728808 -0.05141382 0.054038506
0000c0 a7 5f bc 3c 06 fb 9f bc 64 09 6f 3d 28 88 7a bd
       0.02299483 -0.019528877 0.058358565 -0.061165005
0000d0 35 1a 5f 3d 41 26 e9 3c 3b 12 0a 3b 14 05 61 3b
       0.054468352 0.028460624 0.0021067995 0.0034335302
0000e0 1a 21 9c 3b 00 1e 02 3d 28 28 ca bc 1c 14 da bc
       0.004764688 0.03176689 -0.024677351 -0.026620917
0000f0 61 5e 40 3d 8e df 07 3c ad b1 b2 3c 44 25 74 3a
       0.046965007 0.008293046 0.021813238 0.00093134143
000100 f6 7d 1c bd 8c b6 ab 39 1a fe 44 3d 67 bc 4b 3d
       -0.038206063 0.0003275167 0.048093893 0.04974022
000110 35 16 20 bd 65 31 a4 3c d3 d6 3b bc 22 0a 75 bc
       -0.03908368 0.020043084 -0.011464792 -0.014956029
000120 6b 24 14 bd af b1 8d bd 0c 5f 44 bb 42 b3 50 bc
       -0.036167543 -0.06918656 -0.002996388 -0.012738051
000130 fc 20 60 3d 10 d6 7e 3d b6 0b f3 3c e2 33 d9 3c
       0.054718956 0.062215865 0.02966867 0.026513997
000140 6a 88 e3 bc 09 24 42 3d 37 40 95 bc f6 be 2c 3d
       -0.027775008 0.047397647 -0.018219097 0.042174302
000150 44 19 0f bd ed 17 5f 3d 90 ab 1c bb 81 9d de 3c
       -0.034936205 0.054466177 -0.002390597 0.027174713
000160 0b f9 73 3c da 08 72 bc 08 81 45 bd 0d 45 52 bd
       0.014890919 -0.014772618 -0.048218757 -0.051335383
000170 f6 d6 24 bd 6e 23 85 bd bc fd ce bb 15 d8 7c b9
       -0.040244065 -0.06500898 -0.0063168686 -0.0002411309
000180 db 9d 85 3c cf d4 a4 3b d7 24 84 bd cb 56 1c 3d
       0.016310623 0.0050302516 -0.06452339 0.03816871
000190 1c b8 4c 3c e5 be ba bc 82 65 2e 3d ad eb 88 ba
       0.012495067 -0.022796104 0.042577274 -0.0010446213
0001a0 a1 e7 36 3d 32 90 fd bc 24 65 26 3d 8f 16 64 bd
       0.044654492 -0.030952547 0.0406238 -0.055685576
0001b0 1b f7 46 bd 1f 3a 18 bd 38 5e f2 bb 24 b5 8b bc
       -0.048575502 -0.037164804 -0.0073964857 -0.017054148
0001c0 60 b2 1f bd e0 3a 6c 3c 00 82 6f 3d 4b be 39 3d
       -0.03898847 0.014418334 0.058473587 0.045347493
0001d0 bc 05 3e 3d a4 4c ca bc 0e 7e 80 3c 93 96 31 3d
       0.046392187 -0.024694748 0.015685108 0.04335649
0001e0 25 77 78 bc 37 90 78 3d 81 82 3c bd 7a fd 3e 3d
       -0.015165125 0.06068441 -0.046022896 0.046628453
0001f0 e4 15 44 3d b3 ff 7b bc 2c 0f c4 3b d1 88 5d 3d
       0.04787244 -0.015380788 0.005983254 0.054085556
000200 18 91 46 3d 1c f9 0b bd fe 70 a0 3c 20 f4 68 bd
       0.048478216 -0.034173116 0.019585129 -0.05687344
000210 c6 95 64 bb a8 1e 14 bd a4 1c df bc d8 6b 14 bc
       -0.003487931 -0.03616205 -0.027235337 -0.009058915
000220 22 a5 1f 3d 73 58 8a bd 34 7d 96 b9 d3 dd 95 bc
       0.038975842 -0.067551516 -0.00028703513 -0.01829425
000230 6b 5e 69 3d ca a4 67 3d 7f 91 86 3d e2 e4 9f bc
       0.05697481 0.05655364 0.0657072 -0.01951832
000240 7e f9 13 3d d5 23 5e 3d 0d 69 1c bb 80 18 b8 bc
       0.036126606 0.05423339 -0.0023866326 -0.02247262
000250 41 e2 29 bd 20 9b 3e bd 6b 64 5f bd 24 ba cb 3b
       -0.04147554 -0.046534657 -0.054539125 0.006217258
000260 ed 8d 7b 3c ee 3d 45 3d 9a 5e 49 bd b1 c9 6f bc
       0.015353662 0.048154764 -0.049162485 -0.014635489
000270 83 b4 2a 3d 38 4a 1e bd 87 09 56 3d e7 a5 20 bd
       0.041676056 -0.038645 0.05225518 -0.039220717
000280 01 72 6a bd 13 7e 38 3d 69 b1 a4 bc ea f8 41 3d
       -0.05723763 0.04504211 -0.020104127 0.047356524
000290 52 7a b9 3c d9 cb 5a bd 4b 29 df 3c f2 ea 5d bd
       0.022641335 -0.05341706 0.02724137 -0.05417914
0002a0 d9 bc 28 3c 42 68 c0 bb 95 15 2a bd 4a 65 17 bd
       0.010298931 -0.0058718035 -0.04152449 -0.03696183
0002b0 7f a9 80 bd cf 9e 1a bd 3c 91 16 3d 98 b2 71 bb
       -0.06282329 -0.037749108 0.0367596 -0.0036880132
0002c0 73 3a 69 3d b1 ff 36 3d ea 4f 1b 3d 55 cb 91 3b
       0.056940507 0.04467744 0.03791801 0.004449288
0002d0 dd 71 7d bd b4 ec 3e 3d b8 82 5e bd 68 c2 03 3d
       -0.061876167 0.046612456 -0.054323882 0.032167822
0002e0 fc 13 29 bd ec de d3 bc a3 3f b4 3c df 0e 05 bd
       -0.041278824 -0.025863133 0.022003 -0.032484885
0002f0 ee 16 e1 3c da e2 3b 3d d5 74 5b 3d 0e 24 6b 3d
       0.027476754 0.04587064 0.053578217 0.05740743
000300 66 09 be bb b3 19 88 bc 56 5c 05 bc 90 ef 09 bc
       -0.00579946 -0.016613817 -0.00813969 -0.008418933
000310 aa 48 78 3d 8d 51 dd bc d7 8f 08 3d 84 6a 03 bd
       0.060616173 -0.027016426 0.0333403 -0.032084003
000320 14 02 24 bd c5 10 34 bc 2f 6a ec 3c ae 6a 32 bd
       -0.040041044 -0.010990326 0.028859226 -0.04355877
000330 ba 13 5d 3b 86 ef b8 3c 5f 57 10 3d ea 27 88 bc
       0.0033733682 0.022575151 0.035239574 -0.016620595
000340 80 9e 9d 3b 39 8f 82 bc c7 d8 1a 3d 04 e6 96 3c
       0.0048101544 -0.015937435 0.03780439 0.018420227
000350 5e 6a 4e bd 28 3a 62 bd 16 28 10 3c b8 d9 18 3d
       -0.05039441 -0.055231243 0.00879862 0.037317008
000360 bd 3b bd 3c 62 ac 2c bd 57 2d 2c 3d 52 f8 41 bd
       0.023099774 -0.042156585 0.042035427 -0.047355957
000370 ab 3a 3f bd 3d 97 79 bc d8 03 1d bd 53 fc 4f bd
       -0.04668681 -0.015233812 -0.038333744 -0.050777745
000380 14 43 53 3c 11 1a 54 bd 45 1a 59 3c 20 81 b7 3c
       0.012894411 -0.05178267 0.013250892 0.022400439
000390 6a 0d 04 bc f5 70 7b 3c 4f 8f 83 3c 42 77 8c 3c
       -0.008059839 0.015346755 0.016059546 0.01714671
0003a0 c4 1e a8 3c 47 94 65 bd ed 91 2c bd 12 b7 fd 3c
       0.020522483 -0.05604961 -0.042131353 0.030971084
0003b0 82 18 6a bd 18 77 d8 bc e9 ac 0c bc 02 bc 89 bd
       -0.05715228 -0.026423976 -0.008586147 -0.06725313
0003c0 f6 8e 73 3c ef 5d 24 bd 18 2a 4c 3d 81 8e 1d bb
       0.0148656275 -0.040128645 0.04984483 -0.0024041238
0003d0 65 1c ae 3a 7f bc 65 bd b1 40 6c bd b5 34 f1 3c
       0.0013283609 -0.056087967 -0.057678882 0.029444078
0003e0 1d b3 33 bc bb 02 de 3c 96 a2 87 bc 57 c5 d2 bb
       -0.010967997 0.027100911 -0.01655702 -0.006432216
0003f0 47 f5 0d 3d 8c 43 d2 3c f7 c0 52 3d 2e 08 c7 bc
       0.034657743 0.025666974 0.051453557 -0.024295893

fc3.bias f4 [128]
000000 e1 6c 7a bd 13 b8 4f 3d 4a f5 31 bd e7 35 1b 3a
       -0.06113899 0.050712656 -0.043446817 0.0005920813
000010 be ff f2 bc 04 a4 b3 3c c3 a9 7e bc bc fb 02 3c
       -0.029662963 0.021928795 -0.015543404 0.007994588
000020 d7 4b 05 3d 5a 4d 17 3c 88 7e 2d bd 03 a7 ed bc
       0.03254303 0.009234751 -0.042356998 -0.029010301
000030 1b d4 d9 3c 86 8c 2b bd a5 57 76 bb f3 d9 7a bc
       0.026590398 -0.04188206 -0.0037588861 -0.015310752
000040 e4 a9 36 3d de 23 4e bd 2e 7b 90 3d d3 61 6b bc
       0.044595614 -0.050327174 0.07054745 -0.014366585
000050 20 ff 00 3b ec 14 55 3c 9e ae 28 3d c6 f4 82 3b
       0.0019683316 0.013005476 0.041182153 0.0039964644
000060 b5 69 66 3c 5d 38 79 3c c6 f5 21 bd 6e 60 3d bd
       0.014063288 0.015211192 -0.03954103 -0.04623454
000070 59 f2 de bc e5 58 a1 3c b1 80 3a bd 7f 50 36 3c
       -0.02721517 0.019695709 -0.045532886 0.01112759
000080 9e 53 51 3d fb 26 4b 3d ba 3d d8 bb 18 b8 ca 3b
       0.051105134 0.04959772 -0.0065991553 0.0061864965
000090 9c ba 08 bd 4e 05 84 bd ef 0a 79 bd a1 bd 04 3b
       -0.03338109 -0.06446324 -0.060801443 0.002025463
0000a0 81 f4 86 3c 80 61 2a 3d 57 bd 85 3d 93 63 84 3a
       0.01647401 0.04159689 0.06530254 0.0010100476
0000b0 7a d1 95 bc 49 83 61 3d 4d 95 59 bd 90 9d 9d 3c
       -0.018288363 0.055056844 -0.0531209 0.01924017
0000c0 7c f3 81 3c 74 2f f7 bb 10 ef 31 bd 43 9b 49 3c
       0.015863173 -0.0075434987 -0.04344088 0.012305084
0000d0 22 37 cb bc 2f 2d f6 3c 86 66 11 bd 54 30 8c bc
       -0.024806563 0.030050842 -0.035498165 -0.017112888
0000e0 fa 17 40 3d bb a8 4c 3d a4 a7 27 bd 7d 6c 97 3c
       0.046897866 0.0499656 -0.04093136 0.018484348
0000f0 ad be 7d 3d 99 8d 96 bc f5 d4 20 bd 6d e0 90 3b
       0.06194942 -0.018378066 -0.03926559 0.004421285
000100 48 d4 03 3d 4b 7b 07 bc be 29 ab 3b 4e 3b 9e 3c
       0.03218487 -0.008269141 0.005223482 0.019315388
000110 b3 a7 04 3d 97 3c 42 3c 89 ba 75 3d fc 76 10 bd
       0.032386493 0.011855266 0.059992347 -0.035269722
000120 b8 0e db bc 88 45 1e 3d c1 5f 11 3d cf e3 60 3d
       -0.026740417 0.03864053 0.03549171 0.054904755
000130 ba e0 c2 3c 23 f3 34 3d 58 5b 49 bd f3 f0 83 3d
       0.023788799 0.044177186 -0.049159378 0.06442442
000140 37 7d 7a 3d f5 25 6b bc ce ad 16 bc 37 f1 67 bd
       0.06115457 -0.014352311 -0.009196712 -0.056626525
000150 92 37 28 3d 40 cb c7 ba 3f 42 a4 3c f1 84 5d 3d
       0.04106862 -0.0015243068 0.02005112 0.05408186
000160 1b f9 e4 bc 1f 6b 24 bd b2 9f 5a 3d 4e 3f d7 bb
       -0.027950814 -0.04014122 0.053374954 -0.006568826
000170 d8 c3 6e 3c 10 65 17 3d b6 5d 9d b9 ed 31 9c bc
       0.01457306 0.036961615 -0.00030015194 -0.019066775
000180 4e a4 11 3d 5f 3f 23 bd 04 e0 7b bc a4 40 1d 3d
       0.035557084 -0.039855357 -0.015373234 0.038391724
000190 0c e9 14 3b f0 16 4c bd fd 54 74 bc c8 4d 88 3d
       0.0022721915 -0.049826562 -0.014912841 0.066554606
0001a0 dd fc 52 bd b3 d6 b5 ba 29 7f 30 bd 34 ad a7 3c
       -0.05151068 -0.001387319 -0.04309002 0.020468332
0001b0 b4 d9 44 bd 82 4c 22 3d bd f2 9b 3b 8e 90 8d 3c
       -0.04805918 0.039623745 0.0047591613 0.017280843
0001c0 03 5b cd 3b 09 eb f9 3c ef 9a 37 3c c5 d5 37 bd
       0.006266953 0.030507581 0.011206373 -0.0448816
0001d0 f3 28 39 3c 4a 86 00 3d a5 8a 24 3d ff b9 68 bd
       0.011301267 0.031378068 0.040171284 -0.056818005
0001e0 81 04 3f bd e6 7d ca 3c e8 e9 ab 3c f4 5d 75 3d
       -0.046635155 0.024718236 0.020985559 0.059904054
0001f0 e3 43 ab 3c 1f d8 f2 3b f1 a8 d0 bc 80 92 cb 3c
       0.020906394 0.0074110175 -0.025471183 0.02485013

fc4.weight f4 [64, 128]
000000 10 81 d9 38 04 88 f5 3a bb b1 3f bd 8a 77 ad 3c
       0.00010371406 0.0018732552 -0.046800356 0.021175165
000010 76 e9 12 bb b8 9e 30 bd 6e 19 6e bd 71 a5 bd bb
       -0.0022416986 -0.043120116 -0.05812972 -0.0057875444
000020 90 b8 42 3d 8f 01 00 3d 78 1e 33 bd 32 68 66 bd
       0.047539294 0.031251486 -0.04373023 -0.056251712
000030 43 f0 27 3b 07 dd ab bc 5d 08 9a 3d 4a f7 84 bc
       0.0025625385 -0.020979417 0.075211264 -0.016231198
000040 5b b2 54 3d 8e ba 18 3d cb c9 d7 3c 0a 77 72 3b
       0.051927906 0.037287287 0.02634134 0.0036997222
000050 ac e3 bc bc a0 51 f4 3d dc e0 d8 ba ce 99 b2 3d
       -0.023057781 0.11929631 -0.0016546506 0.08720742
000060 e6 5f a9 bd a6 9a f8 bc b1 39 16 bd 22 9f 4b 3d
       -0.08270244 -0.03034718 -0.036676113 0.049712308
000070 4a 77 05 bd e1 51 63 bb 1e 39 e8 3c d1 52 23 bd
       -0.032584466 -0.0034686255 0.028347548 -0.0398739
000080 9b 4a 82 3d be 9f 43 bd d5 ae 68 3d f6 5f 8f 3d
       0.06361886 -0.047759764 0.056807358 0.07000725
000090 6e 68 c6 3b 57 eb b4 3d d6 8a 27 bc ab 8e 38 3c
       0.0060549295 0.0883395 -0.010225972 0.011264483
0000a0 54 b1 33 bd 72 73 94 3b 72 6e 5b 3d bc bd 2c 3d
       -0.043870285 0.0045303637 0.053572126 0.042173132
0000b0 63 9f 45 bc 82 38 90 bd d2 06 88 3d c4 ad 36 bc
       -0.012061927 -0.07042028 0.06641926 -0.011149827
0000c0 7b b6 a4 3d 6a 74 56 bd 93 23 11 3d 32 5c dd bb
       0.08042618 -0.052357115 0.035434317 -0.0067553753
0000d0 a3 07 b6 bc f0 73 bd 3d 3d 95 53 3d 9f df 8b 3d
       -0.022220438 0.09250629 0.051655997 0.06829762
0000e0 65 b5 d9 bb 0d 9c 62 3d c6 74 70 3d 66 f9 49 bc
       -0.0066439384 0.055324603 0.058705114 -0.012327528
0000f0 98 3e bd 3d a9 00 34 3d 48 33 54 3d f1 aa e9 bc
       0.092404544 0.043945942 0.051806718 -0.028523894
000100 b6 4a 8b 3d 36 7d 8c bc 6d 1d 98 bd 02 4c 71 3d
       0.06801359 -0.017149549 -0.074274875 0.058910377
000110 2a 7d b3 3c 1d eb 63 bd 14 a5 73 3c 72 7c 0e bd
       0.021910269 -0.055644143 0.014870901 -0.03478665
000120 ef ef db bc b0 8c 62 bd 1c e1 5f bd 99 be 82 3c
       -0.026847808 -0.05530995 -0.05465804 0.015960025
000130 8a 56 b3 bc c5 e2 67 bd d1 b4 33 3b bc d2 39 3d
       -0.021891851 -0.05661275 0.0027421007 0.045366988
000140 5e 04 36 3d 47 33 f2 3c 9d 4b d5 3c 90 8e 20 bd
       0.04443776 0.029565467 0.026037032 -0.03919846
000150 21 f3 74 3d ca 79 a7 3d 49 25 d6 3d fc e4 e8 bc
       0.05980218 0.08177526 0.1045633 -0.0284295
000160 19 30 4f bd 53 47 e6 bc a6 4f ac 3b 90 d7 2b 3d
       -0.05058298 -0.028110182 0.0052585183 0.041953623
000170 89 ee f0 bb d4 9a 5b 3d 77 77 d3 3c 64 be 65 bb
       -0.0073526544 0.053614452 0.025813801 -0.0035056109
000180 00 f0 da 3b f6 8a 86 bd cd 88 81 3d d2 5e ee 3d
       0.0066814423 -0.065694734 0.06324921 0.11639179
000190 b2 92 be 3c 6d 82 11 bc b4 b8 82 bd d4 a7 aa bd
       0.02326331 -0.008881194 -0.063828856 -0.08332792
0001a0 7b 4c d9 3c 22 13 79 bc 55 ff 02 3e 3d 4e da bb
       0.026525727 -0.0152023155 0.12792714 -0.0066621588
0001b0 2a 06 d3 3d 17 3d 2e bc eb 80 b7 3c 59 8d 41 3d
       0.1030391 -0.010634682 0.02240034 0.04725394
0001c0 e5 31 37 bc 7e 72 3f bc 00 56 ad 3d e9 3c 8a 3c
       -0.011181329 -0.011685012 0.08463669 0.016874747
0001d0 50 ce 3e 3d 8b 71 b7 3c 64 b5 d2 3d ba 64 eb bc
       0.046583474 0.022393009 0.10288504 -0.028734554
0001e0 53 a5 1a bd 28 dc 36 3d 76 36 a9 bc 97 dc d9 3c
       -0.03775532 0.04464355 -0.020655852 0.026594443
0001f0 9c dd 49 bd b3 36 a6 3c c0 58 a9 3d 49 ce 3a bd
       -0.04928361 0.020289754 0.08268881 -0.045606885
000200 12 ee ff bc a3 ed aa bd 5c 00 18 3d 58 26 89 3b
       -0.03124145 -0.08346107 0.037109718 0.004185479
000210 83 93 93 bd 11 bf 5c bd f2 59 29 3d 43 e6 1f 3d
       -0.0720587 -0.053893153 0.041345544 0.039037954
000220 aa 6f 3d 3d 1c 8a 61 bd 82 74 b3 bd 0c 0a dc 3d
       0.04624907 -0.055063352 -0.087624565 0.10744104
000230 71 bf b1 bc 8b 8f 1a bc 76 a7 f4 3b 8e 28 83 ba
       -0.021697732 -0.009433637 0.007466252 -0.0010006593
000240 83 50 4e bc 6a 48 30 3d fe 92 97 3d 78 31 ad 3d
       -0.012592438 0.04303781 0.074010834 0.08456701
000250 bc 9b a1 3d 98 d3 b8 bd 3d 74 38 bd 69 10 4a 3d
       0.07891032 -0.09024733 -0.04503273 0.049332056
000260 08 7d ac 3c 31 67 34 3d 32 e0 39 3d b2 7f 06 bb
       0.021055713 0.044043723 0.045379825 -0.002052289
000270 6f 0d 2a 3d 3c 11 5c 3c f8 e7 9b ba 05 05 12 3c
       0.041516718 0.013431843 -0.0011894694 0.00891233
000280 e3 ac 60 3d 54 9c 20 3d 4c 1b a2 3d ff 01 91 3d
       0.054852378 0.039211586 0.07915363 0.07080459
000290 e5 03 15 3d 7e ca ca bd 28 45 a6 3d cf 40 8a bd
       0.036380667 -0.099019036 0.08118659 -0.067506425
0002a0 e3 4f 95 bd be 17 b1 bb c5 c7 bd 3c fe 4f 43 bd
       -0.07290628 -0.0054044416 0.023166547 -0.04768371
0002b0 e9 f4 cf bc 59 72 ab 3d cf 82 4c bd ac 9a 5a 3d
       -0.025385337 0.083714195 -0.049929436 0.053370163
0002c0 25 06 b5 bd 85 ee 07 3c 4f 0f 29 3d fd af 42 3d
       -0.088390626 0.008296614 0.041274365 0.047531117
0002d0 1a bf 82 3d ef 78 e1 3c 36 69 1e 3d 70 1e 49 bd
       0.06384106 0.027523486 0.038674556 -0.049101293
0002e0 42 5e b0 3d 4c b4 24 bd 88 66 85 bc 64 79 99 bb
       0.08611728 -0.040211007 -0.016284242 -0.0046836603
0002f0 ee b3 15 3d 45 a4 38 bd f6 03 3e bd 9d da 3a bd
       0.036548547 -0.045078535 -0.046390496 -0.045618642
000300 ba 6d 80 3d c6 02 a3 bd fc 31 bd 3d 3e 53 8c 3d
       0.06270929 -0.07959513 0.092380494 0.06851815
000310 cd 87 c0 3c 79 45 ff 3c c9 5d 2f bd d4 ca c4 bd
       0.023502255 0.031161057 -0.04281405 -0.09608999
000320 7c 75 2c bd 74 3b a5 3d 99 06 ab bd 05 f9 d3 bc
       -0.04210423 0.080679804 -0.08350868 -0.025875578
000330 18 32 2f 3c a6 d8 7a bc 83 4b be 3c 2b 30 85 bd
       0.010693096 -0.015310442 0.023229366 -0.06503328
000340 cd 78 81 3d 77 70 7d 3d e2 cb c1 3b 13 3d 1c 3d
       0.06321869 0.061874833 0.0059141973 0.038144182
000350 f6 15 56 3d fc 5e a3 3d 88 4f b1 bd a3 c2 e9 3d
       0.052267037 0.07977101 -0.086577475 0.11414077
000360 6a 3a ff bc f0 08 15 bc 77 35 90 3d 3d 83 8e 3d
       -0.031155784 -0.009096369 0.070414476 0.069586255
000370 c8 fe 85 bc 8c df 94 3d 35 02 cb bc 2f 9e 1e bb
       -0.01635684 0.07269201 -0.024781326 -0.0024203171
000380 5f 13 9a 3c e4 c0 16 bc 0f bc 83 bd 10 fd aa bd
       0.018808065 -0.009201262 -0.06432354 -0.08349049
000390 d2 82 16 bb e0 e2 02 3d 69 97 bb bd d3 d3 c9 3d
       -0.0022966159 0.031954646 -0.091597386 0.098548554
0003a0 73 ed 5b 3d 6e c4 4b 3d 10 f9 a3 3b bf 2b ac 3d
       0.053693246 0.049747877 0.005004056 0.084067814
0003b0 b4 5e 99 bd 75 7d 5a bd 5e b9 21 bd 40 a7 8b bd
       -0.07488766 -0.0533423 -0.03948342 -0.0681901
0003c0 3c 92 03 3c 5a 3b 0b 3d 64 de b2 bd 60 3b 66 3d
       0.00803047 0.03399215 -0.08733824 0.05620897
0003d0 2e be c6 3d 07 bb 79 3d dd 07 25 3d 0e 15 bf ba
       0.09704243 0.06096938 0.040290702 -0.0014578418
0003e0 68 03 c2 3d 50 4e 09 3d 98 36 ed bb f5 b8 9b bd
       0.09473306 0.03352195 -0.007239174 -0.07603637
0003f0 d5 0b 75 3d 56 80 83 bd fd 6d 1b 3d 33 84 2d 3d
       0.059825737 -0.064209625 0.03794669 0.042362403

fc4.bias f4 [64]
000000 f1 bb 5e bd 34 70 5b bd ce 2e 40 bd 2f 8d b7 bb
       -0.054378454 -0.053573802 -0.046919636 -0.005601547
000010 74 08 9e bd ff e5 85 bd 5d 03 85 bd 68 ac 84 3d
       -0.07716456 -0.06538009 -0.06494782 0.064781964
000020 15 d2 a4 bd ef 0e d1 3d 2e 2a 37 bd ea 1f a4 bd
       -0.080478825 0.102079265 -0.04471796 -0.080138996
000030 85 67 1d bd f1 fa 03 3d 6e 4c 6f bc 93 e8 49 bd
       -0.038428802 0.03222174 -0.014605625 -0.049294066
000040 b2 83 82 bd 1c 6b c9 3d f4 5c 8c 3d 97 bd f4 3c
       -0.06372775 0.098348826 0.06853667 0.02987556
000050 52 08 3a bd 1c db 22 bd 88 65 a1 3d 9a 56 32 3c
       -0.04541809 -0.03975974 0.07880694 0.010884905
000060 0f 90 47 bd 47 9e 20 3d 6f b3 7b 3d 0f ad 0c 3d
       -0.04872137 0.039213445 0.061450418 0.03434473
000070 bc b6 26 3c 84 d1 9a 3c a1 30 8d bc 79 c3 b7 bd
       0.010175403 0.018898733 -0.017235102 -0.0897283
000080 cb 87 8d bd a6 c0 91 bc 2f cb 62 3d c7 1d 36 3d
       -0.06910666 -0.017792057 0.055369552 0.04446199
000090 8f 57 8d bd 48 35 e0 bc 78 1f c3 3c 86 2e 07 3c
       -0.06901466 -0.027369156 0.023818716 0.008250838
0000a0 d6 f9 87 bd 55 b7 2e 3b 38 f3 a3 bd 2d ff d3 3d
       -0.06639449 0.0026659567 -0.08005375 0.10351405
0000b0 ba 3c 12 bd 44 62 6f bd 0b 25 64 bc 19 30 ab bd
       -0.035702445 -0.058443323 -0.013924847 -0.08358783
0000c0 52 44 7f 3d 6c b2 97 3c d3 3d 32 bc c0 de 12 bd
       0.062321015 0.018517695 -0.010878998 -0.035856962
0000d0 3c 0a 1b bc 18 f7 77 bd b5 63 5f bd 6e 82 b7 3c
       -0.009462889 -0.06053838 -0.054538447 0.02240106
0000e0 30 a5 f9 3c 2a a3 91 bd df 3a 79 bd 77 27 78 3d
       0.030474275 -0.07111199 -0.06084716 0.06058451
0000f0 c5 47 88 bd fc ad 94 bd 8c c8 20 3d a9 b3 50 3d
       -0.06654314 -0.072597474 0.039253756 0.050952587

fc5.weight f4 [1, 64]
000000 d3 37 88 bd b2 ae 9a 3d b8 e0 11 be 3c 95 8d bd
       -0.066512726 0.07552852 -0.1424588 -0.0691323
000010 b4 5b 8e 3d c9 7d cd bd 86 fc 00 bd 8b e9 7d bd
       0.06951085 -0.10033757 -0.031490825 -0.061990302
000020 1b 86 86 3d dd e2 1e 3e e2 7a 04 3e 65 b1 9b 3c
       0.06568547 0.15516229 0.12937501 0.019005487
000030 b5 f5 a9 bd 90 17 ad 3d 38 36 d8 3d da c6 d7 bd
       -0.08298818 0.0845176 0.105572164 -0.10535975
000040 68 5e b1 bd db ae 03 3e 08 fd eb bd 3c d1 b6 bd
       -0.08660585 0.12859671 -0.11522871 -0.08926627
000050 3a 5a 6a 3d 76 09 25 3d 3c 76 40 3d 83 92 a8 3d
       0.057214953 0.040292226 0.046987757 0.0823107
000060 85 8b 83 bb aa 33 09 3e b2 71 3d bd 00 7f f6 bd
       -0.0040144348 0.13398615 -0.046251006 -0.12035942
000070 c2 40 19 3d c0 34 84 bd 7b 30 03 3e 62 1e c3 bd
       0.037415273 -0.06455374 0.12811463 -0.095272794
000080 b4 7e 0e 3e 1f a5 3e bd b3 85 03 3e fe 4b 96 bd
       0.13915521 -0.04654419 0.12843971 -0.07338713
000090 9b 84 09 be 5f f3 d8 bd 56 7c 80 3d 8c da fd bd
       -0.13429491 -0.10593294 0.06273715 -0.123952
0000a0 ff cd e6 bd 67 ea c6 bd 05 cc 02 be 38 7c 1e 3d
       -0.112697594 -0.097126774 -0.1277314 0.038692683
0000b0 56 17 a3 3d 72 25 23 3d 84 d5 45 3d 7a 30 d0 3d
       0.07963435 0.039830633 0.048299327 0.10165496
0000c0 5e ad c9 bd af 36 32 bd fd 08 0e 3e 24 3f 91 bd
       -0.0984752 -0.04350918 0.13870616 -0.07092121
0000d0 0a 80 d9 3d 92 43 11 be 00 8d 33 3d bd 64 b0 3d
       0.10620125 -0.14185932 0.04383564 0.08612964
0000e0 ac 2d ab 3d 3c 11 8c 3c cf d6 0d be f5 8b 83 bd
       0.083583206 0.017098062 -0.13851474 -0.06423179
0000f0 ad 7b 10 be c1 07 f3 bc 0e 9b f1 3d dd 7d b8 3d
       -0.14109679 -0.029666783 0.117971525 0.090083815
