best_model.pth (torch, 711979 bytes, 9 tensors)

fc1.weight f4 [512, 8]
0.33064944 -0.1714016 0.08036697 0.16420121 0.14998274 0.23184447 0.17539535 0.12891833
0.18705201 0.15037866 0.2290437 -0.22510034 -0.2208526 -0.086901166 0.27293673 0.34452617
-0.30043668 -0.050011992 -0.3496288 0.0018245876 0.25472447 0.059726983 -0.3135789 0.28803518
0.25255346 -0.16962615 0.32580706 0.15091525 -0.30207145 -0.024469104 0.18433814 0.19896753
-0.0119987745 -0.3494634 -0.19782601 -0.100416884 0.15614209 -0.30262235 0.18270701 -0.29622948
0.18604115 -0.27969095 -0.042718023 0.20177224 0.027668983 0.056027055 -0.09475687 -0.13889788
0.25399446 0.34572026 0.00026462553 0.2805536 0.16552512 -0.19607374 0.24560863 -0.14273466
-0.059887927 0.08127033 0.12922584 -0.0399188 0.07930091 -0.06274274 0.12024396 0.04605416
-0.32132953 0.23644927 0.20688674 0.1748949 0.046802104 -0.21141541 -0.2610044 -0.15099917
-0.34307724 -0.21845125 0.31342146 -0.2855605 0.10715896 0.06300405 -0.12973474 -0.31167644
0.15536186 -0.068633646 -0.29979968 -0.2521723 -0.34353456 -0.14031756 0.07431859 0.33483866
-0.21880405 -0.2997585 0.32222533 -0.10638588 0.0002757799 -0.26393548 0.15372747 -0.31960297
-0.03608504 -0.09678175 -0.1797054 -0.04100136 -0.045597922 0.28486156 -0.19224036 -0.07499701
-0.0247249 0.051141832 0.028964717 0.26960686 0.13218243 -0.13180345 -0.28112984 0.177263
0.33689716 0.28871024 -0.24360321 0.28586337 -0.14942278 -0.08421669 0.15405041 0.3095865
0.25710812 0.061141793 -0.15121023 -0.047773764 -0.09819962 0.19950181 0.033072975 -0.32566798
-0.0020664837 0.20010427 -0.050455295 0.07400014 0.21822228 0.21469253 0.14041628 -0.06426163
-0.08290029 0.022543136 0.20048258 -0.35174945 0.27523324 0.016650863 0.11575838 -0.3040443
-0.34049287 -0.15666084 -0.092876315 0.18331467 -0.017644534 0.06778343 0.20132044 0.2254105
0.24817127 0.24287972 0.33265027 -0.15298055 0.32219255 0.30163175 0.29342064 0.3183708
0.04340181 0.33368027 -0.0987824 -0.18250658 0.13533609 -0.15925042 0.26365688 0.042080924
0.23968872 -0.16752815 0.114240445 0.039242834 0.0082907425 0.032848325 0.32881838 -0.2544148
-0.27942428 -0.15674855 -0.058274537 -0.2133492 -0.091279 -0.07406846 0.14182815 0.32212976
0.18850431 -0.125742 -0.10532232 -0.20280528 0.099083334 0.21033993 -0.310465 -0.16746767
0.087151065 -0.022892386 0.30875704 0.11860713 0.19319947 -0.2927441 -0.2302937 -0.27480808
0.1114254 0.037655145 -0.15990552 -0.3434589 -0.110546425 -0.25328055 0.026446551 -0.2583515
0.24344191 -0.08475801 0.10604185 0.33757022 -0.122950524 -0.33731097 -0.03540069 -0.007970512
0.2838309 0.33893245 0.01918711 0.07474657 -0.08614924 -0.032541577 0.27738422 -0.008270741
0.00641042 0.022580981 -0.08936295 0.044225603 -0.12068291 0.099731326 0.08150712 -0.19699335
0.033574205 -0.020888431 0.023717072 -0.30436504 -0.014840996 -0.18464825 -0.28881216 0.2648312
0.29734477 -0.32644102 -0.009946758 0.3194357 0.077535674 0.12521757 -0.27227667 -0.26199132
0.28201988 0.25767443 0.06846938 -0.031826697 0.18551008 0.3331167 0.28595874 -0.14224686
00000000: e24a a93e e783 2fbe 7097 a43d 5d24 283e
00000010: 1395 193e a368 6d3e d79a 333e 2b03 043e
00000020: 908a 3f3e ddfc 193e 6f8a 6a3e b480 66be
00000030: 2f27 62be 3df9 b1bd 5dbe 8b3e bc65 b03e
00000040: d6d2 99be 60d9 4cbd 8c02 b3be 0027 ef3a
00000050: 3f6b 823e 48a4 743d 6a8d a0be 5979 933e
00000060: b04e 813e 7ab2 2dbe 2fd0 a63e 8789 1a3e
00000070: 1ca9 9abe 6e73 c8bc 23c3 3c3e 25be 4b3e
00000080: 8296 44bc deec b2be e792 4abe 5ea7 cdbd
00000090: b6e3 1f3e 51f1 9abe 8c17 3b3e 64ab 97be
000000a0: 9281 3e3e a733 8fbe 18f9 2ebd 629d 4e3e
000000b0: 10aa e23c a07c 653d e40f c2bd 3f3b 0ebe
000000c0: 900b 823e 3f02 b13e 70bd 8a39 b9a4 8f3e
000000d0: 6b7f 293e 8ec7 48be d480 7b3e 0929 12be
000000e0: 0b4d 75bd 0f71 a63d c753 043e e581 23bd
000000f0: 8468 a23d 447f 80bd 7742 f63d 49a3 3c3d
00000100: 4e85 a4be c21f 723e 1eda 533e a617 333e
00000110: 90b3 3f3d 487d 58be 5ea2 85be 879f 1abe
00000120: d2a7 afbe afb1 5fbe c778 a03e fc34 92be
00000130: 2876 db3d 4408 813d 2fd9 04be 0e94 9fbe
00000140: 2e17 1f3e cc8f 8cbd 587f 99be ba1c 81be
00000150: c3e3 afbe 68af 0fbe 5834 983d f96f ab3e
00000160: 2b0e 60be f279 99be b8fa a43e d7e0 d9bd
00000170: 8d96 9039 8d22 87be bc6a 1d3e 00a3 a3be
00000180: e8cd 13bd 8335 c6bd b104 38be 0bf1 27bd
00000190: e3c4 3abd 60d9 913e a8da 44be 0898 99bd
000001a0: e08b cabc 197a 513d 6a47 ed3c e909 8a3e
000001b0: d55a 073e 7cf7 06be 40f0 8fbe 6f84 353e
000001c0: c97d ac3e d4d1 933e 1f73 79be af5c 923e
000001d0: 4902 19be cd79 acbd 64bf 1d3e 1f82 9e3e
000001e0: ada3 833e d16f 7a3d dbd6 1abe 6cae 43bd
000001f0: e21c c9bd 344a 4c3e 8777 073d f4bd a6be
00000200: d86d 07bb 22e8 4c3e 36aa 4ebd 638d 973d
00000210: a975 5f3e 5cd8 5b3e 49c9 0f3e 9a9b 83bd
00000220: a1c7 a9bd 62ac b83c 4e4b 4d3e 8118 b4be
00000230: 5feb 8c3e 6467 883c bb12 ed3d b2ab 9bbe
00000240: 1555 aebe b36b 20be f035 bebd d7b6 3b3e
00000250: 458b 90bc 0ad2 8a3d f226 4e3e 03d2 663e
00000260: 9c20 7e3e 76b5 783e 2351 aa3e efa6 1cbe
00000270: 6cf6 a43e 7a6f 9a3e 3b3b 963e 7f01 a33e
00000280: 19c6 313d 24d8 aa3e 6d4e cabd 01e3 3abe
00000290: 8b95 0a3e 8b12 23be 09fe 863e 0c5d 2c3d
000002a0: f670 753e 808c 2bbe e5f6 e93d 18bd 203d
000002b0: e5d5 073c f78b 063d e25a a83e a842 82be
000002c0: b310 8fbe b182 20be 48b1 6ebd 3678 5abe
000002d0: 7cf0 babd 34b1 97bd 663b 113e 31ee a43e
000002e0: 4607 413e 83c2 00be 3ab3 d7bd 30ac 4fbe
000002f0: 34ec ca3d 5a63 573e 45f5 9ebe a57c 2bbe
00000300: 427c b23d d088 bbbc 6715 9e3e 4ce8 f23d
00000310: 15d6 453e 8ee2 95be 1dd2 6bbe a5b3 8cbe
00000320: 0033 e43d 483c 1a3d 46be 23be d8d9 afbe
00000330: 2a66 e2bd fdad 81be 70a6 d83c a646 84be
00000340: d648 793e 9c95 adbd 782c d93d 01d6 ac3e
00000350: 7ccd fbbd 06b4 acbe 5000 11bd c096 02bc
00000360: 4952 913e 8e88 ad3e 492e 9d3c bb14 993d
00000370: 036f b0bd 514a 05bd 4e05 8e3e 0182 07bc
00000380: 800e d23b c0fb b83c ec03 b7bd e825 353d
00000390: 9a28 f7bd f03f cc3d 34ed a63d a0b8 49be
000003a0: 1b85 093d 371e abbc 4e4a c23c bcd5 9bbe
000003b0: a627 73bc 6e14 3dbe 30df 93be f497 873e
000003c0: 933d 983e 4723 a7be baf7 22bc 138d a33e
000003d0: 06cb 9e3d 0939 003e d967 8bbe ba23 86be
000003e0: e964 903e e7ed 833e ad39 8c3d b65c 02bd
000003f0: 5bf6 3d3e 468e aa3e 2f69 923e 29a9 11be

fc1.bias f4 [512]
-0.30425075 0.2066452 -0.26603937 0.19064471 0.15245062 -0.22315457 0.31789947 -0.17023827
-0.3016107 -0.25302944 -0.35188296 0.33004773 -0.04738778 -0.22424223 0.11593659 0.19654988
-0.0016836089 0.2537369 -0.058097277 -0.27469784 -0.09829206 0.30732322 -0.28770357 -0.13299851
-0.12386146 -0.26265216 -0.17391428 -0.20393713 -0.24549556 0.08196964 0.10604851 0.20403965
0.03665532 0.18630965 -0.12201141 -0.05187751 0.2732545 -0.18579406 0.054388534 0.3313679
-0.28929162 0.049534887 -0.29863518 0.28184098 0.13340901 -0.08786727 -0.18241666 0.2942294
-0.16866018 0.11610207 -0.105831124 -0.0571993 -0.021304648 0.33770043 -0.037730075 -0.1620665
0.13959697 0.09322643 0.013687114 -0.028995268 -0.2901529 -0.094894975 -0.022598421 0.14775996
0.043299727 0.21610291 -0.09186052 0.17999734 -0.018805794 -0.26015484 -0.12711358 0.21432602
-0.27578428 0.017285028 -0.3138178 -0.28381994 -0.184126 0.2168314 0.3192191 -0.051552773
0.024149835 0.32404715 0.11228362 -0.021150116 0.16567484 -0.3376066 0.2667146 0.14878914
-0.33817172 -0.27371132 -0.2339093 0.15068965 -0.13873284 -0.25381368 -0.15691414 0.33609712
-0.2708966 -0.15909326 0.30758315 -0.113485545 -0.08804093 0.049260654 -0.27736056 -0.33671084
0.30303544 0.2854835 0.13234226 0.09236758 0.07663518 -0.33080086 0.12163681 -0.29601556
-0.19867189 0.26960534 -0.3482692 -0.252964 -0.1558748 -0.028184354 0.3425001 -0.098241
-0.04681334 -0.099209666 0.008009201 0.33234543 0.32311785 -0.25040495 0.16781385 -0.21555023
0.05485032 -0.08013442 -0.122460045 -0.2060009 -0.009617537 -0.01795673 -0.3523423 -0.29773107
0.011516077 -0.20491637 0.10822705 -0.04722646 0.05794254 0.14838444 0.2476227 0.23211122
0.23073854 -0.06477904 -0.109078944 0.11939355 -0.18283476 -0.05651331 -0.2526139 0.0076192985
0.12419826 -0.057323158 0.06001016 -0.2592206 0.24176298 0.078115344 -0.23160288 0.119502366
-0.16691239 -0.29333538 -0.13483256 -0.099520415 -0.07095034 0.11970182 0.18073376 0.19089714
0.18421672 0.08899521 0.22529343 -0.024711877 0.10180592 0.2511315 0.06809092 -0.119906396
0.23217304 -0.2958721 0.08890634 -0.13039488 -0.2738933 -0.33945042 -0.080053166 -0.13794705
0.118843555 0.1239573 0.23725386 -0.008543603 0.15739624 0.011339171 -0.005971945 -0.2688275
-0.10823418 0.13986191 -0.18332821 -0.1923604 -0.2621594 0.10492649 -0.267889 0.06957211
-0.020703444 -0.3064102 -0.09203717 0.07792944 0.059239876 0.33233237 -0.2661693 -0.2603634
-0.16962177 -0.16109338 -0.0912601 0.23084378 -0.18674666 -0.33222273 -0.24714279 -0.18212868
-0.010057905 -0.04575941 0.24553406 0.11239958 0.1971802 0.089549445 0.12454122 0.2949931
-0.103562005 0.16422497 0.14942005 0.16596942 0.060655713 -0.11652445 -0.15973347 -0.17053846
0.2356072 -0.12287369 0.34975561 -0.13500601 0.28496462 0.31292924 0.20456214 0.289075
-0.34540403 -0.29923123 -0.08594525 0.11720228 -0.24371353 0.1537089 -0.21265942 0.030777473
-0.0015702248 -0.1704529 0.14079194 0.16918795 -0.3531254 0.123087145 -0.32815132 -0.19113505
00000000: c1c6 9bbe cd9a 533e 5036 88be 5e38 433e
00000010: 041c 1c3e a282 64be b8c3 a23e f152 2ebe
00000020: b86c 9abe 138d 81be 012a b4be 04fc a83e
00000030: b019 42bd c19f 65be 2a70 ed3d 5f44 493e
00000040: 8aac dcba cee9 813e 69f7 6dbd 32a5 8cbe
00000050: 594d c9bd 7859 9d3e e24d 93be c330 08be
00000060: 14ab fdbd 587a 86be 9616 32be e5d4 50be
00000070: 3063 7bbe b3df a73d f62f d93d c5ef 503e
00000080: e423 163d f5c7 3e3e 1ee1 f9bd 837d 54bd
00000090: 04e8 8b3e cc40 3ebe 83c6 5e3d 0ea9 a93e
000000a0: 081e 94be 18e5 4a3d b6e6 98be 764d 903e
000000b0: 5f9c 083e c1f3 b3bd 6fcb 3abe 3ca5 963e
000000c0: 41b5 2cbe ecc6 ed3d fdbd d8bd d049 6abd
000000d0: 1687 aebc 12e7 ac3e da8a 1abd c3f4 25be
000000e0: 82f2 0e3e 80ed be3d eb3f 603c 7c87 edbc
000000f0: ec8e 94be 4c58 c2bd 5320 b9bc 634e 173e
00000100: 0e5b 313d 154a 5d3e 5e21 bcbd 3951 383e
00000110: 9c0e 9abc 0433 85be 102a 02be 4878 5b3e
00000120: 9933 8dbe 5599 8d3c baac a0be d950 91be
00000130: 878b 3cbe 0d09 5e3e b070 a33e 0029 53bd
00000140: e0d5 c53c 82e9 a53e f4f4 e53d 0243 adbc
00000150: aaa6 293e c6da acbe d18e 883e 2e5c 183e
00000160: d824 adbe e423 8cbe eb85 6fbe 634e 1a3e
00000170: fb0f 0ebe def3 81be 1aae 20be ec14 ac3e
00000180: f6b2 8abe 58e9 22be 8a7b 9d3e 1c6b e8bd
00000190: ce4e b4bd 8ac5 493d 3402 8ebe 5d65 acbe
000001a0: 7627 9b3e e52a 923e bb84 073e 372b bd3d
000001b0: e8f2 9c3d bb5e a9be b81c f93d 5a8f 97be
000001c0: a570 4bbe b609 8a3e 5750 b2be 7f84 81be
000001d0: a59d 1fbe e0e2 e6bc 2c5c af3e 9432 c9bd
000001e0: 58bf 3fbd 702e cbbd 0639 033c 2e29 aa3e
000001f0: b46f a53e 1435 80be 65d7 2b3e 33b9 5cbe
00000200: bbaa 603d 841d a4bd 55cc fabd e6f1 52be
00000210: e092 1dbc fe19 93bc 3666 b4be 3570 98be
00000220: eead 3c3c 99d5 51be 25a6 dd3d 8870 41bd
00000230: 2855 6d3d 17f2 173e ce90 7d3e 90ae 6d3e
00000240: b946 6c3e e0aa 84bd c864 dfbd 9b84 f43d
00000250: 0939 3bbe 807a 67bd 9c56 81be 4fab f93b
00000260: a85b fe3d b0cb 6abd 37cd 753d 90b8 84be
00000270: b790 773e f0fa 9f3d 4e29 6dbe a8bd f43d
00000280: 15eb 2abe 0e30 96be 8c11 0abe 5cd1 cbbd
00000290: 694e 91bd 3a26 f53d 4512 393e 8a7a 433e
000002a0: 4fa3 3c3e 1f43 b63d 52b3 663e 9070 cabc
000002b0: 9f7f d03d 4f94 803e 4173 8b3d 7c91 f5bd
000002c0: c5be 6d3e 8c7c 97be 8714 b63d 3c86 05be
000002d0: be3b 8cbe 72cc adbe eaf2 a3bd fe41 0dbe
000002e0: 4064 f33d 53dd fd3d adf2 723e 78fa 0bbc
000002f0: 7b2c 213e eec7 393c 4eb0 c3bb c2a3 89be
00000300: e2a9 ddbd f637 0f3e 64ba 3bbe 20fa 44be
00000310: c239 86be b3e3 d63d bf28 89be d37b 8e3d
00000320: 459a a9bc cce1 9cbe fc7d bcbd 7899 9f3d
00000330: 83a5 723d 7827 aa3e 5847 88be 5a4e 85be
00000340: 54b1 2dbe aaf5 24be 93e6 babd 5062 6c3e
00000350: 843a 3fbe 1919 aabe 0013 7dbe f17f 3abe
00000360: e9c9 24bc 386e 3bbd 486d 7b3e c031 e63d
00000370: 9be9 493e b365 b73d 780f ff3d 5609 973e
00000380: 5118 d4bd 972a 283e 9201 193e e3f3 293e
00000390: 2072 783d 5fa4 eebd 2c91 23be a2a1 2ebe
000003a0: 0443 713e 34a5 fbbd 2b13 b33e 043f 0abe
000003b0: e2e6 913e 4338 a03e bd78 513e a301 943e
000003c0: ccd8 b0be d634 99be 1004 b0bd c007 f03d
000003d0: 0a90 79be de65 1d3e 64c3 59be 0a21 fc3c
000003e0: 00d0 cdba 348b 2ebe c32b 103e 9b3f 2d3e
000003f0: dacc b4be 1d15 fc3d 7303 a8be e8b8 43be

fc2.weight f4 [256, 512]
-0.0062450273 0.00564457 0.01888739 -0.01695655 0.0006669797 -0.00041219965 0.003302246 0.044036288
-0.0131584145 -0.013953382 0.032456655 -0.04042227 -0.03784961 0.007414684 -0.039244387 -0.024833115
0.02376781 0.035007026 -0.043151703 0.044036873 0.024357177 -0.028318025 -0.035026155 -0.03496334
-0.011117715 0.042346988 0.0013939664 -0.02099725 -0.01517964 0.03784781 0.027394714 0.043367606
0.041314665 0.0071099447 -0.043473363 0.030878358 0.01098406 0.030578602 0.042925373 -0.036337305
0.00078191236 0.02636201 0.024730723 -0.04048727 -0.04302773 0.03920008 -0.032702908 -0.033508807
-0.032180015 -0.027884703 0.014998198 -0.025335787 0.021115232 0.029001754 -0.009796148 -0.027818592
-0.018598674 -0.015873771 -0.04069303 0.028366005 0.0069409236 0.043687623 -0.025020821 0.01474879
0.033902034 -0.005854205 -0.006577699 -0.003435204 0.0005144428 -0.037041448 -0.0012915358 0.015998786
0.008902047 0.01785438 -0.03730023 -0.021724239 -0.03270423 0.041214902 -0.029418092 -0.011861324
0.021472557 0.0053246333 -0.026409892 -0.026273986 0.038564112 0.033054594 -0.016593063 -0.018636087
-0.010214277 -0.00307763 0.038347524 -0.006511297 -0.011793446 -0.0154392645 -0.03610591 -0.02575627
0.0007671304 -0.038420483 0.023822466 0.026031328 -0.0025293443 0.028045326 -0.021062119 -0.008902799
0.014958573 -0.029013366 1.9905103e-05 -0.035626322 0.008683085 0.017692056 -0.0242343 0.011390854
0.04156282 -0.01848308 -0.04351094 0.037132178 -0.030149821 0.013966169 -0.014422178 -0.0028718635
0.012128208 0.030037772 -0.040023178 0.025210898 0.02771046 0.0404781 -0.035466414 0.042838532
-0.01528366 -0.03074409 0.0054060062 -0.010612629 -0.027330212 0.003721794 -0.017416015 0.020303655
0.030974973 -0.01632602 0.039150022 0.004194703 -0.030305846 -0.013106216 0.040386815 0.00069237186
-0.036683045 0.011215512 0.027365733 -0.032575995 -0.026844654 0.01855762 -0.028227378 0.021528877
0.018693972 0.029963423 -0.0333407 -0.0288849 0.030494312 -0.011852132 0.042576533 0.030901238
0.03135037 0.034171198 0.032940708 -0.014203904 0.02592877 0.016672067 -0.02017602 -0.023376536
0.026792021 0.03154302 0.00481613 -0.0014672019 0.03549445 0.04052904 0.016850473 0.034953047
0.018805793 -0.027108457 0.034127496 -0.0058594113 -0.0050583445 -0.0010223016 0.012630515 -0.0048267096
-0.03218892 -0.027795147 0.0110892095 0.0072491737 0.010140353 -0.032395646 0.011092127 -0.006532062
0.02733467 -0.009885999 -0.04251066 0.0071359836 0.01535074 -0.029216602 -0.0020980015 0.027741848
-0.0002891271 0.018302679 -0.032167234 -0.03683494 -0.0003228565 0.04368849 0.020905513 -0.042286858
0.011803515 0.005838044 0.008394345 0.011120075 0.026364608 -0.041540127 -0.008194711 -0.0407285
-0.027741361 0.021242369 -0.012108733 0.03175347 -0.0020353384 -0.008728089 -0.02452394 0.038469013
-0.029098146 -0.036825716 0.018709507 -0.0385998 0.0352708 -0.019612778 0.04396599 -0.020513285
-0.020923873 -0.005191691 -0.01877067 -0.012248334 -0.042553563 0.038969032 0.013594061 0.016400592
0.00861866 -0.012246355 -0.016722104 -0.022514118 0.030817825 0.037649732 -0.013631528 -0.019185763
-0.0036131963 0.043509003 -0.029213935 0.004433159 0.037247453 0.019539343 -0.030608654 0.039657716
00000000: 16a3 ccbb 16f6 b83b bab9 9a3c 76e8 8abc
00000010: 40d8 2e3a 801c d8b9 7f6a 583b 655f 343d
00000020: 6496 57bc ba9c 64bc 45f1 043d d291 25bd
00000030: 3108 1bbd e1f6 f23b b9be 20bd d16e cbbc
00000040: b6b4 c23c 8763 0f3d d7bf 30bd 0260 343d
00000050: b488 c73c 34fb e7bc 9677 0fbd b835 0fbd
00000060: 1427 36bc 0974 2d3d c0b5 b63a 6d02 acbc
00000070: 06b4 78bc 4e06 1b3d e16a e03c 3ba2 313d
00000080: 9139 293d 8afa e83b 2011 32bd 9cf4 fc3c
00000090: 7df6 333c fa7f fa3c 84d2 2f3d 6dd6 14bd
000000a0: 40f9 4c3a 24f5 d73c 1698 ca3c fbd5 25bd
000000b0: d83d 30bd 4390 203d 7cf3 05bd 8840 09bd
000000c0: 31cf 03bd 766e e4bc 00bb 753c ff8c cfbc
000000d0: daf9 ac3c 1695 ed3c 0680 20bc d1e3 e3bc
000000e0: 3f5c 98bc b609 82bc bcad 26bd d35f e83c
000000f0: b070 e33b cbf1 323d 77f8 ccbc e9a4 713c
00000100: dcdc 0a3d a2d4 bfbb bd89 d7bb 2921 61bb
00000110: acdb 063a c6b8 17bd c048 a9ba e30f 833c
00000120: e4d9 113c 5943 923c 20c8 18bd 08f7 b1bc
00000130: dff4 05bd f5d0 283d 36fe f0bc 0056 42bc
00000140: 37e7 af3c 437a ae3b 8f59 d8bc 8b3c d7bc
00000150: 67f5 1d3d 4164 073d 2dee 87bc b5aa 98bc
00000160: c859 27bc 10b2 49bb 4b12 1d3d b85c d5bb
00000170: 4c39 41bc f8f4 7cbc cae3 13bd d0fe d2bc
00000180: 4019 493a cc5e 1dbd 5527 c33c a73f d53c
00000190: 5bc3 25bb 50bf e53c 778a acbc 0cdd 11bc
000001a0: cd14 753c 70ad edbc e2f9 a637 e8ec 11bd
000001b0: 8043 0e3c eeee 903c 0387 c6bc b4a0 3a3c
000001c0: c73d 2a3d d469 97bc 8738 32bd e917 183d
000001d0: c2fc f6bc 5cd2 643c 004b 6cbc e035 3cbb
000001e0: 64b5 463c c611 f63c 58ef 23bd 1687 ce3c
000001f0: 0c01 e33c 5dcc 253d 3b45 11bd 7577 2f3d
00000200: 5168 7abc 08db fbbc de24 b13b 98e0 2dbc
00000210: 9ce3 dfbc 58e9 733b 08ac 8ebc da53 a63c
00000220: 3abf fd3c 25be 85bc c65b 203d b873 893b
00000230: f743 f8bc 74bb 56bc a56c 253d 4a80 353a
00000240: f640 16bd 44c1 373c 1a2e e03c 686e 05bd
00000250: 52e9 dbbc 2606 983c 1a3d e7bc 545d b03c
00000260: 1a24 993c da75 f53c 4290 08bd 07a0 ecbc
00000270: 35cf f93c 722f 42bc bb64 2e3d 9824 fd3c
00000280: 3f69 003d 19f7 0b3d d6ec 063d 7eb7 68bc
00000290: 9268 d43c dc93 883c 2e48 a5bc 2680 bfbc
000002a0: f17a db3c 4133 013d a0d0 9d3b 204f c0ba
000002b0: a162 113d c701 263d 010a 8a3c ed2a 0f3d
000002c0: 9b0e 9a3c 8e12 debc 46c9 0b3d 4e00 c0bb
000002d0: 78c0 a5bb c0fe 85ba 38f0 4e3c 6029 9ebb
000002e0: 87d8 03bd a6b2 e3bc 84af 353c 7a8a ed3b
000002f0: b923 263c 4cb1 04bd c1bb 353c e80a d6bb
00000300: f5ec df3c e3f8 21bc a81f 2ebd f8d4 e93b
00000310: ac81 7b3c a857 efbc a07e 09bb df42 e33c
00000320: fc95 97b9 80ef 953c cac1 03bd 3ce0 16bd
00000330: 1145 a9b9 b4f2 323d 0a42 ab3c fc34 2dbd
00000340: 8863 413c 104d bf3b 6f88 093c fa30 363c
00000350: 97fa d73c fb25 2abd 1c43 06bc edd2 26bd
00000360: da41 e3bc 7a04 ae3c b563 46bc ed0f 023d
00000370: 5063 05bb 4200 0fbc 6ee6 c8bc af91 1d3d
00000380: 3c5f eebc 90d6 16bd ae44 993c d31a 1ebd
00000390: 1d78 103d faaa a0bc af15 343d 7a0b a8bc
000003a0: 8b68 abbc 101f aabb f3c4 99bc 3cad 48bc
000003b0: a54c 2ebd fe9d 1f3d a0b9 5e3c 895a 863c
000003c0: 4835 0d3c f0a4 48bc cbfc 88bc 876f b8bc
000003d0: aa75 fc3c 9b36 1a3d c656 5fbc 762b 9dbc
000003e0: 60cb 6cbb 7f36 323d 1052 efbc 0844 913b
000003f0: c990 183d f910 a03c 00bf fabc 2170 223d

fc2.bias f4 [256]
-0.007473468 0.031402715 -0.038700145 -0.021961115 -0.012958117 0.0553133 0.0022568896 0.01465671
-0.027614564 0.030544262 -0.0405294 -0.011129325 -0.0384052 -0.00761744 0.04126653 -0.035354648
0.016022705 -0.0077119377 0.027107723 0.007534004 -0.025629267 0.0034209825 0.031718 -0.020056495
-0.023990212 0.022699177 -0.016503358 -0.037931487 0.008151583 0.007751073 -0.033239186 -0.032669958
-0.03928131 -0.024925685 0.022737116 0.00084953464 0.021507565 -0.02135623 -0.017003769 0.03389388
-0.022882316 0.032081164 -0.014357781 -0.043125376 0.043947745 -0.017698117 -0.003049278 -0.02237116
-0.017203419 0.02124393 -0.02203188 -0.023080826 0.042238664 -0.0024790324 -0.039210495 0.0045472533
0.019149391 0.024620598 -0.02906347 0.02890452 0.012081256 -0.044996623 0.018554784 0.02830179
-0.03411355 0.013026471 -0.026427643 0.020931244 -0.02870125 0.03597176 -0.04683283 -0.025159283
-0.002321178 0.047489334 0.024425602 -0.040392056 -0.02161908 -0.045265365 0.034303423 0.048047062
-0.001316154 -0.012317545 0.018007865 -0.03465662 0.04233876 -0.04859579 0.02079729 0.027880235
0.031342123 0.026919339 -0.034593903 0.0012295758 0.036853567 0.022939822 -0.038623318 -0.01968399
0.040528953 -0.004367674 -0.02843277 -0.0434844 -0.006041998 -0.04441498 0.03965442 0.031963408
-0.03281075 -0.021603879 -0.03367418 0.016784158 -0.014442948 0.030080516 -0.000103686005 0.027950058
0.012797195 0.028345373 -0.028417267 -0.04167928 0.046431165 0.047069866 -0.022730254 0.0049179513
0.025664061 -0.013038848 -0.0412308 -0.039011106 0.0168847 0.031074077 0.024961956 0.026054332
-0.03323908 0.006648998 0.034572672 -0.01897124 0.008445126 -0.037819147 0.015367942 -0.028048595
-0.010294829 0.0049002804 0.01262342 -0.035161406 -0.036761846 0.021592012 0.011104472 -0.044310667
0.035384633 0.02608123 -0.041493542 -0.0047644 0.026560184 -0.027933422 0.04063459 -0.004380556
0.039034575 -0.04303292 -0.016855933 -0.02218444 -0.015170623 -0.03844685 -0.042765725 -0.043216236
0.047570977 -0.022231888 0.0031682062 -0.02056286 0.04373369 -0.042104125 -0.046879467 0.0013681985
0.0053051934 -0.01073093 0.04606745 0.013679784 0.005976007 0.00034786877 -0.010201047 0.013282528
0.01000428 -0.014528499 0.039244514 -0.016465874 0.011457478 0.034619164 -0.03450592 -0.040374056
-0.00688238 0.02834825 0.011646504 0.012537504 -0.022898471 -0.02859053 -0.025912274 0.012651373
-0.0192689 -0.011149813 0.033004127 -0.02791914 -0.0115127005 -0.022630764 0.014019865 0.010078855
0.036697276 -0.043805152 -0.010713079 0.037823595 0.0017391038 -0.011271477 0.016457792 -0.03635758
-0.0049014576 0.03423888 -0.03503678 0.031513575 0.02313637 0.026366148 -0.019331807 -0.025761658
-0.021598065 -0.018844884 -0.028656738 -0.012414098 -0.034425683 0.032787316 0.024634462 -0.0464359
-0.04140298 -0.01916398 -0.035977475 -0.02261349 0.00091972377 -0.01532918 0.0047012265 -0.01362297
-0.023262268 0.008438315 0.031494554 -0.04347523 -0.034219094 0.0124242585 -0.031279374 -0.02981492
0.0014551958 0.015773254 0.0039723995 0.021332955 -0.042832788 -0.0436123 0.016687296 -0.003933803
-0.019551063 -0.014505032 0.013536802 -0.026376963 0.026737072 0.008945798 -0.02661989 0.022607032
00000000: fee3 f4bb 22a0 003d 0b84 1ebd cce7 b3bc
00000010: 484e 54bc 3390 623d 53e8 133b b322 703c
00000020: f037 e2bc f637 fa3c 2802 26bd c657 36bc
00000030: c54e 1dbd b89b f9bb 1807 293d 09d0 10bd
00000040: 0c42 833c 6cb4 fcbb 0411 de3c cedf f63b
00000050: 78f4 d1bc 9032 603b bcea 013d 854d a4bc
00000060: 1f87 c4bc a0f3 b93c 0d32 87bc 0c5e 1bbd
00000070: 388e 053c b7fc fd3b d025 08bd efd0 05bd
00000080: 70e5 20bd f330 ccbc 3043 ba3c 4eb3 5e3a
00000090: a230 b03c 43f3 aebc 7d4b 8bbc 4fd4 0a3d
000000a0: b273 bbbc 8a67 033d e63c 6bbc 3ca4 30bd
000000b0: 8d02 343d a4fb 90bc 65d6 47bb b943 b7bc
000000c0: 2fee 8cbc c007 ae3c 347c b4bc 0014 bdbc
000000d0: 7302 2d3d 4377 22bb 2f9b 20bd 2001 953b
000000e0: 2fdf 9c3c 23b1 c93c 8416 eebc 2cc9 ec3c
000000f0: 76f0 453c 614e 38bd 3400 983c 28d9 e73c
00000100: a6ba 0bbd fb6c 553c c97e d8bc 0078 ab3c
00000110: e21e ebbc 2057 133d c8d3 3fbd d71a cebc
00000120: e81e 18bb 2d84 423d 3318 c83c 2472 25bd
00000130: 7f1a b1bc 2d68 39bd bf81 0c3d ffcc 443d
00000140: cd82 acba 87cf 49bc 3b85 933c 1af4 0dbd
00000150: 686b 2d3d 610c 47bd 145f aa3c 1765 e43c
00000160: 9960 003d f285 dc3c 56b2 0dbd b829 a13a
00000170: c4f3 163d 4bec bb3c 7c33 1ebd 5240 a1bc
00000180: b001 263d b41e 8fbb d7eb e8bc b31c 32bd
00000190: f4fb c5bb 7bec 35bd ac6c 223d 10ec 023d
000001a0: 9164 06bd 9efa b0bc f0ed 09bd ee7e 893c
000001b0: 1da2 6cbc 6a6b f63c 0072 d9b8 85f7 e43c
000001c0: 54ab 513c 8e34 e83c 54cb e8bc e5b7 2abd
000001d0: 9b2e 3e3d 55cc 403d cc34 babc c426 a13b
000001e0: 703d d23c e4a0 55bc a1e1 28bd 1cca 1fbd
000001f0: c851 8a3c 108f fe3c 047d cc3c e56f d53c
00000200: b425 08bd d6df d93b 139c 0d3d 9369 9bbc
00000210: 6d5d 0a3c 40e8 1abd d2c9 7b3c 2bc6 e5bc
00000220: a4ab 28bc 8892 a03b 76d2 4e3c 6805 10bd
00000230: 9793 16bd bbe1 b03c 88ef 353c 1a7f 35bd
00000240: 7aef 103d 4ea8 d53c 22f5 29bd af1e 9cbb
00000250: be94 d93c a2d4 e4bc 7570 263d c48a 8fbb
00000260: b8e2 1f3d 4a43 30bd 7415 8abc 25bc b5bc
00000270: 348e 78bc 727a 1dbd 1d2b 2fbd 8203 31bd
00000280: c9d9 423d a61f b6bc aea1 4f3b 7173 a8bc
00000290: 1922 333d 6075 2cbd af04 40bd 2055 b33a
000002a0: 30d7 ad3b c8d0 2fbc 39b1 3c3d 2c21 603c
000002b0: 61d2 c33b 2862 b639 4b22 27bc f69e 593c
000002c0: fee8 233c f108 6ebc dbbe 203d 71e3 86bc
000002d0: 25b8 3b3c d3cc 0d3d 1456 0dbd 445f 25bd
000002e0: 9785 e1bb 973a e83c fad0 3e3c 1a6a 4d3c
000002f0: 9395 bbbc b036 eabc fa45 d4bc b447 4f3c
00000300: d0d9 9dbc b5ad 36bc 562f 073d aeb6 e4bc
00000310: c49f 3cbc 2764 b9bc 93b3 653c c821 253c
00000320: e24f 163d 086d 33bd e985 2fbc eaec 1a3d
00000330: a4f2 e33a 00ac 38bc 7ed2 863c b0eb 14bd
00000340: 689c a0bb 113e 0c3d ba82 0fbd 6114 013d
00000350: 7c88 bd3c d2fd d73c bd5d 9ebc 1d0a d3bc
00000360: 6dee b0bc 9660 9abc 89c1 eabc 8064 4bbc
00000370: f201 0dbd fe4b 063d 36ce c93c 9233 3ebd
00000380: 2c96 29bd c7fd 9cbc 1e5d 13bd ed3f b9bc
00000390: 9e19 713a 3e27 7bbc bf0c 9a3b e132 5fbc
000003a0: 8390 bebc dc40 0a3c 6f00 013d 1513 32bd
000003b0: 5229 0cbd 1e8f 4b3c cd1e 00bd 6b3e f4bc
000003c0: 45bc be3a e936 813c e72a 823b 73c2 ae3c
000003d0: 6f71 2fbd d0a2 32bd ccb3 883c 22e7 80bb
000003e0: 8d29 a0bc 84a6 6dbc 76c9 5d3c 8014 d8bc
000003f0: b407 db3c 6591 123c f511 dabc 6232 b93c

fc3.weight f4 [128, 256]
-0.0024863663 0.055254288 0.023605878 0.012091955 0.02568395 0.045949645 -0.05577498 -0.03315282
0.008704145 -0.00642437 0.03910068 0.022546202 -0.036879905 0.0060525974 -0.034857705 -0.05152098
0.058787707 0.05743164 0.052118223 -0.0017365774 -0.0024601337 0.03905762 0.005593851 -0.029467972
-0.054240268 -0.056256767 0.0640493 0.0069989166 0.030105913 -0.032235477 -0.009932383 -0.021470245
-0.03382615 0.05591153 0.023672102 -0.043037243 0.004150106 0.05444967 0.05462514 0.05951848
0.0461236 -0.02289695 -0.03611498 0.03946782 -0.033218868 0.04755125 0.04839561 0.0063719624
0.03179731 0.016011985 -0.025583198 0.035767216 -0.051836714 -0.028204728 0.0111038145 0.0376372
0.004968081 -0.04642885 0.06382293 0.038596638 0.06350455 0.059669074 0.018414758 0.031477857
-0.034513935 -0.042270176 0.014596077 0.002194632 0.0327704 -0.042644266 -0.019993767 -0.0213752
-0.006274729 -0.030936943 -0.057975277 -0.061142527 0.041425366 -0.017199341 0.04344026 0.008382747
0.04014123 -0.04199566 -0.018263716 -0.032089125 -0.04438025 0.055005997 0.046880588 0.04230599
-0.030107455 0.05299504 -0.030371713 -0.050960895 -0.04944918 -0.02089895 0.037077833 -0.0004173812
-0.043467853 0.024189744 0.051070485 -0.036385935 -0.02410868 -0.009898541 0.014446933 -0.06012752
-0.02117659 0.0012686064 -0.0568869 0.049468596 0.027680747 -0.039986588 0.054549564 -0.01989465
0.054247424 -0.041666213 0.054861184 0.029128153 -0.011091981 0.0470849 0.060855765 0.014715513
-0.04819352 0.01746265 0.031615328 0.045011993 0.05772113 -0.026490508 0.049212273 0.031621207
-0.036197867 0.028342405 -0.021901147 -0.013685778 0.019737586 0.049369596 -0.020282878 0.038378004
0.04865909 -0.014998514 -0.028759522 0.022860104 -0.036645856 -0.016353361 0.03774121 0.044242933
0.009016766 -0.038849838 0.06241343 0.022864666 0.051895432 0.040000714 -0.026758805 -0.060344577
0.029095707 -0.041793693 0.023003781 -0.03144851 -0.0023749662 -0.051500887 0.028206699 -0.023065172
-0.035273287 0.02472023 -0.012768615 -0.029498858 0.008272267 -0.0085668545 -0.022597373 0.038513504
0.013917534 0.0043335464 0.027188752 -0.025212625 -0.019700395 0.000868096 0.05870438 0.06179849
-0.0043361066 -0.016263649 0.024513721 -0.021592079 -0.050084207 -0.0030674788 0.020613533 0.047961783
0.055345196 0.0414941 -0.027515491 0.01405349 0.030264478 -0.04377799 0.02571573 -0.016953606
0.057484403 0.044628683 0.05597046 0.04649361 0.013626647 0.022523783 0.021484235 -0.059329793
0.015467031 -0.010783732 0.061127 0.03885179 -0.04818315 0.000364316 0.03227365 -0.056440216
-0.05341423 -0.05900827 -0.03241048 0.018604985 0.040660404 0.027260002 -0.056392394 -0.014610345
0.053388674 0.0026512411 0.032336805 0.045007844 -0.02615056 -0.014390923 -0.017017841 0.059939593
-0.022595953 -0.057922117 -0.019152442 0.029725572 -0.06212291 -0.0058636586 -0.014105687 0.04440251
0.04162655 0.041162293 -0.04038676 0.00321523 0.006940238 -0.050306093 -0.06052579 0.005856556
-0.021034539 -0.023438806 0.0550235 -0.011225688 0.037808705 0.05115974 -0.04205309 0.05430288
-0.052734807 -0.031021662 0.044855133 -0.03351653 0.045674384 0.04933429 -0.056898765 -0.03503628
00000000: 4ef2 22bb 5252 623d 1d61 c13c 561d 463c
00000010: 2667 d23c b235 3c3d 4e74 64bd 40cb 07bd
00000020: d59b 0e3c 8683 d2bb 0928 203d d0b2 b83c
00000030: 620f 17bd de54 c63b f4c6 0ebd aa07 53bd
00000040: 61cb 703d 703d 6b3d eb79 553d de9d e3ba
00000050: 323a 21bb e2fa 1f3d a04c b73b d166 f1bc
00000060: 0b2b 5ebd 7f6d 66bd 482c 833d 2b57 e53b
00000070: ada0 f63c 5909 04bd 6fbb 22bc 5ee2 afbc
00000080: 4a8d 0abd 7d03 653d ffeb c13c d247 30bd
00000090: 9dfd 873b 9e06 5f3d 9cbe 5f3d a6c9 733d
000000a0: 1aec 3c3d 6292 bbbc 4ded 13bd 02a9 213d
000000b0: 8210 08bd 19c5 423d 7a3a 463d e5cb d03b
000000c0: e53d 023d 912b 833c db93 d1bc a580 123d
000000d0: bc52 54bd 9a0d e7bc c6ec 353c 7729 1a3d
000000e0: 49cb a23b 2e2c 3ebd 99b5 823d 8217 1e3d
000000f0: ac0e 823d 8f67 743d 8cda 963c edee 003d
00000100: 7c5e 0dbd 7e23 2dbd 6224 6f3c d1d3 0f3b
00000110: 413a 063d c1ab 2ebd f8c9 a3bc 0b1b afbc
00000120: 3e9c cdbb 796f fdbc 7c77 6dbd 9670 7abd
00000130: a5ad 293d a2e5 8cbc 6aee 313d ca57 093c
00000140: 216b 243d a403 2cbd ca9d 95bc e36f 03bd
00000150: 11c8 35bd f84d 613d dc05 403d 0c49 2d3d
00000160: e9a3 f6bc 5411 593d 19ce f8bc 5fbc 50bd
00000170: 398b 4abd 4634 abbc edde 173d f5d3 dab9
00000180: 590b 32bd 9229 c63c 492f 513d 6b09 15bd
00000190: 917f c5bc 7d2d 22bc d4b2 6c3c 4648 76bd
000001a0: 877a adbc 5e47 a63a 3d02 69bd 959f 4a3d
000001b0: bcc2 e23c fac8 23bd 5d6f 5f3d 1bfa a2bc
000001c0: 8c32 5e3d 31aa 2abd 1fb6 603d 2a9e ee3c
000001d0: 24bb 35bc 19dc 403d e543 793d 5619 713c
000001e0: 9266 45bd d50d 8f3c 137f 013d 7f5e 383d
000001f0: fe6c 6c3d 9f02 d9bc cf92 493d 3d85 013d
00000200: 3744 14bd 552e e83c 096a b3bc 503a 60bc
00000210: b8b0 a13c c637 4a3d 4728 a6bc 4132 1d3d
00000220: c14e 473d 54bc 75bc 1799 ebbc 1d45 bb3c
00000230: f719 16bd 7cf7 85bc 8796 1a3d 1438 353d
00000240: 0fbb 133c 0221 1fbd 3aa5 7f3d ae4e bb3c
00000250: 4e90 543d cad7 233d 4835 dbbc e02b 77bd
00000260: 1f5a ee3c dd2f 2bbd 6d72 bc3c 27d0 00bd
00000270: 52a5 1bbb 98f2 52bd bc11 e73c 2cf3 bcbc
00000280: b97a 10bd 1482 ca3c 7433 51bc 97a7 f1bc
00000290: 6788 073c fe5b 0cbc 201e b9bc 56c0 1d3d
000002a0: 5e06 643c 6c00 8e3b f2ba de3c b58a cebc
000002b0: b962 a1bc f090 633a 0174 703d 6a20 7d3d
000002c0: e615 8ebb 583b 85bc 00d1 c83c dfe1 b0bc
000002d0: 1925 4dbd c107 49bb b6dd a83c 9373 443d
000002e0: a5b1 623d b8f5 293d 2b68 e1bc 9c40 663c
000002f0: 36ed f73c 8d50 33bd cba9 d23c 4ae2 8abc
00000300: c474 6b3d 91cc 363d 4841 653d 1570 3e3d
00000310: 4d42 5f3c cc83 b83c b5ff af3c cc03 73bd
00000320: 6e69 7d3c 40ae 30bc 4e60 7a3d 0e23 1f3d
00000330: b25b 45bd aa01 bf39 6031 043d db2d 67bd
00000340: e1c8 5abd a8b2 71bd dac0 04bd 7b69 983c
00000350: 868b 263d 5e50 df3c b6fb 66bd 3a60 6fbc
00000360: 15ae 5a3d 72c0 2d3b 9973 043d 255a 383d
00000370: b339 d6bc e8c7 6bbc 0069 8bbc 3883 753d
00000380: 261b b9bc be3f 6dbd 95e5 9cbc 0b83 f33c
00000390: 9874 7ebd ef23 c0bb 8a1b 67bc 68df 353d
000003a0: 9a80 2a3d cb99 283d 966c 25bd 9cb6 523b
000003b0: f06a e33b c30d 4ebd e4e9 77bd 5ae8 bf3b
000003c0: a050 acbc bd02 c0bc 5260 613d f3eb 37bc
000003d0: 4ddd 1a3d e08c 513d dc3f 2cbd b26c 5e3d
000003e0: 7400 58bd 2421 febc 04ba 373d a148 09bd
000003f0: 1015 3b3d c112 4a3d ae0e 69bd 3482 0fbd

fc3.bias f4 [128]
0.033106 -0.055155803 0.05289224 -0.061271023 0.05931807 0.01636891 0.038106386 -0.035520054
-0.007975525 0.020841952 0.054296482 -0.06101714 -0.006198799 0.03229884 -0.019135028 -0.008318971
-0.050620317 0.04526878 0.003470025 -0.04862148 -0.020525064 -0.041254207 0.04261684 -0.026833571
-0.037810635 0.047156416 0.046902314 -0.024552457 -0.03736343 -0.019648813 0.009842567 0.019259863
-0.05146326 -0.05101818 0.05007204 -0.044733718 -0.04461112 0.029082747 0.061020434 0.05347771
-0.02036535 -0.023336302 -0.008909566 -0.0449747 0.0024462952 0.06807552 -0.044940747 0.07872907
0.06194967 -0.048978243 -0.009433594 0.046721023 -0.020971388 0.05916573 0.02289871 0.04819226
-0.018976921 0.010797767 0.013433141 -0.038652 -0.0617692 0.0439802 -0.065118246 0.0027697696
-0.060483497 -0.002586333 -0.006870181 -0.043081157 0.019524561 0.00691819 -0.0058129765 -0.0657172
0.021212934 -0.017517108 0.0065291002 -0.061798513 -0.06865998 0.072632745 -0.018838884 0.017657485
0.053235676 -0.038409047 0.011083792 -0.0036430256 0.006139694 0.026446562 -0.039684925 0.04139637
-0.021698687 -0.022433707 0.023728166 -0.011825297 -0.054797202 -0.031635266 0.0019104001 -0.021763543
0.034430973 -0.05041504 0.045058023 -0.007214261 -0.049149133 0.019794714 0.036983456 -0.014289228
0.02157404 -0.066613406 0.008146996 0.027334481 0.024430128 0.049318153 0.051992584 0.031167887
0.039962627 0.029807791 -0.0111387875 0.054609206 0.050208073 0.048032373 -0.031030241 0.028144332
-0.0066685434 0.040039923 -0.05092274 -0.009531498 -0.041589785 0.0129481135 0.047153804 -0.034921847
00000000: 289a 073d 0deb 61bd 89a5 583d 53f7 7abd
00000010: 81f7 723d 1818 863c 7115 1c3d 7a7d 11bd
00000020: c7ab 02bc bebc aa3c fd65 5e3d 1ced 79bd
00000030: 4b1f cbbb ca4b 043d 10c1 9cbc 4b4c 08bc
00000040: 4057 4fbd c26b 393d 5c69 633b 5127 47bd
00000050: 2e24 a8bc 2cfa 28bd ff8e 2e3d 14d2 dbbc
00000060: 53df 1abd 1627 413d a41c 403d 3c22 c9bc
00000070: 650a 19bd 8cf6 a0bc b842 213c dcc6 9d3c
00000080: 24cb 52bd 70f8 50bd 5718 4d3d b43a 37bd
00000090: 26ba 36bd f13e ee3c 90f0 793d 710b 5b3d
000000a0: 3cd5 a6bc c62b bfbc 6ef9 11bc 6437 38bd
000000b0: 0652 203b 2e6b 8b3d ca13 38bd b53c a13d
000000c0: f0be 7d3d 699d 48bd 5c8f 1abc 8b5e 3f3d
000000d0: 30cc abbc c457 723d 1396 bb3c 3f65 453d
000000e0: 7d75 9bbc 1ee9 303c ad16 5c3c 8f51 1ebd
000000f0: b301 7dbd 9524 343d b75c 85bd 0685 353b
00000100: 8bbd 77bd 787f 29bb 411f e1bb de75 30bd
00000110: f9f1 9f3c fcb1 e23b c87a bebb bd96 86bd
00000120: bfc6 ad3c 0a80 8fbc 10f2 d53b 7020 7dbd
00000130: 9b9d 8cbd 7ac0 943d 0154 9abc 6ea6 903c
00000140: a70d 5a3d ce52 1dbd cb98 353c d4bf 6ebb
00000150: 7c2f c93b 76a6 d83c a98c 22bd 3d8f 293d
00000160: 72c1 b1bc e5c6 b7bc 9261 c23c e4be 41bc
00000170: 0873 60bd fb93 01bd 6466 fa3a 7549 b2bc
00000180: 7e07 0d3d 0080 4ebd c38e 383d 9c65 ecbb
00000190: 9a50 49bd 8628 a23c f77b 173d 5e1d 6abc
000001a0: 0bbc b03c 9c6c 88bd fa7a 053c 90ec df3c
000001b0: b121 c83c d501 4a3d 2df6 543d cc53 ff3c
000001c0: daaf 233d 782f f43c 767f 36bc e7ad 5f3d
000001d0: fba6 4d3d 98bd 443d 2233 febc f18e e63c
000001e0: cc83 dabb e700 243d 5d94 50bd 002a 1cbc
000001f0: 0d5a 2abd 5324 543c 5924 413d 360a 0fbd

fc4.weight f4 [64, 128]
-0.012566139 -0.049689807 -0.022929968 -0.027770706 -0.075188234 0.029080836 0.06955257 -0.03526945
0.0651238 0.0835209 -0.05185175 0.028812818 -0.014374541 0.07106389 -0.073928826 0.06267581
0.0022718734 -0.07848489 -0.0571678 0.005335345 -0.08408228 0.023717087 0.03417492 -0.00916966
-0.070748486 0.06104233 -0.0040623415 0.014902209 -0.056889128 0.054577503 0.07685761 -0.0535246
-0.065991804 -0.08817853 0.06150582 0.0077416487 0.049248047 0.07951552 0.020213706 0.009031274
-0.031036472 0.077787235 0.053592514 0.045679543 0.06271134 -0.052580927 0.01895261 0.04968167
-0.06525392 0.050700855 0.034996092 -0.02534662 0.079979725 0.08389564 0.045382682 0.023820477
0.024380691 -0.047703374 -0.07430098 -0.03850979 -0.06304068 -0.03782141 -0.08471414 -0.05615515
-0.060344663 0.042242747 0.057499602 0.019881852 -0.04717032 0.0746097 0.08194722 -0.0557161
0.026735878 -0.08340101 0.0810297 -0.067566305 0.07401797 -0.049892005 -0.03852453 0.042725693
-0.039223507 -0.07616721 0.084549665 -0.07346742 -0.06319801 0.048251823 0.019127341 -0.009571482
0.05172408 0.03991788 -0.033476304 0.018994424 -0.06220362 0.036649168 -0.038118597 0.021405851
0.04768343 0.03723616 0.0567034 -0.0057266434 0.010806309 -0.09103681 0.08165225 0.06844828
0.03561295 0.057814352 -0.01884172 0.011348868 0.052631956 0.070395365 -0.08346541 -0.048827477
-0.056960557 -0.07918747 -0.07861932 -0.039447676 -0.032245804 -0.034507442 -0.06137735 -0.07219531
-0.00343986 -0.067979485 -0.006685127 -0.06581056 -0.0013004043 0.067777604 0.027354905 -0.06747219
-0.045008376 -0.011593573 -0.0640163 0.029497653 0.0021753013 -0.031517066 0.046315007 -0.0051699793
0.045122482 -0.067053705 -0.08387816 -0.06519164 0.015900753 0.08579975 -0.025964472 -0.01691471
-0.05149843 0.075208314 0.03394021 -0.008924447 0.006892517 -0.043675344 0.053531047 -0.065039575
0.0010470301 -0.0153616965 -0.078883745 -0.031855706 0.055263333 0.06783322 0.058570884 -0.010412529
0.0066059604 0.040536083 -0.003540516 -0.084495455 -0.0020425022 0.014378911 0.03712987 0.022903986
0.05990196 -0.010538757 -0.075192824 0.010691285 -0.07873319 0.01057248 0.042893417 0.080846034
0.07529539 0.004899915 -0.015841566 -0.027354758 -0.043186147 -0.060620286 -0.012837015 -0.0702576
-0.044367123 -0.070584275 0.055883057 0.083953165 0.03682784 -0.02037675 -0.05385384 -0.08771043
0.083335884 -0.043724976 0.029607274 0.06186945 -0.034006026 -0.067794986 0.082481556 0.058044486
-0.050372165 0.037359826 -0.078763135 -0.07602575 -0.045505036 0.06735829 -0.0130453035 -0.07514287
-0.02797655 -0.08598648 -0.083656 -0.015124604 -0.025078923 -0.031431843 0.030486777 -0.061871625
-0.063789725 0.011983777 0.014287127 0.00948026 0.06510397 -0.07773495 -0.04628256 -0.058680527
-0.05440588 0.040359065 -0.05908557 -0.04759809 0.06703616 -0.011057161 0.066216856 -0.0708192
0.02261626 0.055384435 -0.009774856 0.047493346 -0.08950317 0.024453506 0.021917611 0.045055408
-0.055413347 -0.039697684 -0.06364548 0.08032613 -0.002919361 -0.013960377 -0.032900084 0.07484456
-0.07376816 0.055395 -0.084241346 0.07130655 -0.014914632 0.025104254 -0.03592807 -0.020844981
00000000: 35e2 4dbc 8a87 4bbd a1d7 bbbc 647f e3bc
00000010: 4afc 99bd ef3a ee3c 9471 8e3d b376 10bd
00000020: a05f 853d 010d ab3d 8062 54bd dc08 ec3c
00000030: 3283 6bbc f289 913d ff67 97bd 2d5c 803d
00000040: b6e3 143b b0bc a0bd c828 6abd 1ed4 ae3b
00000050: 5533 acbd 564a c23c 00fb 0b3d 573c 16bc
00000060: 95e4 90bd 8607 7a3d 641d 85bb 6528 743c
00000070: 9304 69bd a98c 5f3d 8667 9d3d 9c3c 5bbd
00000080: b626 87bd f296 b4bd 87ed 7b3d a8ad fd3b
00000090: 52b8 493d 08d9 a23d 3797 a53c e9f7 133c
000000a0: 3340 febc ea4e 9f3d d383 5b3d 791a 3b3d
000000b0: ce6e 803d 195f 57bd 8142 9b3c 027f 4b3d
000000c0: d9a3 85bd b3ab 4f3d 1058 0f3d b7a3 cfbc
000000d0: 69cc a33d 7ad1 ab3d 31e3 393d 2923 c33c
000000e0: 04ba c73c 9d64 43bd 1d2b 98bd 71bc 1dbd
000000f0: 791b 81bd 9fea 1abd 9b7e adbd f102 66bd
00000100: f72b 77bd bb06 2d3d b484 6b3d 44df a23c
00000110: aa35 41bd f8cc 983d f2d3 a73d 9136 64bd
00000120: 3305 db3c 26ce aabd e6f2 a53d 3460 8abd
00000130: bc96 973d 8f5b 4cbd e6cb 1dbd 2301 2f3d
00000140: d4a8 20bd 8efd 9bbd 6028 ad3d 1676 96bd
00000150: f56d 81bd b4a3 453d f1b0 9c3c b5d1 1cbc
00000160: a1dc 533d ee80 233d 731e 09bd 329a 9b3c
00000170: 39c9 7ebd 701d 163d 3f22 1cbd 535b af3c
00000180: b34f 433d f284 183d d341 683d 91a6 bbbb
00000190: f20c 313c 8271 babd 4b39 a73d 9d2e 8c3d
000001a0: e2de 113d bece 6c3d f359 9abc 9af0 393c
000001b0: 9b94 573d 722b 903d eaef aabd 52ff 47bd
000001c0: 794f 69bd 0a2d a2bd 2b03 a1bd e393 21bd
000001d0: 2d14 04bd ad57 0dbd d166 7bbd 22db 93bd
000001e0: 466f 61bb d438 8bbd e90e dbbb b0c7 86bd
000001f0: 5472 aaba fcce 8a3d 6517 e03c dc2e 8abd
00000200: b45a 38bd f8f2 3dbc fa1a 83bd 10a5 f13c
00000210: 808f 0e3b 0a18 01bd ceb4 3d3d ee68 a9bb
00000220: 5ad2 383d 7453 89bd 50c8 abbd 3283 85bd
00000230: 4c42 823c c8b7 af3d 72b3 d4bc b890 8abc
00000240: 05f0 52bd d106 9a3d e404 0b3d d837 12bc
00000250: a0da e13b ebe4 32bd 5f43 5b3d 7833 85bd
00000260: 803c 893a a0af 7bbc cd8d a1bd 217b 02bd
00000270: ce5b 623d 25ec 8a3d 06e8 6f3d 5099 2abc
00000280: d076 d83b 2a09 263d 0008 68bb f40b adbd
00000290: 80db 05bb 8695 6b3c 7e15 183d 24a1 bb3c
000002a0: c25b 753d c0aa 2cbc b2fe 99bd 802a 2f3c
000002b0: de3e a1bd 3238 2d3c 02b1 2f3d 9b92 a53d
000002c0: 7834 9a3d 778f a03b 2cc6 81bc 1617 e0bc
000002d0: f5e3 30bd fa4c 78bd 5852 52bc 37e3 8fbd
000002e0: 4dba 35bd 7d8e 90bd a2e5 643d a3ef ab3d
000002f0: cad8 163d 24ed a6bc d895 5cbd 87a1 b3bd
00000300: 01ac aa3d f618 33bd f48a f23c d26a 7d3d
00000310: e749 0bbd 19d8 8abd 17ec a83d 0ec0 6d3d
00000320: 0b53 4ebd 9e06 193d 914e a1bd 63b3 9bbd
00000330: 7d63 3abd 25f3 893d f8bb 55bc 81e4 99bd
00000340: 142f e5bc ae19 b0bd d653 abbd 30cd 77bc
00000350: 5072 cdbc adbe 00bd 68bf f93c 1a6d 7dbd
00000360: 30a4 82bd 9b57 443c 8e14 6a3c 1853 1b3c
00000370: 3b55 853d 8033 9fbd c892 3dbd fe5a 70bd
00000380: b3d8 5ebd 8c4f 253d b603 72bd 37f6 42bd
00000390: 414a 893d 1829 35bc b49c 873d a809 91bd
000003a0: bc45 b93c cada 623d b826 20bc 6288 423d
000003b0: 704d b7bd b852 c83c 908c b33c 058c 383d
000003c0: 1bf9 62bd 0a9a 22bd 9058 82bd 0782 a43d
000003d0: c052 3fbb 11ba 64bc 3dc2 06bd 1b48 993d
000003e0: c313 97bd dee5 623d ba86 acbd 2b09 923d
000003f0: 805c 74bc 70a7 cd3c 5029 13bd 18c3 aabc

fc4.bias f4 [64]
0.0691513 -0.081059135 0.03610144 0.028070712 0.064088486 5.5518933e-05 0.052755177 -0.02243917
-0.058721207 0.05176985 -0.054645713 0.04413105 0.056170173 -0.021065645 0.029918946 -0.026508553
-0.05190155 0.005262755 -0.05778849 0.010988709 -0.00030538137 0.0681337 0.110730425 0.02377929
-0.07458236 -0.033823647 -0.0129326135 0.011918869 -0.036660694 0.009175223 -0.0037830842 -0.022371998
0.025536291 0.06318526 -0.050613817 0.054700587 -0.012578276 -0.018471181 -0.058019795 0.0073755197
-0.058227792 -0.023806201 -0.08143202 -0.03353345 -0.023704242 -0.081455454 -0.08063048 0.0020949491
-0.05216739 -0.05790182 0.03964886 0.024179744 -0.016324066 0.15449573 -0.06970867 -0.053985156
-0.05648948 -0.0502143 -0.030120563 0.04514033 -0.0010919911 -0.081490934 0.011604613 -0.054586682
00000000: 329f 8d3d 5502 a6bd 1bdf 133d 8df4 e53c
00000010: d340 833d 00dd 6838 d015 583d 5ad2 b7bc
00000020: a685 70bd 9f0c 543d 2fd4 5fbd c3c2 343d
00000030: b212 663d dc91 acbc 9418 f53c 7728 d9bc
00000040: b896 54bd 3073 ac3b a0b3 6cbd fc09 343c
00000050: 981b a0b9 ae89 8b3d a2c6 e23d c9cc c23c
00000060: a3be 98bd aa8a 0abd 50e3 53bc 5c47 433c
00000070: 8629 16bd ad53 163c 9fed 77bb 7b45 b7bc
00000080: 7c31 d13c 4667 813d 6f50 4fbd b90d 603d
00000090: 1d15 4ebc e050 97bc 2aa6 6dbd 58ae f13b
000000a0: 4480 6ebd 3905 c3bc d5c5 a6bd 5f5a 09bd
000000b0: 662f c2bc 1ed2 a6bd 9821 a5bd 6a4b 093b
000000c0: 79ad 55bd 752a 6dbd d866 223d 9914 c63c
000000d0: 0cba 85bc 2134 1e3e 6bc3 8ebd 8a1f 5dbd
000000e0: 8361 67bd 83ad 4dbd 66bf f6bc 11e5 383d
000000f0: 2421 8fba b8e4 a6bd 4621 3e3c 4996 5fbd

fc5.weight f4 [1, 64]
-0.027014615 0.07725864 -0.05204321 -0.031498592 -0.045818545 -0.0142583 0.020905688 0.09368286
0.047428902 -0.0035082637 0.09497452 -0.09853465 0.1004159 0.0005698656 0.04048484 0.030764636
-0.07496108 0.055644736 0.07843412 0.09657958 0.053146336 0.08664332 -0.08230111 0.024420783
0.09876243 -0.05400074 0.0041469387 0.016748846 -0.07869094 0.063381106 -0.0058041457 0.07221705
-0.12674306 0.072646886 0.047872648 -0.010626761 -0.066842675 -0.03204152 -0.0993691 -0.022304762
0.094095156 -0.05711376 0.030070603 0.013379124 0.0022145396 -0.050145075 0.045077264 -0.037556283
0.097691245 -0.0164085 -0.054722257 -0.014599206 0.023206146 -0.19436862 -0.07122043 0.008279362
0.014592556 0.022008797 0.0810232 -0.037344556 -0.029248629 0.0766344 0.005978734 -0.09998947
00000000: c14d ddbc c739 9e3d 432b 55bd ab04 01bd
00000010: 3aac 3bbd a59b 69bc 6842 ab3c cddc bf3d
00000020: cf44 423d e6ea 65bb 0082 c23d 89cc c9bd
00000030: daa6 cd3d 0863 153a 6ed3 253d 1e06 fc3c
00000040: 3285 99bd bceb 633d 11a2 a03d 84cb c53d
00000050: f9af 593d 0e72 b13d 7c8d a8bd 180e c83c
00000060: f543 ca3d e12f 5dbd 0be3 873b e034 893c
00000070: b728 a1bd f4cd 813d b430 bebb 88e6 933d
00000080: efc8 01be e4c7 943d 1c16 443d de1b 2ebc
00000090: d0e4 88bd f83d 03bd 0782 cbbd 7ab8 b6bc
000000a0: f6b4 c03d 1ef0 69bd a056 f63c 1d34 5b3c
000000b0: cf21 113b ec64 4dbd f0a2 383d 9ed4 19bd
000000c0: 5912 c83d 1e6b 86bc 7224 60bd 8231 6fbc
000000d0: d11a be3c 9108 47be 04dc 91bd 29a6 073c
000000e0: 9e15 6f3c cb4b b43c 7eef a53d 9bf6 18bd
000000f0: d29a efbc 7ff2 9c3d 42e9 c33b 47c7 ccbd
